assignment_2_cnn/Model/Simple-CNN/model.pth (torch, 274804 bytes, 6 tensors)

conv1.weight f4 [16, 3, 5, 5]
000000 4d 52 a2 3d 32 31 d9 bc 22 15 47 3c 4d 27 87 3c
       0.07925854 -0.026512716 0.012151035 0.016498232
000010 29 1f 80 3d e1 f5 9f bd 06 27 bf 3c c0 81 7d bc
       0.06255943 -0.078105696 0.023334038 -0.015472829
000020 8b 66 c6 bb 45 a6 81 bd 52 4a e5 bd 9a 14 e4 3d
       -0.0060547045 -0.063305415 -0.11195816 0.11136742
000030 40 09 b9 bc b5 80 38 bd 70 f0 c5 bd 0d b7 79 3c
       -0.022587419 -0.04504462 -0.096650004 0.015241397
000040 98 7a 40 bd 0f 31 a3 bd 3e 47 88 3d 81 28 90 3d
       -0.046991915 -0.079683416 0.06654213 0.070389755
000050 70 a6 a2 bd b4 02 aa 3d a1 e0 49 bd ff 04 95 3b
       -0.07941902 0.08301297 -0.04928649 0.0045477147
000060 65 1f 15 bd 65 31 41 bd 1b 68 3a bd e6 6e a8 bd
       -0.036406893 -0.047166247 -0.04550944 -0.08224277
000070 a5 d6 a7 bd e5 a3 d7 bd 84 5e b7 bd e4 a2 cb 3d
       -0.08195237 -0.10529307 -0.08953574 0.09943178
000080 93 84 a4 3d a9 21 24 bd 60 bf 08 3d 84 bf ed 3c
       0.08033099 -0.040071163 0.033385634 0.029021986
000090 07 50 8e bd a8 e7 a1 bc e9 15 07 bd cb d9 9c 3d
       -0.06948858 -0.019763783 -0.03297988 0.07658728
0000a0 99 39 a7 bb 6e a0 c3 bc 0b 0a d3 3d 7b c7 8e bd
       -0.0051033017 -0.02388021 0.1030465 -0.06971642
0000b0 fa e7 3f 3d 4e 76 9e 3c d2 d1 df bd 8e d5 d2 3d
       0.04685209 0.019343521 -0.10928692 0.102946386
0000c0 c4 16 10 3d af 65 eb bd 6f 35 3d bd 64 0a e9 3d
       0.03517796 -0.11494004 -0.046193536 0.11378935
0000d0 18 b7 97 3d 4c 49 d0 3c c5 25 bc 3d 34 7b c1 3d
       0.07407969 0.025425576 0.091868915 0.09447327
0000e0 93 e4 01 bd ae e9 f0 bc e1 19 7f bc 92 c5 0b bc
       -0.031712126 -0.029408302 -0.015570135 -0.008530991
0000f0 dd ca 03 3d 39 ef 52 bc 60 24 56 3d e6 14 80 3d
       0.032175887 -0.012874418 0.052280784 0.06253986
000100 39 4c 07 bd 76 a4 a3 3d 89 00 3d 3d 9b d4 ad bd
       -0.033031676 0.07990353 0.04614309 -0.08487817
000110 af 44 b1 bc 7a ab c6 bc 92 45 07 bd 9b 6c d0 3c
       -0.021639196 -0.024251688 -0.03302533 0.025442412
000120 7d 27 34 bc 83 80 3f 3d 24 7c c7 bd 52 af 91 3d
       -0.010995743 0.046753418 -0.09740475 0.07113518
000130 95 6f 47 3e 04 1b 12 3e d9 50 9a 3c b7 17 83 be
       0.19476159 0.14268118 0.01883738 -0.2560403
000140 51 24 3d 3e c9 9f 9d 3e c3 d9 0f 3c a8 8c 68 be
       0.18470885 0.3078597 0.008779946 -0.22709906
000150 6f 65 d1 bd f0 17 6c 3e cf 79 36 3e 0b 16 32 bd
       -0.10224425 0.23056006 0.17819904 -0.043478053
000160 6b b5 6e bd 0d eb 85 be ff ab 0d bd 3e 43 11 be
       -0.058278482 -0.26155892 -0.034587856 -0.14185807
000170 68 24 83 bc 12 1a 67 be f6 55 35 be 78 2b 61 bd
       -0.01600857 -0.22568539 -0.17708573 -0.054973096
000180 e2 a2 91 bd 9d 28 40 be 01 6e e1 bc cf 7f 7c bd
       -0.071111456 -0.18765493 -0.027518274 -0.061645325
000190 ba 0f d1 3c 3a 35 17 3e ff ff 7d bd 04 c2 d1 3b
       0.025520194 0.14766398 -0.062011715 0.0064013023
0001a0 10 3b 84 be 36 10 4c 3e 6c 5c af 3e 04 76 1f bd
       -0.2582631 0.19928059 0.342502 -0.038930908
0001b0 b2 58 10 be f8 e3 79 be ed 33 6e 3e 9a 24 06 3e
       -0.14096335 -0.2440337 0.23261996 0.130999
0001c0 2e db 22 bd 8a eb e3 bd c5 6c 91 bd 96 8c 3c bd
       -0.039759807 -0.1112891 -0.07100824 -0.04603251
0001d0 38 93 d2 bd 78 05 f5 3c 38 a3 4c be 77 1e f3 bd
       -0.10281986 0.029909834 -0.19984138 -0.11871045
0001e0 96 9e a0 3d ee b6 0e 3c ca b8 0c 3c 98 de ce bd
       0.07842748 0.008710606 0.008588979 -0.1010105
0001f0 aa 56 c8 bd d1 f9 4a 3e 6c 91 bb 3e be 3b af 3d
       -0.09782155 0.1982186 0.36634386 0.08556317
000200 d8 f7 15 3d c8 a3 19 bd bd 9c cc 3e 7b f2 e4 3e
       0.036613315 -0.03750971 0.39963332 0.44716248
000210 12 58 45 3e d1 a3 d4 bc 06 15 45 b8 67 b9 87 3e
       0.19271877 -0.02595702 -4.698804e-05 0.26508638
000220 7d 47 7d 3e 16 86 8d 3c 71 10 d7 3d 8b 21 13 be
       0.24734302 0.017275851 0.10501183 -0.14368264
000230 e5 e6 9c 3c 9b 8c 68 bc 1a 4a ca 3d 72 56 a7 bb
       0.019153068 -0.014193679 0.09877415 -0.0051067406
000240 51 dc 55 3d 96 33 27 3e 22 35 53 ba ca 41 7a 3d
       0.052212063 0.16328272 -0.00080569286 0.061097898
000250 c4 a2 97 bd b6 43 18 3d 95 5c a6 3d e0 fc b7 bd
       -0.07404092 0.03717395 0.08123127 -0.08983779
000260 fd 3c a6 3b cd ab b3 bd 4e 6b c7 3d fc 9c ad bd
       0.0050731883 -0.08773003 0.097372636 -0.08477208
000270 67 df 6a 3d f6 c5 59 bd 0f 8b 8e bd a1 30 92 3d
       0.05734196 -0.053167306 -0.06960117 0.071381815
000280 13 06 88 bd a1 5d 7c bb 66 e4 50 3d fe 97 19 bd
       -0.066417836 -0.0038507956 0.050999068 -0.037498467
000290 96 8b cd 3c c1 91 d3 3d 22 3e d3 bd 9f 87 68 bd
       0.025090974 0.10330535 -0.10314585 -0.056769963
0002a0 71 f0 04 bd 6a 3a 22 3d 03 ef c0 bc f2 fc a8 3d
       -0.032455865 0.03960649 -0.02355147 0.082513705
0002b0 2f cc a5 bc 95 04 60 bc 86 28 8a bd 64 82 48 bd
       -0.020238964 -0.013672967 -0.067460105 -0.048952475
0002c0 43 f3 d6 3d f8 a1 0f 3b 5c d7 42 ba 0b 14 28 3c
       0.10495617 0.002191661 -0.0007432604 0.010258685
0002d0 5b cf 2e bb 2a 6c cb bd 16 7c 8a 3d 5c 7c a8 bd
       -0.0026673886 -0.0993274 0.06761949 -0.08226845
0002e0 71 5b dd bd 8c 51 82 3c 35 74 8a bd 40 34 e3 bd
       -0.10808457 0.015908025 -0.06760446 -0.1109395
0002f0 5e e4 eb 3d 66 54 89 bd e7 af e4 bd a8 d0 f9 3c
       0.11518167 -0.06705551 -0.11166363 0.030495003
000300 96 5a 89 3c d9 73 ec bc b4 69 a8 bd 0d c6 38 3d
       0.016766828 -0.028863834 -0.08223286 0.04511075
000310 4c ad d3 3d 14 28 04 bd b2 1f 8f 3d 78 1a 78 bd
       0.10335788 -0.032264784 0.06988467 -0.060572118
000320 c2 c2 ca bd ec e2 6a bd 3d 4f bb 3d e8 17 6e bd
       -0.09900428 -0.057345316 0.09145973 -0.058128268
000330 30 80 dd bc 54 e6 df 3d 4f d1 29 bc 08 e4 a9 bd
       -0.027038664 0.109326035 -0.010364844 -0.08295447
000340 97 b3 8f bd cc 8c d8 3d 79 ae 45 bd b8 49 97 bc
       -0.07016676 0.1057373 -0.048262093 -0.018467769
000350 f9 59 2a bd 9c 2c eb bd fa 9e f6 3c e1 21 10 bc
       -0.04158971 -0.11483118 0.030105103 -0.00879714
000360 39 26 d6 3d dd 08 79 3d bb eb 40 bc d1 7b 50 3d
       0.10456509 0.06079947 -0.0117749525 0.05089933
000370 f0 cb 43 bd 3c 62 b2 3d 06 f0 93 bd 0b 5e e2 3d
       -0.04780191 0.08710143 -0.07223515 0.110530935
000380 ab a5 92 3d c9 cd a2 bc 9f 70 57 3d 5f 66 4f 3e
       0.07160505 -0.019873517 0.05259764 0.20253895
000390 35 f4 a8 3d 89 f5 5a bd b3 ab 1a 3e d2 c2 99 3e
       0.08249704 -0.053456817 0.1510456 0.3003145
0003a0 96 9a bf 3e c2 80 42 3d 95 84 51 3d 2d f4 0c 3e
       0.37422627 0.047486074 0.05115183 0.1376502
0003b0 35 ff 50 3e 28 86 b8 3e 1c 86 8a 3e 88 fa e5 3d
       0.20409854 0.36039853 0.27055442 0.11229426
0003c0 b6 a1 8a 3d d8 c6 83 3c 25 b4 50 3e 2e 4e 95 3e
       0.06769125 0.016086027 0.2038122 0.2916121
0003d0 06 30 48 3e 71 dc 1d 3e e4 42 23 3c 4f 94 53 3e
       0.1954957 0.15416123 0.009964678 0.20662044
0003e0 38 de 4f 3e 63 23 fb bb 96 c8 6f be 71 82 0e 3d
       0.20299613 -0.0076641305 -0.23416361 0.034792367
0003f0 28 2d 2d 3d 8a 46 83 bd 9e 0e 86 be 4f d9 00 be
       0.042279392 -0.06409939 -0.26183027 -0.12582897

conv1.bias f4 [16]
000000 b6 95 df bd b3 38 f0 be 6a 12 c5 bd 40 4d 9e 3f
       -0.10917227 -0.46918258 -0.09622653 1.2367325
000010 90 d4 0f bf e4 fa 6b be 3c fa 30 bc fb 17 5e bd
       -0.5618372 -0.23044926 -0.010801848 -0.05422209
000020 2d 9e 2b bf 53 75 4e 3f fa 15 63 bc bd 77 bd 3d
       -0.6703823 0.8064777 -0.01386022 0.09251354
000030 84 fb b6 bc 25 0b 0e bf 37 2f 5b bf db 5a 21 bd
       -0.022336729 -0.55485755 -0.8561892 -0.039393287

conv2.weight f4 [32, 16, 5, 5]
000000 da e2 a0 bc d5 1a 12 3d 27 8a cb bc 07 59 5e bc
       -0.019639421 0.03567012 -0.02484615 -0.01357103
000010 33 3b ba 3b c0 ad 85 bc df fe 4a 3d f3 b9 48 bc
       0.0056833266 -0.016318202 0.04955947 -0.012251365
000020 23 a1 48 3d e7 be d9 bb da 8d d1 bc da 99 95 bc
       0.048981797 -0.006645072 -0.025580335 -0.018261839
000030 c7 0a 35 3c d0 18 8e 3c 15 03 1f bd b0 23 ea bc
       0.011049933 0.017345816 -0.0388213 -0.02858147
000040 bf cf 20 bd 63 0a e8 3c 9a e9 2d b9 c0 c4 3e bd
       -0.039260622 0.028325265 -0.00016585589 -0.046574354
000050 63 41 e2 bc 0d e4 70 bc 60 c3 8f bc a3 43 22 3d
       -0.02761907 -0.014702809 -0.017549217 0.039615285
000060 7f 90 03 3d cb 28 88 3c 1d df c3 3c b9 a7 e5 bc
       0.032120224 0.016621014 0.0239101 -0.028034078
000070 48 af a9 bd 4c 48 dc 3a ee 58 b4 3c c4 26 de 3c
       -0.08285385 0.0016806214 0.022015061 0.027118094
000080 10 3d e3 bb f6 3b 26 bd c8 fa 3d 3b 90 e2 ee bc
       -0.0069347695 -0.040584527 0.0028988589 -0.029160768
000090 ed 8f a3 3d ae f9 64 bd f9 15 cc bd 9a 3c d4 bc
       0.07986436 -0.055902176 -0.099651285 -0.025907803
0000a0 46 26 f0 3d 27 fc 4d bc 08 40 e1 bc eb db 85 bc
       0.1172605 -0.012572325 -0.027496353 -0.016340217
0000b0 a7 03 be 3c 46 34 07 bb 5e af 34 bd 77 2e 32 bd
       0.023195101 -0.0020630523 -0.044112556 -0.043501344
0000c0 13 71 b7 3c 26 16 39 3d b5 df 40 3d f8 19 f7 3c
       0.022392785 0.045187138 0.047088344 0.03016375
0000d0 29 29 14 3d 57 66 a3 3c 1e 64 2e bc 6d 1a 84 bc
       0.036172066 0.01994626 -0.010643987 -0.016125882
0000e0 64 d2 9e 3c fa 29 2b 3d 66 1f c2 3b 7c d3 9a 3c
       0.019387431 0.04178808 0.005924153 0.018899672
0000f0 d2 c7 2a 3d a1 a0 5c bb 37 16 c2 bc 14 d0 36 3c
       0.04169447 -0.0033665078 -0.023692233 0.011158008
000100 1b f2 c3 bc 49 67 23 bd 1e fa 77 bb fb 3a 87 bc
       -0.023919156 -0.039893422 -0.003783829 -0.016507616
000110 9f 1f 45 3d 42 a6 ec 3c 8b 29 cb 3a 1c cc a2 bc
       0.04812586 0.028887872 0.0015500052 -0.019872718
000120 46 90 86 ba fa 02 5e bc 88 0f 3a bd aa fa d4 3c
       -0.0010266386 -0.013550514 -0.045424968 0.025998432
000130 4b bd 31 bd fa 50 a6 bb 7d d5 82 3d 19 6d e5 bc
       -0.043393414 -0.005075571 0.06388376 -0.028006123
000140 3c ec 94 3d 4b 72 25 3d 1d 73 ec bc 43 db e6 3c
       0.07271621 0.0403922 -0.028863484 0.028180724
000150 50 c6 ba bc 26 58 20 bc e2 e5 35 bd 5f 37 a8 3b
       -0.02279964 -0.009786641 -0.044408686 0.005133554
000160 88 be 56 3d 8b 76 66 3d d0 f6 f0 bb 9c 31 1e bd
       0.0524278 0.056265395 -0.007353641 -0.03862153
000170 4f 9c c8 3c c8 ad 0b 3d 11 e4 99 3d 18 d3 52 bc
       0.024488596 0.034101278 0.07514203 -0.0128677115
000180 1f dc 25 bd aa 39 f5 3c ea bb c4 3a 80 62 52 3d
       -0.040493127 0.029934723 0.0015009616 0.05136347
000190 6a fd fc 3c c1 a8 5b 3d 30 d1 25 bd 64 38 c1 bd
       0.030882556 0.053627733 -0.0404827 -0.09434584
0001a0 44 fe da bc 47 b0 32 3d d9 2a 3e 3d ef d0 f5 bd
       -0.026732571 0.043625142 0.04642758 -0.120027415
0001b0 ed 32 04 be 9e c8 c9 39 a6 a9 e7 3d d2 84 a2 3d
       -0.12910052 0.0003848718 0.11311655 0.0793549
0001c0 5a ce f5 bc 51 7d ca 3b bc 14 06 3e 83 c9 58 3b
       -0.030005623 0.0061794897 0.13093847 0.0033079095
0001d0 06 2d 2f bd 66 be e5 bd a4 00 b3 3c 7e b7 81 3d
       -0.042767547 -0.11217956 0.021850891 0.063338265
0001e0 7a 86 6d 3b 82 1c 6c 3b a0 ae 86 bd d4 ed 30 3d
       0.0036243484 0.0036027734 -0.06576276 0.04319556
0001f0 8b 25 9e 3d 60 f5 39 3c 4d e1 13 3d 66 1b be bc
       0.077220045 0.011350006 0.036103535 -0.023206424
000200 b6 21 5f bb 5d fb 21 3d 88 6d 65 3c 76 54 98 bb
       -0.0034047193 0.03954636 0.014003165 -0.0046487404
000210 be 6c 05 bd 1a e8 c1 3c ae c4 32 bd 3f 04 67 3d
       -0.032574408 0.023670245 -0.0436446 0.056400534
000220 7d d5 76 bd d1 fc 9f bc 5c 46 94 3d 4a f6 21 3d
       -0.060262192 -0.019529732 0.072399825 0.03954152
000230 b6 05 91 bd c6 06 57 3b a8 4b 2a 3d 87 4b 60 3d
       -0.070811674 0.0032810434 0.041576058 0.05475953
000240 b1 23 1b 3b 7d 8b 4b bc 50 0f 45 3c dd ae 84 bc
       0.0023672397 -0.012423393 0.012027577 -0.016196663
000250 8f b5 07 bc 4a 64 c2 3c a7 30 28 bc 00 45 d1 3c
       -0.008283033 0.023729462 -0.010265506 0.025545597
000260 a0 14 42 bd 33 6d 9a 3a 25 51 17 3d 23 85 a7 bc
       -0.04738295 0.0011781811 0.03694262 -0.020449227
000270 c8 55 02 3d 63 3d ee 3c f3 0d 83 3b cd 04 0f 3a
       0.03182009 0.029082006 0.0039994656 0.00054557325
000280 73 44 4d 3c 0d 94 8d bb 4d fc 7a 3b 75 e1 1e bd
       0.012528527 -0.0043206275 0.0038297356 -0.03878923
000290 0b e0 0f 3d fa 8c 01 3c 9a 0d 92 39 da f5 9c bc
       0.035125773 0.007907147 0.00027857424 -0.0191602
0002a0 67 d4 91 3a 40 58 47 3d 57 6a 2d bd 60 6b 04 3d
       0.0011125923 0.048668146 -0.04233774 0.032328963
0002b0 ea 74 02 bd 23 2c f6 3c c0 d3 0f 3d 68 6b 0c 3d
       -0.03184978 0.030050343 0.03511405 0.034282118
0002c0 fc 83 59 bc 9a d6 8a bc 89 55 2d 3a 29 fc 52 bd
       -0.013276096 -0.016948033 0.0006612172 -0.05151001
0002d0 ad 54 93 3d 08 b4 12 3c 36 9d 85 bd ec 61 f2 bb
       0.07193885 0.008954056 -0.06524126 -0.007396927
0002e0 75 1b a1 3b 73 3d c7 3c 2d 7c 3e 3d 90 fb be bd
       0.004916603 0.024321293 0.046505142 -0.093253255
0002f0 a5 75 f8 bb 46 dc d7 3c e3 52 c6 3d b6 ea 23 bd
       -0.0075823837 0.026350152 0.09683778 -0.04001876
000300 6f 64 93 bd 3a 28 84 3d a2 db 26 3d b4 e5 0e bc
       -0.071968906 0.06452985 0.040736802 -0.008721758
000310 f2 d7 ea bd 8a d9 9b bd 3c 24 fd 3b 63 33 81 3d
       -0.114669695 -0.07609852 0.0077252667 0.06308629
000320 8f f2 21 3d 41 a0 b5 3d 00 d9 0b bc 29 d4 d5 bd
       0.039537963 0.08868457 -0.008535624 -0.10440857
000330 10 63 1d bc b9 ac 45 bd 6e e0 dc 3c d9 b3 26 3d
       -0.009606138 -0.048260424 0.026962485 0.04069886
000340 0f c7 b8 bd 71 33 c6 3d e6 96 7b bc 86 e9 03 3e
       -0.090223424 0.096777804 -0.015355801 0.12882051
000350 18 fe ea bc f0 21 b8 bd 20 5f d2 3b 62 ff d2 3d
       -0.028685614 -0.08990848 0.006420031 0.10302617
000360 57 97 3e 3d 5e 48 5e 3b 66 5d cf bc a7 da e1 3d
       0.046531048 0.0033917646 -0.02531309 0.11028033
000370 a5 de ca 3d 62 74 81 3c fd 27 28 bd c3 37 1d 3c
       0.09905747 0.015802566 -0.04105376 0.009595814
000380 33 ea d8 3d 1c c0 9a 3d c7 be 4d 3d 07 12 2f 3d
       0.10591545 0.07556173 0.050230768 0.0427418
000390 41 19 23 3d 99 74 d4 3c a0 fc 71 3d ba 82 f0 3c
       0.039819006 0.025934504 0.059078813 0.02935921
0003a0 82 04 7a 3c 3f 1a f8 3a 6d 99 77 3d 52 71 6f 3d
       0.015259864 0.001892872 0.060449053 0.05845768
0003b0 ec 92 47 bd 85 d1 4a bc 89 3d 9b 3d da d0 15 3d
       -0.0487241 -0.012379055 0.07580096 0.03657613
0003c0 cc 7f 02 bd 15 fb 0b 3d cf 05 f7 3b 93 31 78 3c
       -0.031860158 0.034174997 0.0075385342 0.015148538
0003d0 13 d4 80 3d 8f 02 43 bd 6a 97 eb 3b 45 f3 fe ba
       0.0629045 -0.047609862 0.007189681 -0.0019451162
0003e0 40 af 89 3d 40 f6 0d 3d 9a 5d 74 bc 03 ef 81 3c
       0.067228794 0.03465867 -0.0149148945 0.01586104
0003f0 58 a5 18 bd cd 4e d9 bb 87 3e e2 3c d7 6b bb bc
       -0.03726706 -0.0066317082 0.027617706 -0.02287857

conv2.bias f4 [32]
000000 03 a5 a4 be 1e bb 91 3e 3b 1e bf 3d c1 c2 c7 bb
       -0.32157144 0.28463072 0.09331938 -0.0060962145
000010 e7 2f bb 3e 65 87 9c bd a6 17 3d 3c 98 63 7e be
       0.36559984 -0.07643012 0.011541283 -0.2484268
000020 aa b5 85 3c 7c 43 f9 3e 20 49 91 be 48 fd 0e 3e
       0.016321976 0.486843 -0.28376102 0.13963807
000030 c8 7c 1a bf c3 95 f2 bd aa 17 da bb 42 08 8e be
       -0.6034665 -0.11844971 -0.006655653 -0.27740675
000040 cc df 01 bf 1b 77 0b 3f 8a 27 11 3f 4f b3 fb 3d
       -0.5073211 0.54478616 0.56700957 0.1229006
000050 74 f7 40 bb a5 e0 92 bc e4 32 d4 be 1b d2 34 3d
       -0.0029444369 -0.017929384 -0.41445076 0.044145685
000060 f7 07 73 bd 9c a0 13 3d 87 11 fd 3e 78 03 66 bd
       -0.059333768 0.03604184 0.49427435 -0.05615565
000070 9a 63 d4 be 8f ee 5f bd c8 cd 27 3d dd 13 79 3f
       -0.4148224 -0.054670867 0.040967733 0.97295934

fc1.weight f4 [10, 5408]
000000 e0 25 74 3b 85 94 d4 bc 2a bb 7e bb 06 33 79 3b
       0.003725402 -0.025949726 -0.0038868883 0.0038024797
000010 4d 01 30 ba 5b bd 2a bd 74 a8 08 3c 48 cc b3 bc
       -0.0006714061 -0.04168449 0.008340944 -0.021947995
000020 32 d7 3b bc c3 74 80 bc e1 b9 61 bc 2f b7 8c bc
       -0.011464881 -0.015680676 -0.013777227 -0.017177192
000030 5a 78 28 bd 79 10 40 bc 2e 53 e8 3b 73 ae 14 3a
       -0.0411304 -0.011722677 0.007089994 0.0005671747
000040 b5 09 61 3b e7 d4 7d 3b db ca 29 bd 5a 7f 9c bb
       0.0034338061 0.0038731636 -0.041453224 -0.0047759237
000050 3a 2b 5f bb ba 63 9b bc cd 42 62 3c 72 be 12 bc
       -0.0034052865 -0.018968452 0.013809872 -0.0089565385
000060 3e e7 09 bc e5 a1 88 bc eb 92 2e 3b a9 ba 5e bc
       -0.008416949 -0.01667876 0.0026637863 -0.013594308
000070 d3 01 01 3c 35 77 cf bc ac 91 bb b7 20 a7 28 bc
       0.00787397 -0.025325397 -2.235997e-05 -0.010293752
000080 bf 98 f9 bb 4d e4 10 3c a6 16 e8 3b 1b dd a5 3b
       -0.0076170857 0.008843494 0.007082778 0.005061758
000090 26 35 94 bc e9 6d e3 39 2a 0e 4e bc 38 5b 99 3b
       -0.01809175 0.00043378703 -0.012576619 0.0046800636
0000a0 07 c5 09 ba f3 f0 bc bb 10 20 7a bb 0a 02 03 bc
       -0.00052554946 -0.005766028 -0.0038166083 -0.007996092
0000b0 b9 23 29 bc 7a ba f9 3b 8f 0b 0d bc 69 40 4c bc
       -0.010323458 0.0076211067 -0.008608713 -0.012466528
0000c0 79 dd 34 3c 5b eb 50 bc 7a 75 56 3c 5c 82 18 bd
       0.011039131 -0.012751426 0.013089532 -0.037233695
0000d0 c3 2b 81 bc 70 fd 53 bc 8d 69 e6 3b 69 5b 67 bb
       -0.015767938 -0.012938842 0.0070316256 -0.0035302287
0000e0 13 c3 22 bc cc 60 38 3c 5c a8 69 bb 15 fa 73 3c
       -0.009934205 0.011253547 -0.0035653329 0.014891167
0000f0 6b bb d9 bc 67 40 1a bc 82 33 87 3c bf 1e cf 3b
       -0.026578626 -0.009414769 0.016504053 0.006320804
000100 86 7d ca bc 82 98 bf bb b1 d3 85 bb 5c 05 c2 bc
       -0.024718057 -0.005847038 -0.0040840735 -0.023684196
000110 10 ab 3c bc 47 33 52 bb 70 dd 2a 3c 57 25 4d bb
       -0.011515394 -0.003207402 0.010428771 -0.0031302774
000120 c3 13 a7 3c da e4 2c 3c 6c fe 80 bb 71 cf dc bc
       0.020395165 0.010552609 -0.0039365795 -0.026954385
000130 f3 c6 04 bc 52 30 0d bc f8 28 99 3c bc 71 99 3c
       -0.008104074 -0.0086174775 0.018696293 0.01873099
000140 fb 70 14 3c 03 fb 83 bc 26 6d 19 3c 11 d0 30 3c
       0.00906014 -0.016110903 0.009364402 0.010791794
000150 ee 3d f4 bb 81 d8 b5 bb ff 9f 82 3b e2 71 9c bc
       -0.0074536717 -0.005549491 0.003986358 -0.019097272
000160 f3 e3 37 bc 96 5c 81 bc c9 1e 18 bc f2 77 b6 3a
       -0.011223781 -0.015791219 -0.0092846835 0.0013921245
000170 56 46 d7 bb 7a 28 f0 3b 35 f5 7b 3c bb 5d 54 3b
       -0.006569664 0.007329044 0.015378286 0.00324045
000180 34 6a f8 bb 2d 9d 70 3c 48 7f 90 bb c2 52 6f 3b
       -0.00758102 0.014685911 -0.0044097044 0.0036517833
000190 5d 3b c4 bb 95 6e 9f bc c5 f7 b2 bc 7e 6e c6 ba
       -0.005988522 -0.01946191 -0.021846661 -0.001513913
0001a0 8f de 36 bd b4 d5 15 bd 59 c2 ca bb da fd 8f 3c
       -0.044645842 -0.036580756 -0.006187719 0.0175771
0001b0 8f 46 23 bc 44 e7 14 bb 00 d8 98 3c d2 85 33 bc
       -0.009965553 -0.0022720853 0.018657684 -0.010957198
0001c0 a0 1b 14 3b 37 4a ab bc 09 7e 51 bc 00 de e9 bc
       0.0022599474 -0.020909412 -0.012786397 -0.02854824
0001d0 ad 2e 48 bc 7b fd 8f bc b5 bd 0b bd 83 07 57 bc
       -0.01221816 -0.017576924 -0.034116466 -0.0131243495
0001e0 7f a1 c5 bb ba e7 37 bc d7 aa 60 bc bc 4e 21 3c
       -0.0060312147 -0.0112246815 -0.013712606 0.009845432
0001f0 62 c6 a6 3c c6 3b bb bb bb 62 3c bb b9 9b 31 3c
       0.020358268 -0.0057139127 -0.0028745371 0.01084035
000200 92 a3 6c bc 85 45 81 ba fc f9 12 bc 20 35 02 bc
       -0.014443295 -0.0009862637 -0.008970734 -0.007947236
000210 01 b8 17 bd 83 3d 0d bd 1d ae 0e bd b9 8d bb bc
       -0.037040714 -0.03448249 -0.034834016 -0.022894727
000220 97 06 83 ba d5 90 87 3b c3 b8 88 b9 6a c4 42 3b
       -0.0009996471 0.0041371384 -0.000260776 0.0029719123
000230 c6 42 56 bc bd dc a8 ba a8 97 26 3c 10 d9 d7 bb
       -0.013077443 -0.0012883168 0.010167994 -0.006587155
000240 07 2d 35 bc 04 a3 01 bd 14 ba c7 bc d3 5d 78 bc
       -0.011058099 -0.031649604 -0.024380721 -0.015159088
000250 13 09 04 bc fc 8e 8a 3c d8 57 60 3a f6 28 ab bc
       -0.008058804 0.016913883 0.00085580116 -0.020893555
000260 24 65 b9 3b 3b 6c b1 3c 88 ca 1f 3c 13 c1 ba 3c
       0.005657809 0.021658054 0.009752877 0.022797143
000270 b3 23 a5 bb 52 ee 01 bd 58 81 c2 bc aa 84 54 bd
       -0.005039656 -0.03172142 -0.023743317 -0.05188433
000280 6e 58 b6 bb 76 62 e6 bc e2 8b 6b 3b f4 df b9 bc
       -0.005564741 -0.028123122 0.003594153 -0.022689797
000290 ed 09 0d 3c 1d fa 09 3c c0 ff 87 3b a3 85 17 3c
       0.0086083235 0.008421448 0.004150361 0.00924817
0002a0 2a 31 e3 3b 91 2d 85 bd bb 6c 24 bd cc d1 49 bd
       0.006933351 -0.06502832 -0.040142756 -0.049272344
0002b0 0c a1 2f bd 59 80 19 bd 06 4a d1 bc b8 96 0c bd
       -0.042878196 -0.037475917 -0.025547992 -0.034323424
0002c0 ad b1 1f bd f9 d1 c7 bc 75 46 8c bd b7 59 f9 bc
       -0.038987804 -0.024392115 -0.06849376 -0.030438287
0002d0 15 4f 8f bc 81 0b 35 bc 4c c0 cb bc 22 12 b0 bc
       -0.017493764 -0.011050106 -0.024871968 -0.021493021
0002e0 bf b6 18 bd 23 e0 3f bc b2 08 71 bc 94 9b 54 bc
       -0.037283655 -0.011711153 -0.014711546 -0.012976546
0002f0 e4 95 3b bd dc 50 b9 bc f4 3a 9b bd 9a 71 05 bd
       -0.045797244 -0.022621565 -0.07579604 -0.032579042
000300 fa b3 16 bd 75 83 de bc f0 28 10 bd 93 42 95 bc
       -0.036792733 -0.027162293 -0.03519529 -0.018220222
000310 df 19 14 bd 99 75 f4 bb bc 37 e4 3c 61 59 9d 3b
       -0.036157485 -0.007460308 0.027858607 0.0048019146
000320 c7 f1 13 3c 8e fe 37 bd 4a 27 21 bd 77 43 c1 bc
       0.009029812 -0.044920497 -0.03934411 -0.02359174
000330 9d a7 a9 bc e1 a5 18 bd 1d 10 b6 bc 03 3f d2 bc
       -0.020709807 -0.03726757 -0.02222448 -0.025664812
000340 7f c9 da bc 33 ba 22 bc d0 c3 f9 bb ac bd 30 3b
       -0.026707409 -0.009932089 -0.0076222196 0.0026968522
000350 fc bf 48 3c df cc bc bc 0b 02 a4 bc 7b 50 6d bc
       0.012252804 -0.023046909 -0.020020505 -0.01448452
000360 7a 08 54 bc cd 5e 70 bd e1 a4 da bc 0c 34 6e bc
       -0.012941474 -0.05868416 -0.026689949 -0.014538776
000370 c8 53 25 bd fd 53 7c bd a2 d5 9b bb 0d 44 91 bb
       -0.040363103 -0.061603535 -0.0047556916 -0.004433161
000380 f9 50 f2 bc f5 6c 6c bc d3 f6 48 bd f6 f2 b8 bc
       -0.029579626 -0.014430274 -0.049063515 -0.02257679
000390 57 49 bd bc f7 19 0f bd 9a 92 51 bc ff 62 cf bc
       -0.02310626 -0.03493687 -0.0127913 -0.02531576
0003a0 44 70 63 bd 4a 81 f8 b9 3d 02 52 bd 3e 06 f0 bc
       -0.055526987 -0.00047398574 -0.051271666 -0.029299852
0003b0 37 05 f0 bc 58 92 0b 3a 0f aa 81 bc 4e 61 6c bb
       -0.029299362 0.0005324236 -0.01582816 -0.003606874
0003c0 84 1d 33 bd db f2 0f bd 85 c1 e3 bc 3e 35 b3 bc
       -0.04372932 -0.035143714 -0.027802238 -0.021875974
0003d0 e8 76 fd bc 53 39 01 bd 7f b5 fb bc 42 27 2e bd
       -0.030940488 -0.03154881 -0.030726193 -0.042517908
0003e0 e7 d6 18 bd b7 d9 ca bc e4 97 05 ba 60 70 8b bc
       -0.03731432 -0.024762018 -0.0005096181 -0.017021358
0003f0 04 ba 0d bd 82 97 48 3b 3d 69 10 bd 9c e9 6b 3b
       -0.034601226 0.0030607884 -0.035256613 0.0035997396

fc1.bias f4 [10]
000000 ee 27 a1 bd da 7d 97 3d ff 88 e1 3e d1 67 7d bd
       -0.07868944 0.07397051 0.44049832 -0.061866585
000010 86 99 de be 94 32 25 3d 61 1d 9c bd bd be a2 3c
       -0.43476504 0.04033144 -0.07622791 0.019866342
000020 1e ba c4 bd d0 cd 30 3e
       -0.096058115 0.17266011
