assignment_2_cnn/Model/Simple-CNN/model.pth (torch, 274804 bytes, 6 tensors)

conv1.weight f4 [16, 3, 5, 5]
00000000: 86f1 a6bd 6881 41be e1ea b9bd 7f39 bcbd
00000010: 93a2 a8bd d258 bf3d db95 12bc ce27 4dbe
00000020: daef afbe 5e96 abbe a089 923e c1fe 153e
00000030: b88b 503d faa5 85be 3050 86be 5414 0d3f
00000040: c762 ca3e c7d8 cf3d 1d96 47bb fc88 43bd
00000050: 73a7 ee3e aaf9 383e 3bd9 b43d 9bd4 b3bd
00000060: 6102 dcbd b405 c5bd b129 4abc 5913 34be
00000070: 276c d5bd 2de4 9dbd 1842 3a3c c446 58ba
00000080: d39f 59be 5d5e 7fbe 9301 74be a192 a03e
00000090: 882b cb3d 826d 503a 65eb e1bd fd3a e5bd
000000a0: 8e8d f03e 2b75 e93e 0f1c 553e b143 7ebd
000000b0: d341 b6bd 167d e63e 98d1 763e cc34 c23d
000000c0: 82a0 26bd 74a9 0cbd 34ff 42be 8c3d a7bd
000000d0: 6997 85be e0d1 23be 84fa abbd 7c91 0abd
000000e0: 6da9 28be 5bdd 87be b223 66be d781 82be
000000f0: aac8 cd3d 86e9 f1bc e323 e2bd 43c1 7abe
00000100: 41d3 70be 3ccb bd3e ad8f 823e 0675 babd
00000110: 02dc 23be d4c8 dfbd 19d0 263e c724 0dbd
00000120: 85f0 aebd 861b 3bbe 4d7e 85be 00df 26be
00000130: 0183 64be e0c2 44be 960c 0d3e a0aa bd3d
00000140: 65bb a1be 4d77 7bbe 72c6 bebc 084f b33d
00000150: 233c 8a3e 6faa 94be f6f3 40be 83c7 eb3c
00000160: 4938 463e 965d c23e b6db 43be 6584 dabd
00000170: a82a 5c3e 7306 d53e 8491 493e bb73 06be
00000180: f69f f33d 2872 b03d fcda c83e db47 6a3e
00000190: cc0b 45be 3dc2 5fbe 7a26 043d 1158 453e
000001a0: 0298 3c3e 2ce1 66be fe53 14bd 6e2a a33d
000001b0: 73e2 e63d 1bbd 9c3e 3af9 93bd e6f6 2abe
000001c0: 256f 263e 8d44 1d3e f8c8 7e3e a633 37be
000001d0: 9b7b 953c 4960 873e e1b9 683e cd8b b13e
000001e0: c2d9 0fbe f9fa 323e 8e1a a13e 658f ca3e
000001f0: cfbc 8a3e 9643 a4be 67fc 99be cfcb aebe
00000200: 775c fdbd cd3b 35be 9c37 d3be c0f7 d0be
00000210: b4c8 66be 3c13 3cbd 2151 fc3b 2b4a b9be
00000220: e0c0 babe 2c15 45be bdad 38bd af15 e63d
00000230: 896e c3be 51b1 33be ee69 2ebe 3ddc cc3d
00000240: 451b c93d 016e 02be 9469 57be 2d45 dc3c
00000250: ae2a 95bd 8204 303c 2d8e 733e fe11 933e
00000260: ec7a 293e 31cc e03c c9ef 4cbc 96a3 8f3e
00000270: 87a3 da3e 4872 a33e 6123 813e 5226 293c
00000280: 0b25 723e 6f6f d53e 7b74 b33e 46aa 453e
00000290: b50e e33d 44e1 143e 3f9c a43e 3bdf 833e
000002a0: 104c 8a3e 4c18 b83d 1361 623e ae7e 8e3e
000002b0: 6796 9e3e a99a 673e 74d9 da3d b510 e3bd
000002c0: 8ff0 3bbe db28 85be 91d1 a0be 14b0 adbe
000002d0: 555c 66be 9e51 e8bd e540 19bc a813 7dbe
000002e0: fb2f bebe fc27 7dbe 90ab bcbd 1c47 57be
000002f0: dff2 cdbd 88d4 6cbe b449 75be 87b0 31be
00000300: d782 e1bd bca6 51be 715f 2cbe edd2 97be
00000310: 85f3 02be 5465 69be fad8 5bbe 76aa 97be
00000320: 1f8f f5b9 ca71 b7bd 955d cebc 5978 0f3d
00000330: 6534 67be 42a8 a4bd e8c9 443e dce4 a03d
00000340: 7150 a23d f72f d0bc 4be2 f7bd c4ed 013e
00000350: 596f 2a3e f663 a9bd e830 c0bd a077 96bd
00000360: 99ac babd 93a0 bf3d 4076 c2bd f08f cfbd
00000370: 0b88 73bd 9f42 863d 1b22 843d 300b 14bd
00000380: 615f 80bd 982c a83e e41d d83e ac58 b43e
00000390: 2a17 823e 23d4 94bc 847d bb3e e11b f13e
000003a0: 5920 d73e 818d 963d e269 17be 3623 9a3e
000003b0: f534 c03e 8119 dd3d cc0f 85bd c20f 81bc
000003c0: d373 173e fc9c 483e 7002 933d 5cb0 13be
000003d0: 9873 29be 06dc ba3d 8a0d b0bc 216d b7bd
000003e0: 2a00 ac3c 1dbe 64bd 4929 86bc 6f5e 703e
000003f0: 6203 493e d0aa 563c 67f9 5fbe 0da9 65bc
-0.08151536 -0.18897021 -0.09078003 -0.09190654 -0.082341336 0.09343113 -0.008946861 -0.20034716
-0.3436268 -0.3351316 0.28620625 0.14647962 0.050914496 -0.26103193 -0.26233053 0.55109143
0.39528486 0.10148769 -0.0030454465 -0.04773806 0.4661213 0.1806399 0.08830496 -0.08780786
-0.10742641 -0.096202284 -0.012339042 -0.17585506 -0.10421019 -0.07709537 0.011368297 -0.0008250291
-0.21252374 -0.2493834 -0.23828726 0.3136187 0.09920412 0.0007950888 -0.11031226 -0.11192892
0.46982998 0.45597205 0.20811485 -0.062076274 -0.08899274 0.45017308 0.24103391 0.094827265
-0.040680416 -0.03434129 -0.19042665 -0.08166036 -0.2609208 -0.1599803 -0.083973914 -0.03383015
-0.16470881 -0.26536068 -0.22474554 -0.25489685 0.10048039 -0.029530298 -0.11042001 -0.24487786
-0.23518087 0.37069118 0.2550024 -0.09104352 -0.16001895 -0.10926977 0.1629032 -0.0344589
-0.08541969 -0.18272218 -0.26072922 -0.16296005 -0.22315599 -0.19214964 0.13774332 0.0926106
-0.31588283 -0.24557228 -0.023287985 0.087553084 0.26999006 -0.2903628 -0.18843064 0.028781658
0.19357409 0.37962025 -0.19126782 -0.106697835 0.21500647 0.41606483 0.19684416 -0.13130085
0.118957445 0.086155236 0.39229572 0.22878973 -0.19242781 -0.2185144 0.032263257 0.19271876
0.18417361 -0.22546834 -0.036212914 0.07967077 0.112736605 0.30613026 -0.072252706 -0.16695747
0.16253336 0.15358181 0.24881351 -0.17890796 0.018247416 0.26440647 0.22727157 0.34676972
-0.14047912 0.17478551 0.31465572 0.39562526 0.27097175 -0.32082814 -0.3007538 -0.3413987
-0.12371152 -0.17698593 -0.41253364 -0.40814018 -0.225375 -0.04591678 0.007700101 -0.36189398
-0.36475277 -0.19246358 -0.045087565 0.112346046 -0.3817027 -0.1754811 -0.17032596 0.100029446
0.098196544 -0.12737276 -0.21036369 0.026888454 -0.07283531 0.010743262 0.23784705 0.28724664
0.16550797 0.027441116 -0.012508341 0.28054494 0.42702886 0.31923127 0.25222304 0.010324078
0.23646943 0.4168658 0.35049805 0.19303235 0.110867895 0.14539057 0.32150456 0.2575625
0.27011156 0.08989009 0.22107343 0.27831024 0.30974123 0.22617592 0.10686007 -0.11087171
-0.18353485 -0.26007733 -0.31409886 -0.339234 -0.2249616 -0.11343692 -0.009353851 -0.2471453
-0.3714598 -0.24722284 -0.092124104 -0.2102322 -0.100560896 -0.23127949 -0.23953897 -0.17352496
-0.11011284 -0.2047376 -0.16833283 -0.2965311 -0.12788208 -0.2279256 -0.21469489 -0.2962224
-0.00046836675 -0.089572504 -0.025191108 0.03502688 -0.2257858 -0.08039905 0.19217646 0.078561515
0.07925499 -0.025413496 -0.12103709 0.12688357 0.16644038 -0.08271019 -0.09384328 -0.073470354
-0.09114952 0.09356799 -0.09495211 -0.10134876 -0.059455913 0.06555676 0.064518176 -0.03614348
-0.06268192 0.32846522 0.42210305 0.352239 0.25408298 -0.01816756 0.36619198 0.47091582
0.42016867 0.073512085 -0.14786485 0.3010499 0.37540403 0.1079588 -0.06497154 -0.015754584
0.14790277 0.19591135 0.07178199 -0.14422745 -0.16548002 0.091239974 -0.02149083 -0.089563616
0.020996172 -0.05584537 -0.016377108 0.23473524 0.19630197 0.013102248 -0.21872483 -0.014017356

conv1.bias f4 [16]
00000000: 2aa0 1d3f 6f71 223f ce34 fd3e 6f89 7e3f
00000010: da66 78be 6487 1ebd 5fa1 e1bd af62 983e
00000020: e558 85bd d2db 0cbd 0ba4 d3bd 413b b63e
00000030: 4b2e 1bbf a641 3ebf 8f1a 193d b839 aabf
0.61572516 0.63454336 0.4945435 0.9942846 -0.24257985 -0.038703337 -0.11017107 0.2976279
-0.06511096 -0.034389324 -0.10334023 0.35592082 -0.6061751 -0.7431892 0.037378844 -1.3298864

conv2.weight f4 [32, 16, 5, 5]
00000000: e6d4 303d b9ec 05bd 2a1a 673d 47c9 8a3d
00000010: 5baa 34bc 0cf2 f53c 5ce2 10bd 3000 9c3d
00000020: 0970 b03c c202 fbbc b4e2 5f3b 8633 ca3c
00000030: 2ea7 703d 68cb 353c 4b93 6c3d 48f1 95bc
00000040: b265 09bc a7c2 103d a70b 113d c93c a63c
00000050: 6277 cfbb f731 c0bb 70e1 45bd 40ba d7bc
00000060: fcc2 3a3c 73e3 73bd ce58 20bd aa56 01bc
00000070: a467 93bc 8d79 863c a82f ee3c a697 3a3d
00000080: 55af 85bc 152f 783c 8d4c 42bd 30d8 35bc
00000090: a6a6 0a3c a6b1 91bd 9b54 12bc c51f a5bc
000000a0: 9c81 9d3c dff5 94bd 65a4 473c f418 34bd
000000b0: 4e1f 4fbd cf74 d1bc 213d eb3c df81 e7bb
000000c0: d5c8 c0bc d396 6fbd 911e ca3a 7309 7abd
000000d0: 07a7 843c 3e80 2dbd 67d6 0dbd edb0 25bd
000000e0: 3211 1e3c 83b1 29bd f7a5 40bd 18f6 6dbc
000000f0: 451e 96bd a6bb 603b e3c1 39bd eb6b 83bd
00000100: 6fd4 3dbd e70d 77bd 1b2e 8ebc d48d 8fbc
00000110: 1751 d83c c4f3 05bd 858c 14bd 81fe 35bd
00000120: 2621 07bd 60dd 3fbd a552 1f3d cae0 dbbc
00000130: 6de2 c1bc 8a63 1cbd 94ed 343c fe3e 673d
00000140: 5329 513d 2f21 583c 2f40 873c 4c8a 5d3d
00000150: ac1a a43d fe2c 31bd 9bf7 8bbb ef9b d7bc
00000160: 080c 13bc 0685 b5bb 51fb 163d 4899 703d
00000170: b63a 8b3d ce9d 0abb 56ac 833d c58e 5a3c
00000180: aa39 b73d 886e 54bc 26cd 353c 79ec 2d3d
00000190: 05ff 0abd 8749 313d f6f7 723b 26df c73a
000001a0: d78c 9d3c 1043 f1bc ef5a 8bbc abfe 473d
000001b0: 9c94 52bb 7021 37bd 5b9d c5bc 4c31 4a3d
000001c0: aaf6 723c 30a7 8d3b 5fc0 51bd 6ebb d2bc
000001d0: bc60 86bd 4266 56bd 0c34 a8bc bf21 8bbc
000001e0: dba7 453c 165b 2bbc f8a1 4ebd e4e2 1f3c
000001f0: e046 4abb da34 22bc b79f 0d3c 99e1 28bb
00000200: a8e0 403d aa7d ad3b 01f7 873d 00b0 99bc
00000210: 65a5 af3b 6fce 593c 33c1 123d 607c 3e3d
00000220: 1706 083a 3e6a 4dbc 8c7e 623d 1d58 58bc
00000230: 56d8 dfbc 8622 ea3b 97d4 893d 19a4 803d
00000240: 5703 f03c 7f84 b83a dcaa 52bc 20f3 8e3d
00000250: 0000 8f3c 7252 a0bc f7cb 61bd d9f9 cfbc
00000260: 0e60 68bd 14ad 71bc 4fa2 a5bd 5481 09bd
00000270: dd0a 92bc 60dd b2bd 98fb 97bd f66f 77bc
00000280: 8b71 d13c 1e96 79bd aaa2 4dbd 14a1 9fbd
00000290: a04c f2bc 55f7 28bd 78a1 03bd f74d babc
000002a0: be2f 55bd ae36 39bd 6af4 90ba 8faf 9b3c
000002b0: 777d d43c d3c2 3ebd d7ab 75bd 2f98 603c
000002c0: d64f 203d 003f 94bc 00f1 4fbc 13a3 843c
000002d0: e561 2bbd 2d47 babc 2f86 3bbd 94c0 d83c
000002e0: 9892 113c ba67 28bc 2372 4a3a 7f72 75bc
000002f0: b151 3ebd e87c 38bd 5a6a 50bd a802 533c
00000300: e5d9 6d3c 36d9 e3bc dca0 a53b 3caa 2d3b
00000310: b802 3abc c1bc 0ebd 30dd e1bc 0f35 383b
00000320: 3984 30bd 8db0 fb3c 9940 c53c e1f4 1b3d
00000330: 78f4 d5bc 026c b1bb 9661 463d 7d63 f63c
00000340: d43f 513c 10e7 b5bc 4fc1 ce3c 8fc3 76bc
00000350: 11b9 383c e1db 863c fbf4 32bd 2853 04bd
00000360: 820a 433d 9ae4 47bb aa03 b4bc 172c 9ebc
00000370: 6d71 b3bc bd4a b3bc 2d72 5fbc 90c5 bdbc
00000380: 2b11 5f3c f611 c03c 1798 3ebd f063 84bc
00000390: 3113 803b 74f5 30bd 88b9 13bd 4c96 8e3a
000003a0: 1c5e 11bd 9a34 dc3c daa1 24bc 6a39 3dbd
000003b0: 5e58 fcbc 22d2 beba d4e3 43bc 6c82 1b3c
000003c0: 385c aabc 4091 7cbc 4099 15bb a1bc 233c
000003d0: 0202 1ebd 78a7 f4b9 561d 19bd 79a9 57bb
000003e0: 50f7 563c 6626 ca3c ec14 4cbc 89c0 403d
000003f0: 39ff 01bd 2058 3e3c 7cb8 4abd 7d82 093d
0.043171786 -0.03269646 0.056421436 0.06776672 -0.011026944 0.030022644 -0.035372123 0.07617223
0.021537798 -0.030640963 0.0034162225 0.024682771 0.058753185 0.011095859 0.057757657 -0.018303528
-0.008386062 0.035341885 0.035411503 0.020292656 -0.00633137 -0.0058653313 -0.048310697 -0.026333928
0.011399027 -0.059543084 -0.03914719 -0.0078941975 -0.017993756 0.016415382 0.029075459 0.04555478
-0.016318956 0.015147944 -0.047436286 -0.011098906 0.008462584 -0.07113962 -0.008931304 -0.02015675
0.019226842 -0.07273459 0.012185191 -0.04396911 -0.050566964 -0.025568394 0.028715672 -0.0070650424
-0.023533264 -0.058493447 0.0015420486 -0.061044168 0.016192926 -0.04235863 -0.034628298 -0.040451933
0.009647654 -0.041429054 -0.047033276 -0.014524005 -0.07329992 0.0034291535 -0.04535092 -0.06417068
-0.04634517 -0.060315993 -0.01735597 -0.017523684 0.026405854 -0.032703176 -0.036266822 -0.044432167
-0.032990597 -0.04684198 0.038897175 -0.026840586 -0.023667539 -0.038180865 0.011042971 0.05645656
0.0510648 0.013191505 0.016510097 0.05408697 0.080129 -0.0432558 -0.00427146 -0.026319472
-0.008975036 -0.0055395393 0.036860768 0.05873993 0.067983076 -0.0021151188 0.06429355 0.013339703
0.089465454 -0.012965806 0.0110962745 0.042461846 -0.03393461 0.04328301 0.0037074066 0.0015248999
0.019232197 -0.029450923 -0.017011134 0.048826855 -0.0032132035 -0.044709623 -0.024122884 0.04936342
0.014829317 0.004322909 -0.05120885 -0.025724139 -0.06561419 -0.052343614 -0.02053263 -0.016983865
0.012063946 -0.010458728 -0.050447434 0.009758685 -0.0030864999 -0.009900296 0.008644036 -0.0025769232
0.04708925 0.0052945213 0.06638909 -0.018760681 0.0053602927 0.0132938465 0.03582878 0.046505332
0.0005188896 -0.012537537 0.055296466 -0.013204602 -0.027324837 0.007145229 0.067300014 0.06281299
0.029298468 0.0014077573 -0.012858119 0.06979966 0.017456055 -0.019570563 -0.055126157 -0.025387691
-0.05673223 -0.014750738 -0.080875985 -0.033570603 -0.017827446 -0.0873363 -0.074210346 -0.015102377
0.025566837 -0.06093418 -0.050203957 -0.07794395 -0.029577553 -0.0412515 -0.03213641 -0.022742255
-0.052047484 -0.045218162 -0.0011059169 0.019004611 0.025938733 -0.046572518 -0.059978332 0.013708158
0.039138637 -0.018096447 -0.012691736 0.016191041 -0.041841406 -0.022739017 -0.045782264 0.026459016
0.008885048 -0.010278637 0.0007722696 -0.014980911 -0.046464626 -0.045040995 -0.050882675 0.012879051
0.014517282 -0.027813535 0.0050545763 0.0026499173 -0.011353187 -0.03484798 -0.02757129 0.0028107797
-0.043094847 0.030723834 0.024078654 0.03807533 -0.026117548 -0.005414487 0.04843291 0.030076737
0.0127715655 -0.022204906 0.025238661 -0.015061273 0.011274592 0.016462268 -0.043690663 -0.032305866
0.047617443 -0.0030501247 -0.021974403 -0.019308133 -0.021904672 -0.021886224 -0.0136380615 -0.023165494
0.013614933 0.023446064 -0.046531763 -0.016160935 0.003908538 -0.043202832 -0.03606561 0.0010878532
-0.03549014 0.026880551 -0.010048354 -0.046197332 -0.030803856 -0.0014558474 -0.011956174 0.009491544
-0.020795926 -0.01541549 -0.002282694 0.009993703 -0.038576134 -0.0004666408 -0.037381493 -0.003290741
0.013120487 0.024676513 -0.01245616 0.047058616 -0.03173754 0.01161769 -0.049492344 0.03357171

conv2.bias f4 [32]
00000000: c44b c93d 3118 64be 5f19 0bbd 7f36 cdbe
00000010: 54d5 423f d24f a33c 1749 a23e 26b9 b4be
00000020: eafc d2bd 7840 f8be 5941 e7bd 291d 08be
00000030: 6d7f 923d bd8a 463c 33b9 7dbc c935 50be
00000040: cab7 26bc 8960 443f b33e ef3e 0755 75be
00000050: 71cf 42bd 4086 013f 19a3 003f e7e3 f33c
00000060: 8660 e8bd 5add d5bd 3aba 55be c8a1 3bbd
00000070: 2ad3 ef3b f502 21be 85ed 003c 9892 b73d
0.09828904 -0.22274853 -0.033959743 -0.4008064 0.7610676 0.019935522 0.31696388 -0.35297507
-0.10302146 -0.48486686 -0.11291761 -0.13292374 0.07153211 0.012118039 -0.0154860495 -0.20333017
-0.010175655 0.767098 0.46727523 -0.23958217 -0.047561113 0.50595474 0.5024887 0.029771758
-0.113465354 -0.1044261 -0.20871821 -0.045808583 0.007318874 -0.15723784 0.007869129 0.089635074

fc1.weight f4 [10, 5408]
00000000: 7380 9bbc fa56 3bbc 3662 a7bc eb90 343b
00000010: b6c1 e639 1089 323c 15d7 19bc 59b0 afbc
00000020: 0914 1abb b990 9fbc eda0 19bc 1d98 57bc
00000030: f14f d33b 8542 0cbc 2bb9 b2bc 220e 2ebc
00000040: 1a03 68bc 4ac6 e5bb 8e9c 8a3a 9fd7 0dbc
00000050: 6cec ce3b d2e1 72bb 6847 70ba fe61 cb39
00000060: fe84 8f3b c59f b53b 6750 08bc 3c92 33bc
00000070: 34e8 64bc 7cba 31bb cc0a 9a3b 9427 4bbc
00000080: 9b53 bd38 e80a 8f3c 17f2 e0bb 3619 1fbc
00000090: ae1a b9bc 1d63 2cbc 6256 2f3b 08b9 2cbc
000000a0: 624a d6bb 0879 04bc e674 65bb b2e3 913b
000000b0: d1ea 88bb 354c c4bc c0ef 29bc b3ee fd3b
000000c0: 0b02 8dbc 4762 e2bb f85c 73bc 6726 873c
000000d0: e4e7 c9bc 757e e939 0c7d 0cba 5a40 56bb
000000e0: 440e 6dbc 7bf0 6139 dc07 ceb8 edc9 f0bb
000000f0: f206 5abc 9f02 78bc c5af a7bc c4b0 22ba
00000100: 0e75 fa3b c6af 88bb 9391 3abc e2bd 7eba
00000110: 3a18 55ba 8d9d 92bc 98f4 d03b 658e c0bc
00000120: 4398 88bc ee24 b2ba d2e3 a4bc bb42 8fbb
00000130: b1bc eebb 5b0c c7bc 3c85 afbc 6a53 88bc
00000140: c574 763b 2bcd 10bc d74d 1c3a 5ec4 8abc
00000150: f34e 91bc a27b 90bc 9578 34bc 0411 51bc
00000160: bf54 9abb e291 6dbc 687e 243b afa1 f7bb
00000170: 8bcc 02bc 0839 373b 9639 01ba 3351 34bc
00000180: dda7 03bb 954f 81bb 43cf d73a 9c9d 23ba
00000190: 2391 16bc 1950 2dbc dd03 6b39 b4f7 4fbc
000001a0: c5df af39 1fbc c4bc cbe6 8cba 81f2 89bc
000001b0: 28ee e639 3a14 a6bb e8b7 1ebc 872e 45bb
000001c0: f240 fbbb 1d51 f7ba 07e6 8abc 2e34 fbbb
000001d0: 9005 d9bb 94ef bfbc 2cbd 4dbb 7bc0 a9bb
000001e0: 978c 063c 7792 38bc eb25 bc3b 4028 0b3c
000001f0: aacb fc3b 99c1 adbb 8274 793b 6f21 3abc
00000200: 1719 62bc f5e8 1abc aa88 8c3b a78e 60bc
00000210: ab40 153c f004 3bbc fe38 07bc 4fff 8d3b
00000220: b37c c83b aa73 0c3b 2472 a43b 0909 15bb
00000230: 3292 54bc e7d9 adbb 6200 0ebd 6f0e 843b
00000240: fa5f 07b9 2185 033c 2172 f03b 40e7 3e3c
00000250: c278 61bb 3e63 b53b 948f 4bbc b238 cdb9
00000260: e4a5 883c edba 65bc ca00 8b3b 8f3a 96b9
00000270: f4b7 ecbb bb04 87bb 5f34 023c 8b0b 453c
00000280: 27b8 d23b 9d3f a8bc b4d4 1bbc 081b 0ebc
00000290: 53c8 80bc 430f 07bc 7e91 d439 65f4 e0bb
000002a0: 1b22 0cbb 5a95 853d 22ef 7e3d bb3b da3c
000002b0: 688c cb3c b7ea e73c eaf5 263a f603 b93c
000002c0: 6b4b 003d 70a0 703c 57e9 1d3d bdd1 ce3c
000002d0: 716c c63c f975 343d 0a76 3c3d 0731 1a3d
000002e0: 75fd 193c aa58 933b afb4 7d3b ad6f 69bc
000002f0: c7b2 a1bc f5e2 f13b c851 e73c bfe8 ef3c
00000300: 18f4 3a3b 0cd6 ad3c 1327 5d3d 7c4b 4a3c
00000310: e5ec 8f3c d767 533c aa91 dc3c d1eb cb3c
00000320: 38d6 89bc 7889 66bc 2889 04bd 42b4 833c
00000330: 9290 6b3c 5565 143c 38d1 873b feae 1a3d
00000340: edb6 123c a8a7 15bc e4e0 f2bb 6b4c 7cbb
00000350: 696d 9bbb c4b5 1c3c a4ad 853b 17b0 3bbc
00000360: aa51 1b3c 2613 c43b f58b c43a 2c1d 263c
00000370: e4fd 193d fd27 3e3a 8967 cbbc f9f8 cebc
00000380: 5796 783b 5c3a 213c 3d47 8d3c aab8 e23b
00000390: cf99 08b9 6a41 fe3b 3fd1 62bc b54d 813c
000003a0: b082 f43a 1993 163d 1903 cf3b 4400 693c
000003b0: 9c4e a7bb 5118 633b 7fb3 143c 0e4a 183d
000003c0: c597 183c e7ce ffba 5189 883b 3ad6 f43b
000003d0: 4af8 ccbb 5de1 773c 81d2 7b3d 5ea9 153c
000003e0: 1fe1 8d3c ab80 9f3b 3248 0d3c fbfc 3a3c
000003f0: 570b 4e3c 2a55 9d3c f1fb 463c 9b1a 20bc
-0.018982148 -0.011434311 -0.020432573 0.0027552198 0.00044013344 0.010896936 -0.009389658 -0.021446394
-0.0023510477 -0.019478189 -0.009376747 -0.013158825 0.0064487387 -0.008560781 -0.02181681 -0.010623487
-0.014160896 -0.0070121633 0.0010575221 -0.008657365 0.006314805 -0.003706087 -0.0009165914 0.00038792187
0.0043798676 0.0055427277 -0.008319951 -0.010960158 -0.013971377 -0.002711921 0.004700994 -0.012399573
9.027795e-05 0.017461255 -0.006864797 -0.009710601 -0.02259573 -0.010521677 0.002675437 -0.010542162
-0.006539629 -0.008085497 -0.0035012304 0.004452192 -0.004178383 -0.02396212 -0.010372102 0.0077494024
-0.017212888 -0.006908688 -0.014853708 0.016497804 -0.024646707 0.0004453544 -0.00053592096 -0.0032692165
-0.014468733 0.00021547258 -9.8243094e-05 -0.00734829 -0.01330732 -0.015137344 -0.020469556 -0.00062061497
0.0076433485 -0.0041713445 -0.011387247 -0.0009717626 -0.0008128915 -0.017897392 0.006376814 -0.023505399
-0.016674167 -0.0013591328 -0.020128164 -0.0043719686 -0.0072856774 -0.024297884 -0.021425836 -0.016641337
0.003760622 -0.008837978 0.0005962527 -0.016939338 -0.017737841 -0.017637078 -0.011015077 -0.0127604045
-0.0047098096 -0.014500113 0.0025099758 -0.007557116 -0.007983337 0.0027957577 -0.00049295404 -0.0110056875
-0.0020089068 -0.0039462545 0.0016464967 -0.0006241442 -0.009189877 -0.010578179 0.00022412786 -0.012693334
0.00033545322 -0.024015484 -0.0010749934 -0.016839268 0.0004404646 -0.005068329 -0.009687401 -0.0030087547
-0.007667654 -0.0018868778 -0.016955389 -0.0076661324 -0.0066229776 -0.02342967 -0.0031393273 -0.005180416
0.00821223 -0.011265389 0.005741825 0.008493483 0.0077147083 -0.0053026197 0.0038063829 -0.01136051
-0.013799927 -0.009454955 0.0042887526 -0.013705886 0.009109656 -0.011414751 -0.008253334 0.0043334137
0.006118381 0.0021431246 0.0050184894 -0.002274098 -0.012974309 -0.005305517 -0.034668334 0.004030041
-0.00012910357 0.008027346 0.007337824 0.011651814 -0.0034404253 0.005535512 -0.012424368 -0.00039142888
0.016680665 -0.014021617 0.0042420374 -0.0002865386 -0.0072240774 -0.004120437 0.007947057 0.012026678
0.006430644 -0.020538146 -0.009511162 -0.008673437 -0.015720522 -0.008243385 0.0004054419 -0.0068650716
-0.0021382633 0.06522627 0.062239774 0.02663981 0.024847224 0.028310163 0.00063690415 0.022584897
0.031321924 0.014686689 0.03855261 0.025246495 0.02422163 0.04405782 0.04601101 0.037644412
0.009398808 0.0044966536 0.0038712432 -0.014247817 -0.019738568 0.0073817917 0.028237239 0.029285787
0.002852684 0.02122023 0.053992342 0.012347098 0.017569015 0.012903175 0.026924927 0.02489272
-0.01682578 -0.014070861 -0.032357365 0.016077165 0.01437773 0.009057363 0.004144814 0.03776454
0.008954746 -0.009134211 -0.007412063 -0.0038497697 -0.0047432673 0.009564821 0.0040795375 -0.011455557
0.009479919 0.005983728 0.0014995324 0.010138791 0.037595645 0.00072538835 -0.024829643 -0.025265204
0.0037931406 0.009840574 0.017245883 0.0069189863 -0.00013027269 0.007759263 -0.0138438335 0.015784124
0.001865467 0.036761377 0.006317508 0.014221255 -0.0051058065 0.0034651945 0.009075998 0.03718
0.009313528 -0.0019516618 0.00416676 0.007471827 -0.0062551843 0.015129414 0.06148005 0.009134619
0.01731926 0.0048676333 0.00862317 0.011412854 0.012575946 0.019205648 0.012145028 -0.009771968

fc1.bias f4 [10]
00000000: e0f3 efbc ca89 b63d 32e3 d03e 9a98 d3bd
00000010: 7716 fcbe 661a df3d 4828 99bd 4df5 98bc
00000020: 9d65 82bd 8033 153e
-0.029291093 0.08913 0.40798336 -0.10331841 -0.4923589 0.10893707 -0.07478386 -0.018671656
-0.063670374 0.14570427
