assignment_2_cnn/Model/Simple-CNN/model_with_augmented_data.pth (torch, 275388 bytes, 6 tensors)

conv1.weight f4 [16, 3, 5, 5]
0.027794605 0.10375028 -0.041874312 0.07176412 -0.0682638 0.04495158 -0.031676996 0.1154096
-0.024165932 -0.027523268 -0.06059921 0.11263211 -0.03922867 -0.015028464 -0.055556342 0.0028138347
0.029736228 -0.07898017 -0.044884585 -0.08133828 0.11544778 0.09527078 -0.10627382 -0.07459652
0.08090069 -0.06730728 -0.09506011 0.0347753 -0.047680374 -0.05582136 -0.03591746 0.11132725
0.054102924 0.08365485 0.082234554 0.011364799 0.066547155 -0.10976605 -0.06905907 0.06416319
-0.10340562 -0.023584686 -0.063346945 -0.10815163 -0.056603946 -0.04747313 -0.07390225 0.097454645
0.0756929 0.022374569 0.06645901 0.07685228 0.08953488 0.069185704 -0.07544551 -0.07143275
0.053303145 -0.031232137 0.11403873 -0.05150303 -0.015289905 0.041556735 0.0118237 0.0042016464
0.04155459 0.107351065 -0.112908535 0.105204724 0.044182993 0.021060882 0.010136815 0.046596207
-0.048429362 -0.043381616 0.09185264 0.014621127 -0.08629625 0.06651524 -0.06894948 0.10862941
-0.064699836 -0.022551093 0.06826376 0.013562467 -0.0070694955 0.0023435364 0.09841755 0.040956743
-0.09817939 0.0041592773 -0.057526402 0.010764765 -0.07122864 -0.08974685 -0.101295255 -0.045209043
0.06929051 0.052444696 0.109480634 -0.009912719 0.025206601 -0.071942784 0.11201522 -0.012022895
0.08728891 -0.052665863 0.055654112 -0.019004349 -0.040716775 0.09039737 -0.030761274 -0.020972524
-0.00036385297 -0.027872942 0.038161464 0.01433758 -0.099946596 -0.038668487 0.010263949 -0.004868166
0.03521324 -0.088774495 -0.041521512 0.035116073 0.006163958 -0.046830807 -0.022360818 -0.083766915
0.034780174 0.010659228 -0.02824021 0.08070685 0.058947623 0.020576764 -0.05606269 -0.10102151
0.097867444 -0.040233083 0.0017599647 0.033918273 0.013958667 -0.027265834 0.11338603 0.014706553
0.09704758 0.1068999 0.05718255 0.0034702376 0.110197134 -0.05958665 0.03625205 0.09858626
0.024575679 -0.055307426 0.05707094 0.08156223 0.07304898 0.097298875 0.0548495 0.09378037
-0.019383991 -0.11356782 0.0032362996 0.06571466 0.063267596 0.010100213 -0.08284603 0.0976965
-0.069188915 -0.078787 -0.014498796 0.0590453 -0.08138229 0.03976331 -0.05935957 -0.036058746
0.07276905 0.0048609534 0.076612175 -0.10932728 -0.099961914 0.046516083 0.028812246 0.06790153
-0.004449707 0.03411901 0.08531356 -0.0690016 -0.025663795 -0.08884365 0.07370374 -0.09115207
0.062439978 -0.08684228 -0.004709262 -0.072728045 -0.07178325 0.112698615 0.08801218 0.009496173
0.03341374 -0.09613 0.0755878 0.049272448 -0.10069772 -0.112571575 0.09726912 0.020185657
0.052151307 -0.10091276 -0.084907986 0.011412206 0.051156078 -0.06584307 -0.079135686 0.040064447
0.08891375 0.10151031 0.11308167 -0.022483932 0.037131626 0.0979335 -0.055912662 0.10748322
0.007940056 0.06984679 -0.047467552 -0.0027162952 0.039114214 0.01845084 -0.11538186 0.057390004
-0.114409424 0.068531655 0.075536236 -0.0654177 -0.03604235 0.015139562 0.07987257 0.017796777
-0.11258905 0.052404504 0.01078332 -0.0034985936 0.03250717 0.10402102 -0.11292498 -0.028824236
0.08580998 -0.09835445 0.061865576 -0.045959022 -0.078363836 -0.06945588 0.06363339 0.017062161
00000000: 83b1 e33c 077b d43d 6684 2bbd 11f9 923d
00000010: e4cd 8bbd 261f 383d bdbf 01bd de5b ec3d
00000020: a2f7 c5bc 7a78 e1bc e136 78bd aaab e63d
00000030: 3eae 20bd f239 76bc 0c8f 63bd 5068 383b
00000040: 6499 f33c 5bc0 a1bd e6d8 37bd af94 a6bd
00000050: e36f ec3d 541d c33d 17a6 d9bd 0fc6 98bd
00000060: 43af a53d 66d8 89bd e0ae c2bd 8c70 0e3d
00000070: 7f4c 43bd f0a4 64bd 301e 13bd 8bff e33d
00000080: 079b 5d3d 3c53 ab3d 976a a83d 6c33 3a3c
00000090: e049 883d 06cd e0bd d76e 8dbd fe67 833d
000000a0: 53c6 d3bd ac34 c1bc 0bbc 81bd 9a7e ddbd
000000b0: 8ad9 67bd 2f73 42bd 105a 97bd 4d96 c73d
000000c0: e104 9b3d df4a b73c a91b 883d ba64 9d3d
000000d0: 105e b73d 3cb1 8d3d 2d83 9abd 554b 92bd
000000e0: 6654 5a3d 8ada ffbc 238d e93d d7f4 52bd
000000f0: 8282 7abc 6537 2a3d 31b8 413c f7ad 893b
00000100: 2535 2a3d e0da db3d 973c e7bd 9375 d73d
00000110: 3af9 343d df87 ac3c e214 263c aadb 3e3d
00000120: de5d 46bd ecb0 31bd 3d1d bc3d 748d 6f3c
00000130: 17bc b0bd 2439 883d 6335 8dbd 1979 de3d
00000140: 5981 84bd 12bd b8bc dfcd 8b3d 1c35 5e3c
00000150: 3aa7 e7bb 0496 193b 248f c93d 42c2 273d
00000160: 4712 c9bd 8c4a 883b cea0 6bbd b25e 303c
00000170: 52e0 91bd 32cd b7bd e373 cfbd 1e2d 39bd
00000180: 2fe8 8d3d 40d0 563d 6237 e03d f568 22bc
00000190: 137e ce3c bd56 93bd 3c68 e53d adfb 44bc
000001a0: 87c4 b23d 29b8 57bd 91f5 633d 02af 9bbc
000001b0: a2c6 26bd 4222 b93d 11ff fbbc 92ce abbc
000001c0: 85c3 beb9 cc55 e4bc 324f 1c3d 2be8 6a3c
000001d0: cdb0 ccbd d962 1ebd 1f2a 283c 2385 9fbb
000001e0: c23b 103d 67cf b5bd 7612 2abd dfd5 0f3d
000001f0: 07fb c93b a9d1 3fbd 092e b7bc fd8d abbd
00000200: a875 0e3d 0ba4 2e3c 0358 e7bc a249 a53d
00000210: 1073 713d 9a90 a83c fea1 65bd 5ee4 cebd
00000220: ba6e c83d 72cb 24bd 9eae e63a e3ed 0a3d
00000230: e5b2 643c 995c dfbc ef36 e83d c1f3 703c
00000240: e2c0 c63d 56ee da3d 4038 6a3d ed6c 633b
00000250: 09af e13d 2211 74bd 087d 143d 98e7 c93d
00000260: ef52 c93c 0a8a 62bd 38c3 693d 190a a73d
00000270: b49a 953d a244 c73d dfa9 603d ec0f c03d
00000280: 2dcb 9ebc 3f96 e8bd 1918 543b 6895 863d
00000290: 7192 813d 5d7b 253c 2eab a9bd 1a15 c83d
000002a0: ebb2 8dbd 145b a1bd 5c8c 6dbc 7cd9 713d
000002b0: c2ab a6bd dade 223d 0523 73bd 56b2 13bd
000002c0: f107 953d a248 9f3b d8e6 9c3d fbe6 dfbd
000002d0: d5b8 ccbd a687 3e3d a907 ec3c f50f 8b3d
000002e0: d9ce 91bb 60c0 0b3d e0b8 ae3d b650 8dbd
000002f0: e13c d2bc a9f3 b5bd fdf1 963d f0ad babd
00000300: 10c1 7f3d 5eda b1bd 2750 9abb 71f2 94bd
00000310: 1903 93bd 88ce e63d bb3f b43d d695 1b3c
00000320: d9dc 083d cedf c4bd c7cd 9a3d e8d1 493d
00000330: 9b3a cebd ed8b e6bd 0835 c73d 645c a53c
00000340: 9c9c 553d 59ab cebd 3de4 adbd 43fa 3a3c
00000350: 0989 513d bbd8 86bd e411 a2bd 9e1a 243d
00000360: 6a18 b63d a3e4 cf3d 5d97 e73d 3930 b8bc
00000370: 5517 183d 5c91 c83d ad04 65bd 2a20 dc3d
00000380: 0217 023c d50b 8f3d 566d 42bd df03 32bb
00000390: 3a36 203d 3726 973c 534d ecbd c811 6b3d
000003a0: 7d4f eabd 535a 8c3d beb2 9a3d b7f9 85bd
000003b0: 25a1 13bd ed0b 783c 3b94 a33d 8cca 913c
000003c0: 1695 e6bd 1ba6 563d 86ac 303c a948 65bb
000003d0: 3d26 053d f908 d53d 3645 e7bd ce20 ecbc
000003e0: 25bd af3d 0f6e c9bd c266 7d3d 873f 3cbd
000003f0: 387d a0bd e23e 8ebd 3952 823d f2c5 8b3c

conv1.bias f4 [16]
-0.11396959 -0.017675176 0.015064157 -0.102739654 0.06453339 -0.061114043 -0.09106029 -0.09261939
0.07717672 -0.08827375 0.109492265 0.012140215 -0.07647156 0.086117126 0.11384428 0.02365288
00000000: e368 e9bd 88cb 90bc a7cf 763c 2b69 d2bd
00000010: 152a 843d b852 7abd d17d babd 3caf bdbd
00000020: d40e 9e3d dec8 b4bd 7b3d e03d c1e7 463c
00000030: 1f9d 9cbd 2d5e b03d 3127 e93d afc3 c13c

conv2.weight f4 [32, 16, 5, 5]
0.00998472 -0.024159312 0.018023862 -0.017371267 0.040041573 -0.0070111156 0.004378623 0.00030093789
-0.017248172 0.012982554 -0.03695192 -0.008565187 -7.290244e-05 -0.034216035 0.009241575 0.019834328
-0.016633779 0.0016496718 -0.026109165 0.048764613 0.038143385 -0.029299771 0.035651255 -0.005223638
-0.0065993965 0.010759729 -0.018270839 0.01738034 -0.038163383 -0.009072274 -0.035768885 -0.045094054
0.037911624 -0.039893866 -0.036827713 -0.04585215 -0.020460779 -0.026115168 0.0098043205 -0.019136751
0.044136163 0.016371835 0.01339249 -0.018836146 -0.032217007 -0.018135834 0.029614652 0.04340228
-0.0024595202 0.029294504 0.026424963 -0.004013485 -0.012074649 -0.021625329 -0.04363318 -0.044169564
-0.047746707 -0.023517532 0.03387628 -0.036926575 0.004604137 0.0055846274 0.026279254 -0.020710105
0.004550177 0.030679142 0.029248446 0.03332342 -0.034061786 0.010247165 0.048901718 0.01661752
-0.00283798 -0.0015064657 0.044040795 -0.004693991 0.012770074 0.02596441 -0.02621193 -0.04812193
-0.020908428 -0.036318924 0.048490174 -0.0052169026 0.011213762 0.017288512 -0.040881243 -0.006750751
-0.044863757 0.024319394 0.000903374 -0.012742448 -0.048818327 0.01220994 -0.013370591 -0.0015807033
0.04518118 -0.048351593 -0.0014754058 0.03530873 -0.015963757 0.010269481 0.038604748 -0.0489044
0.021568144 -0.0083039645 0.035122897 -0.03807301 -0.042213332 0.049974587 -0.0043637156 0.0239604
-0.035102434 0.030206962 -0.021108015 -0.01905877 0.0012383759 -0.035471708 -0.040374666 0.029783433
-0.0010453046 -0.014174736 -0.01234088 0.038882364 0.033838756 -0.033645857 -0.020686073 -0.03750317
-0.01008569 -0.041829508 0.04525372 -0.036587466 0.035804838 -0.020301407 0.0018289268 0.02587893
-0.028510654 -0.019670105 -0.008146966 -0.033661682 -0.01152839 0.009007675 -0.03446697 -0.03227175
-0.04392009 0.02186364 0.013068271 -0.04799345 -0.004908133 -0.0071792784 0.002430296 0.013819033
-0.035157826 0.021873403 -0.02117824 0.02123927 0.04647709 -0.037379045 0.019878125 -0.014761937
-0.022876358 -0.04231566 0.035132248 0.02100171 -0.020109748 0.013057614 -0.040371012 -0.0021623315
-0.008293539 0.044845384 -0.02740488 -0.03359575 0.01928987 -0.012173313 0.03738736 -0.024358094
-0.0007136524 0.0098169325 0.04166119 0.017856807 -0.025491595 0.03853876 0.011302227 0.033126015
-0.008080959 0.010067308 0.04247741 0.00020326972 0.014599204 -0.00045151115 -0.010720379 0.026601737
0.003582549 -0.03880405 -0.0065360665 -0.030545766 0.03404224 -0.044382807 -0.030137712 -0.0132825915
-0.037237562 0.0018649936 0.036177255 -0.014252603 0.008377266 -0.04831026 -0.042298384 -0.04832972
0.044105273 0.032366436 0.03584308 -0.03896268 0.0257752 -0.0010616363 -0.034109753 -0.019650865
-0.033968564 -0.046654165 0.022236748 0.011131835 -0.0343027 -0.03595708 -0.0027074218 -0.03845753
-0.048503924 -0.0035134316 0.012875623 -0.025149047 -0.035331514 -0.020328898 0.04908487 0.04606436
0.039257266 0.04343862 -0.0005976558 -0.033555772 -0.010483217 -0.0011903584 0.042212438 0.011560762
0.0007342637 0.022162242 -0.030562265 0.0105505055 0.018298645 0.006041616 -0.028959071 0.041990835
0.022617048 0.022326082 0.005378801 -0.049704928 0.03029644 -0.04457965 -0.040084552 0.031839486
00000000: f396 233c c0e9 c5bc c7a6 933c 304e 8ebc
00000010: a202 243d 80bd e5bb 8d7a 8f3b 33c7 9d39
00000020: 0a4c 8dbc c7b4 543c e55a 17bd 0055 0cbc
00000030: 33e3 98b8 1d26 0cbd fa69 173c 9a7b a23c
00000040: 9043 88bc cd39 d83a e3e2 d5bc 67bd 473d
00000050: 3d3c 1c3d 1306 f0bc 0d07 123d 0d2b abbb
00000060: c03f d8bb 9349 303c baac 95bc 3761 8e3c
00000070: 3551 1cbd e0a3 14bc 6582 12bd 8bb4 38bd
00000080: 3849 1b3d c067 23bd a8d8 16bd 77cf 3bbd
00000090: 5d9d a7bc 7aef d5bc 4da2 203c adc4 9cbc
000000a0: 1fc8 343d 3a1e 863c 2d6c 5b3c 434e 9abc
000000b0: fbf5 03bd 9a91 94bc 6d9a f23c 97c6 313d
000000c0: e72f 21bb 07fb ef3c 2a79 d83c 8d83 83bb
000000d0: c0d4 45bc 9a27 b1bc b5b8 32bd 25eb 34bd
000000e0: 0d92 43bd d7a7 c0bc dbc1 0a3d 5240 17bd
000000f0: 4dde 963b 40ff b63b 9747 d73c 3da8 a9bc
00000100: a719 953b d352 fb3c 709a ef3c 237e 083d
00000110: 5f84 0bbd bae3 273c 2b4d 483d 7721 883c
00000120: 67fd 39bb 9a74 c5ba 1f64 343d 0dd0 99bb
00000130: 9339 513c 50b3 d43c 67ba d6bc 801b 45bd
00000140: 2748 abbc 27c3 14bd a29d 463d 8df2 aabb
00000150: edb9 373c a3a0 8d3c 1773 27bd 6735 ddbb
00000160: 0fc3 37bd 7739 c73c 67d0 6c3a b3c5 50bc
00000170: baf5 47bd 330c 483c 5310 5bbc 9a2f cfba
00000180: e70f 393d 520c 46bd 6762 c1ba e39f 103d
00000190: 6dc6 82bc 5341 283c 0320 1e3d fb4f 48bd
000001a0: adaf b03c 5a0d 08bc 07dd 0f3d 72f2 1bbd
000001b0: e3e7 2cbd 27b2 4c3d 80fd 8ebb 9a48 c43c
000001c0: 92c7 0fbd 9774 f73c b7ea acbc 2321 9cbc
000001d0: 0051 a23a c84a 11bd e85f 25bd 63fc f33c
000001e0: 9a02 89ba 273d 68bc 6731 4abc 1d43 1f3d
000001f0: 829a 0a3d 3dd0 09bd d775 a9bc ed9c 19bd
00000200: 733e 25bc 6b55 2bbd f75b 393d bddc 15bd
00000210: 18a8 123d 234f a6bc 9ab8 ef3a 0d00 d43c
00000220: 2d8f e9bc 3323 a1bc da7a 05bc d5e0 09bd
00000230: 93e1 3cbc ed94 133c 3d2d 0dbd 622f 04bd
00000240: 8de5 33bd 601b b33c 4d1c 563c c894 44bd
00000250: 67d4 a0bb 2740 ebbb 9a45 1f3b 3a69 623c
00000260: a701 10bd da2f b33c fd7d adbc fafd ad3c
00000270: c35e 3e3d c51a 19bd 73d7 a23c 0ddc 71bc
00000280: 3367 bbbc 2f53 2dbd d5e6 0f3d c70b ac3c
00000290: 33bd a4bc 9aef 553c 135c 25bd e7b5 0dbb
000002a0: a0e1 07bc cbaf 373d 3380 e0bc b29b 09bd
000002b0: ca05 9e3c 9372 47bc 7d23 193d a08a c7bc
000002c0: 6714 3bba 33d7 203c eda4 2a3d 7048 923c
000002d0: c0d3 d0bc d2da 1d3d fa2c 393c 25af 073d
000002e0: 0066 04bc 5af1 243c cbfc 2d3d cd24 5539
000002f0: 8031 6f3c cdb8 ecb9 87a4 2fbc e3eb d93c
00000300: 33c9 6a3b fff0 1ebd 802c d6bb 1d3b fabc
00000310: e06f 0b3d bfca 35bd 5de3 f6bc 3a9f 59bc
00000320: 6a86 18bd cd72 f43a 9a2e 143d c083 69bc
00000330: cd40 093c fbe0 45bd 1241 2dbd 62f5 45bd
00000340: bba7 343d ab92 043d 32d0 123d 5597 1fbd
00000350: 8326 d33c 9a26 8bba abb6 0bbd dafa a0bc
00000360: 9f22 0bbd 7018 3fbd d729 b63c 4d62 363c
00000370: fd80 0cbd bb47 13bd 006f 31bb a585 1dbd
00000380: 0dac 46bd 9a41 66bb 47f4 523c 6005 cebc
00000390: c7b7 10bd ca88 a6bc 370d 493d fbad 3c3d
000003a0: 3acc 203d b2ec 313d 00ac 1cba c771 09bd
000003b0: cdc1 2bbc cd05 9cba f3e6 2c3d 5a69 3d3c
000003c0: 9a7b 403a 978d b53c b75d fabc 07dc 2c3c
000003d0: 0ae7 953c c0f8 c53b 933b edbc 95fe 2b3d
000003e0: 6347 b93c 30e5 b63c a740 b03b 6597 4bbd
000003f0: 3d30 f83c 2799 36bd b32f 24bd 1f6a 023d

conv2.bias f4 [32]
0.045200508 -0.027486915 0.04462113 -0.039382923 -0.015397024 -0.0010326505 -0.043051284 -0.040614653
0.0013061821 -0.01908555 -0.02399217 -0.038913216 0.04504723 -0.036182668 -0.04397827 -0.03870323
-0.045549043 0.04353949 -0.009169138 0.040956046 0.038102936 0.025281442 -0.0033584952 -0.0043212594
-0.034843154 -0.029430628 0.03340332 -0.029502898 0.00949946 0.025188839 -0.00810526 -0.0068836273
00000000: 2b24 393d 3d2c e1bc a5c4 363d fd4f 21bd
00000010: cd43 7cbc 005a 87ba 8b56 30bd 8d5b 26bd
00000020: 3334 ab3a 4d59 9cbc 3a8b c4bc 7763 1fbd
00000030: 7283 383d 4734 14bd 8f22 34bd 4787 1ebd
00000040: a291 3abd 7756 323d 273a 16bc 87c1 273d
00000050: d311 1c3d 071b cf3c 331a 5cbb 5a99 8dbb
00000060: b2b7 0ebd 8018 f1bc ebd1 083d 10b0 f1bc
00000070: a0a3 1b3c d358 ce3c edcb 04bc 0d90 e1bb

fc1.weight f4 [10, 5408]
0.008635855 -0.012266618 0.010182482 -0.011712328 0.0094382195 -0.005590888 -0.01342648 0.009000127
0.004899161 0.0012243286 0.010468179 -0.012350818 0.0029211415 -0.008241252 -0.009344097 0.010389545
0.010327978 0.012594659 0.004909341 0.010748181 0.0076703406 0.005031207 0.0015501514 0.002075909
0.008572956 -0.0033968173 -0.0053509055 -0.0058969017 0.005123755 0.007960248 0.004827247 0.0046093627
-0.0046257465 -0.003058015 -0.011888495 0.0020799227 -0.00831692 0.0009476362 -0.011476498 -0.006416065
-0.011092441 0.0130075 -0.0074338773 0.00072139845 -0.013325749 -0.0010376975 -0.004333181 -0.0026257357
-0.009522013 -0.0112897875 -0.002346312 0.010154 -0.012176278 0.011336045 -0.013590465 0.01240813
0.005131765 -0.001828922 0.010838044 0.0009906357 0.0005866452 -0.0012025841 0.0066499687 -0.009789255
0.006772838 -0.010963731 -0.013157269 -0.0026913811 -0.0053258752 -0.007329731 -0.0010523371 -0.00494608
0.011939538 0.0051319916 0.008047521 4.47405e-07 -0.007908255 -0.004038446 0.005708588 0.00026716402
0.0024037012 0.009421962 -0.011573998 0.009684234 0.0029340382 -0.008404403 -4.6967798e-05 0.012122458
0.0008663479 -0.0063997167 0.0045726816 0.010136231 0.006794263 -0.008102115 0.0025346223 0.0030910613
0.0032088454 -0.013372639 -0.0114493845 -0.0113800345 0.007944238 0.005340351 -0.0032072098 0.0026641316
0.0046902085 0.012235603 -0.008999604 0.0030546966 0.002155367 0.009843724 0.00068006857 0.0014120216
-0.0028336607 -0.0061549507 -0.00693801 0.0018727661 0.0067368755 0.00545359 -0.00038135765 -0.003323404
-0.00955827 -0.0019452553 -0.004141936 0.0091380235 -0.0041448474 -0.002243428 0.0039424095 0.006921905
-0.009129719 -0.007195341 0.0070463144 0.0051306332 -0.0062141833 0.004964367 0.0067796414 0.012057121
-0.0031758575 -0.00071779004 -0.0018488461 0.0014500072 -0.012889412 -0.011446935 0.0023236221 -0.00704529
-0.0022038976 0.006116289 0.0050937952 -0.008447767 0.007991687 -0.0057309046 -0.0076993247 -0.0023294368
-0.012631704 -0.00740056 -0.005345509 0.002355414 -0.008014 0.0023309963 0.0012752842 0.001924892
0.0053982656 0.010581616 -0.011289507 -0.0002828475 0.012725796 0.013417357 -0.010763542 -0.01042969
0.010285705 -0.0013289048 -0.0053461283 0.011707335 -0.012017526 -7.480904e-05 -0.0017091179 -0.0124322865
0.00891244 0.013074022 -0.011517127 -0.0062265047 -0.0058836224 0.0025744883 0.007970151 -0.0071210912
-0.011634592 -0.0014397347 -0.0013801634 -0.0047808113 0.0063148527 -0.007937232 0.0023901688 0.0037805983
0.010830916 -0.00045052226 -0.0023037272 0.007826152 0.004055397 0.0003522358 0.00067394593 0.006392275
0.000630653 0.006306777 0.005538112 0.009369961 -0.0011527049 0.0018607493 -0.002564584 -0.010275114
-0.009721764 -0.010780423 -0.002563825 0.0056032483 -0.0113904225 0.0020748181 -0.0071387035 -0.007948599
-0.0034895565 -0.00788446 -0.0030668706 -0.005615505 -0.0005623557 -0.004495804 -0.0030994988 0.002215741
-0.006760215 0.011587136 -0.0052026506 0.00094760867 -0.0036704652 0.007889726 0.010917627 0.010210799
-0.013134989 0.0067396928 0.00033339293 0.0010998187 0.008153392 0.008132596 0.004666465 -0.012865776
0.004048171 0.008039309 -0.011971548 -0.013428602 0.00477127 -0.008286098 0.0032497474 -0.007085534
-0.013145176 -0.0023365289 -0.004476196 -0.002082625 0.005341421 -0.0072911894 0.0128623005 -0.012636992
00000000: 677d 0d3c edf9 48bc 6dd4 263c 10e5 3fbc
00000010: c3a2 1a3c c533 b7bb bdfa 5bbc 4575 133c
00000020: 2489 a03b a779 a03a ba82 2b3c 165b 4abc
00000030: 9f70 3f3b 5106 07bc fc17 19bc e938 2a3c
00000040: ae36 293c d459 4e3c 8ade a03b 2319 303c
00000050: 7b57 fb3b d3dc a43b 732e cb3a f90b 083b
00000060: 9575 0c3c 239d 5ebb a656 afbb cc3a c1bb
00000070: 2ce5 a73b b36b 023c e22d 9e3b 230a 973b
00000080: 9393 97bb fa68 48bb f6c7 42bc 504f 083b
00000090: b143 08bc ca6a 783a ec07 3cbc db3d d2bb
000000a0: 12bd 35bc 691d 553c e297 f3bb 3b1c 3d3a
000000b0: 3e54 5abc 5a03 88ba 5bfd 8dbb 8914 2cbb
000000c0: 3802 1cbc cdf8 38bc 95c4 19bb f65c 263c
000000d0: 037f 47bc d2ba 393c 8baa 5ebc 784b 4b3c
000000e0: 5d28 a83b 70b8 efba 0d92 313c 38d8 813a
000000f0: 18c9 193a 07a0 9dba fbe7 d93b 1d63 20bc
00000100: afee dd3b 39a1 33bc 9691 57bc e261 30bb
00000110: ae84 aebb 3d2e f0bb 93ee 89ba ba12 a2bb
00000120: 0d9e 433c 442a a83b c0d9 033c e032 f034
00000130: a091 01bc f154 84bb 1b0f bb3b 2612 8c39
00000140: 6a87 1d3b 935e 1a3c dea0 3dbc 9faa 1e3c
00000150: fe48 403b 9fb2 09bc 4aff 44b8 469d 463c
00000160: a01b 633a b7b4 d1bb 6fd6 953b 6f12 263c
00000170: 69a2 de3b bcbe 04bc e81b 263b 6793 4a3b
00000180: 7e4b 523b ea18 5bbc 3396 3bbc 5373 3abc
00000190: 8d28 023c 1cfe ae3b 0d30 52bb b698 2e3b
000001a0: 52b0 993b d777 483c 1373 13bc 4e31 483b
000001b0: 0f41 0d3b 9247 213c a146 323a 9513 b93a
000001c0: f0b4 39bb 78af c9bb 3f58 e3bb 9a77 f53a
000001d0: 02c1 dc3b 07b4 b23b f5f0 c7b9 77cd 59bb
000001e0: 4a9a 1cbc f0f7 feba 14b9 87bb a6b7 153c
000001f0: 80d1 87bb 7a06 13bb 542f 813b 26d1 e23b
00000200: d194 15bc e5c6 ebbb c5e4 e63b df1e a83b
00000210: 59a0 cbbb 21ac a23b c127 de3b 3b8b 453c
00000220: 0c22 50bb 132a 3cba fb54 f2ba 2b0e be3a
00000230: 1d2e 53bc ed8b 3bbc e947 183b 2ddc e6bb
00000240: 446f 10bb 276b c83b dae9 a63b 8168 0abc
00000250: 91ef 023c 50ca bbbb 9e4a fcbb 77a9 18bb
00000260: 35f5 4ebc 6680 f2bb 6129 afbb 4a5d 1a3b
00000270: 274d 03bc a1c3 183b 7027 a73a a84c fc3a
00000280: efe3 b03b 845e 2d3c a0f7 38bc 264b 94b9
00000290: db7f 503c 79d4 5b3c 9159 30bc 4ae1 2abc
000002a0: 6085 283c a52e aeba 932e afbb 1fd0 3f3c
000002b0: 28e5 44bc cce2 9cb8 7b04 e0ba cab0 4bbc
000002c0: 7c05 123c 6c34 563c 55b2 3cbc b507 ccbb
000002d0: 67cb c0bb bfb8 283b 3c95 023c 0b58 e9bb
000002e0: 049f 3ebc 7bb5 bcba 99e6 b4ba 5aa8 9cbb
000002f0: d3ec ce3b 2a0b 02bc 61a4 1c3b eac3 773b
00000300: 2874 313c 1334 ecb9 21fa 16bb 4339 003c
00000310: 23e3 843b 4aac b839 bfab 303a 4a76 d13b
00000320: 6852 253a 14a9 ce3b 0d79 b53b 7784 193c
00000330: 5c16 97ba 63e4 f33a 9412 28bb f458 28bc
00000340: 0948 1fbc 5fa0 30bc d905 28bb 749b b73b
00000350: e59e 3abc acf9 073b c9eb e9bb d73a 02bc
00000360: 0bb1 64bb d22d 01bc 8dfd 48bb 4502 b8bb
00000370: 0d6b 13ba 8a51 93bb f620 4bbb f735 113b
00000380: cb84 ddbb f9d7 3d3c ff7a aabb f168 783a
00000390: 308c 70bb e943 013c d9df 323c 324b 273c
000003a0: 2334 57bc a4d8 dc3b 3ecb ae39 cb27 903a
000003b0: ce95 053c 943e 053c 25e9 983b faca 52bc
000003c0: 85a6 843b 4eb7 033c 5024 44bc a403 5cbc
000003d0: 5058 9c3b 6ac2 07bc b7f9 543b c42d e8bb
000003e0: dd5e 57bc 7320 19bb 0ead 92bb a67c 08bb
000003f0: 1607 af3b eeea eebb 66bc 523c 630b 4fbc

fc1.bias f4 [10]
-0.007167592 -0.005565467 -0.009851989 0.0072509665 0.0014621504 -0.0057225726 0.004770586 0.0012587886
-0.011929074 0.005429991
00000000: 1fde eabb 855e b6bb 3d6a 21bc 8499 ed3b
00000010: a0a5 bf3a 6b84 bbbb 9352 9c3b f0fd a43a
00000020: 2a72 43bc 11ee b13b
