assignment_2_cnn/Model/Simple-CNN/model.pth (torch, 274804 bytes, 6 tensors)

conv1.weight f4 [16, 3, 5, 5]
000000 aa e5 50 be 9c 90 17 bd 6c ad 1c be 7b 63 89 bc
       -0.2040011 -0.037003145 -0.1530053 -0.016771069
000010 1a d3 83 bd 55 03 10 be 53 d2 f3 bd 08 ad f4 bd
       -0.06436749 -0.14063771 -0.119053505 -0.119470656
000020 4d 97 c4 3d 71 f3 f7 3d 8b e4 7d be 2a 70 5d be
       0.09599171 0.1210698 -0.24794213 -0.21624818
000030 9d bf c3 bd e8 5f 1c 3d 0b f1 86 3e ab b9 f4 be
       -0.09558032 0.0381774 0.26355776 -0.47797903
000040 6b 33 ca be 97 cc 84 be 7c 93 ae 3d fa 2c 4b 3e
       -0.39492354 -0.2593734 0.08524224 0.19841376
000050 99 6a a3 be fd 0b f4 be 4c dc 87 be df e0 74 be
       -0.31917265 -0.47665396 -0.2653526 -0.23913907
000060 52 49 5f bd b0 e5 85 3d 76 4b 7c 3d db b9 5b 3e
       -0.054513283 0.0653795 0.061595403 0.21457617
000070 b4 98 76 3e b7 d1 8d 3e 00 96 9e 3d 23 72 1c bd
       0.24081689 0.27699062 0.07743454 -0.038194787
000080 86 92 63 3e fe 75 af 3e db 77 cc 3e af 60 16 be
       0.22223863 0.34269708 0.39935192 -0.1468532
000090 76 e3 c4 bd ec b3 fc 3d 47 bf bf 3e 9c 6a 04 3f
       -0.09613697 0.12339005 0.3745062 0.51725173
0000a0 4e 39 1f be 98 b8 2a be 0b 48 07 3e 93 a8 a4 3e
       -0.15549204 -0.1667198 0.13211076 0.32159862
0000b0 16 f1 e0 3e 6b 62 56 be 86 56 31 be bb cb ba bd
       0.43933934 -0.20935981 -0.17318162 -0.0912089
0000c0 89 4f a4 3d 2e 27 9a 3e d3 f7 47 3d 8e da 60 3e
       0.080229826 0.30108017 0.048820328 0.21958372
0000d0 4b f1 a8 3e 8e b2 9a 3e d6 66 2c 3e 09 0d 35 3e
       0.32996592 0.3021435 0.16836104 0.17680754
0000e0 74 44 ff 3d 01 12 46 3e 88 84 e5 3e 65 99 a1 3e
       0.12464228 0.19342805 0.44827676 0.31562343
0000f0 f7 64 5f 3c e3 48 1e 3b 9e 7b 65 3e b5 3c dd 3e
       0.013634912 0.002415233 0.22410437 0.43210378
000100 a9 03 15 3f b1 12 03 be 5b 30 99 3d b9 53 df 3d
       0.5820871 -0.12800099 0.07479926 0.10904641
000110 32 c6 8d 3e 05 ff 03 3f 7a 6a 29 be ad 0f d1 bd
       0.27690274 0.51561004 -0.16544524 -0.10208068
000120 12 c0 5e 3d 40 27 0c 3e 36 c0 bd 3e a7 cb d5 bc
       0.05438239 0.13686848 0.37060708 -0.026098086
000130 24 e5 13 be 8b 13 a0 bd c3 20 9e be 61 2b 24 be
       -0.14442879 -0.078162275 -0.3088437 -0.16032173
000140 dc c1 ac bd e6 03 a9 bd 07 a1 41 be 9c b4 a0 be
       -0.08435413 -0.08252697 -0.18909083 -0.31387794
000150 00 34 ce be f7 72 40 be 20 a9 cd bc e5 28 30 be
       -0.40274048 -0.18793856 -0.02510506 -0.172031
000160 fe fc 6b be 10 bf 89 be 3b ea cf bd c8 1c 21 3d
       -0.23045728 -0.26903582 -0.10152098 0.03933409
000170 44 cb fc 3d 9c a7 d0 bd ab 06 80 be f9 84 97 bd
       0.12343457 -0.10188219 -0.25005087 -0.073984094
000180 7d 04 60 3e 94 ae aa bb 24 97 3e bd 14 a8 24 be
       0.21876712 -0.0052087996 -0.046530858 -0.16079742
000190 7d 3a 87 3e 93 f1 82 3e ef 6e 8b 3e 02 7d 6f 3d
       0.2641181 0.25574932 0.27233073 0.058468826
0001a0 0e 70 93 bc f3 60 33 3e e0 2f 9b 3e d3 98 3d 3e
       -0.017997768 0.17517452 0.30309963 0.18515329
0001b0 4b 28 c6 3c 60 bb b3 bd b7 eb 1c 3e ff 88 c4 3e
       0.024189135 -0.08775973 0.15324293 0.3838577
0001c0 36 94 aa 3e 52 ba 4a 3d 24 38 bc 3d aa 26 bf 3e
       0.333162 0.049494095 0.091903955 0.37334186
0001d0 67 f4 c0 3e 0c e2 9e 3e 4c 17 35 3e 18 5d 63 bd
       0.37686464 0.31031835 0.17684668 -0.055508703
0001e0 43 81 b8 3e e4 db 04 3f d3 75 fd 3e f6 20 9f 3e
       0.3603612 0.51898026 0.49503955 0.31079835
0001f0 55 25 b9 3c 14 74 26 be a6 d5 f8 bd d5 60 47 bd
       0.02260081 -0.16255218 -0.12150125 -0.04867633
000200 f2 e4 2e be dc 1d 35 be f3 e1 85 3d 8b 95 15 be
       -0.17079523 -0.17687172 0.06537237 -0.14607827
000210 5f 85 d8 bd 92 05 86 bd 98 0b d8 bd 2d cf 43 3d
       -0.105723135 -0.06544031 -0.10549086 0.047805
000220 a2 34 0f 3d 95 69 86 bd 69 b2 6b be 50 a0 86 be
       0.034962304 -0.06563107 -0.23017277 -0.26294184
000230 88 8b c3 bc 6a 4d fb 3d 30 ee 02 bd 2c 05 c9 bd
       -0.023870245 0.12270625 -0.031965435 -0.098154396
000240 09 c7 4b be d0 82 0a 3e d6 a8 30 3e c9 0a 1a 3e
       -0.19900145 0.13526464 0.17251906 0.15043177
000250 b5 c5 a5 bb 06 e6 fc bd 12 b7 cf bc 30 38 56 3d
       -0.005058969 -0.12348561 -0.02535585 0.05229968
000260 b3 21 25 3d 93 db a3 bd 2e 4e 5c bd 7b 09 b4 3c
       0.04031534 -0.08000865 -0.053785495 0.021977177
000270 5c 76 71 bd 08 ef a2 3c 67 bf b6 bd e2 51 29 3d
       -0.058950767 0.01988937 -0.08923226 0.041337855
000280 8b ec 22 bd 60 4f 50 3e f7 5e 38 bd a6 0e db bd
       -0.039776366 0.20342779 -0.04501244 -0.10696153
000290 6d 78 aa 3d 07 a7 3b 3e f1 a2 54 3d db 24 8e 3d
       0.08323751 0.18325435 0.051913206 0.069406234
0002a0 7b 34 e5 bd 8c 07 2f 3d 22 b2 01 3e d8 87 c3 bd
       -0.111916505 0.042731807 0.12665609 -0.095473945
0002b0 09 50 0d be 7a f5 d2 3b 93 74 c1 bd 8a 9b 4c 3c
       -0.13800062 0.0064379545 -0.09446063 0.012488255
0002c0 9e 6e 05 be 64 da f3 bd 08 a9 32 be 81 97 7f 3d
       -0.13030478 -0.11906889 -0.17447293 0.062400345
0002d0 a0 9e 41 3d 39 9c 8a bd fa 6e b7 3c ab ca a1 bd
       0.047270417 -0.06768078 0.022391785 -0.07899984
0002e0 9f 65 49 3d d7 37 bc bd d6 d6 a6 3d a1 ab 8c bc
       0.04916918 -0.09190338 0.081464455 -0.017171683
0002f0 fb 99 5c 3d 60 88 7d bc f2 ed 8c bd 41 4c f4 3d
       0.053857785 -0.015474409 -0.06881322 0.11928607
000300 f6 12 a3 3d b1 fb 16 3d 70 43 b7 3d 4a cd df 3d
       0.07962601 0.036861125 0.089484096 0.10927828
000310 39 39 0f be 31 1f 16 be 0a a1 8b bc 35 21 05 be
       -0.13986672 -0.14660336 -0.017044563 -0.13000949
000320 ac 75 de ba e0 28 80 bd 63 2c e8 bd 9d 84 ab bd
       -0.0016972325 -0.06257796 -0.11336591 -0.08374903
000330 ed f2 37 bc 22 6e 5a bb 5a a0 8e bd 66 86 ab bd
       -0.011227352 -0.0033329804 -0.069641784 -0.08375244
000340 ef 91 c3 bd d1 8d 98 bd 1d a8 d3 bc 49 fd 60 3e
       -0.09549319 -0.07448924 -0.025836999 0.2197162
000350 55 b6 2c 3e f5 bc b5 bd 13 7d ca 3b 48 64 33 3e
       0.16866429 -0.08873931 0.006179461 0.17518723
000360 14 07 f0 3d 02 0a 37 3e 8c 63 40 3c 00 c6 9c 3d
       0.117201 0.17874911 0.011742484 0.07654953
000370 63 1c 22 3e d5 93 b1 3d ec fa c3 3c 91 8b 9c bd
       0.15831141 0.08670775 0.02392336 -0.07643808
000380 31 1d 42 bd 20 24 05 be 1e 92 6b be 1d 66 af be
       -0.04739112 -0.13002062 -0.23004958 -0.34257594
000390 3a ab 0a bf 7e c2 c4 be 53 e2 1f bd b8 45 26 be
       -0.5416752 -0.38429636 -0.0390342 -0.16237533
0003a0 3c e3 e7 be 85 69 d3 be 6c 41 3b be 7a 79 af bd
       -0.45290554 -0.41291443 -0.18286675 -0.08568092
0003b0 0c 2b d0 bd e8 ad 1d be 90 18 88 3e e9 56 bd 3d
       -0.101644605 -0.15398371 0.2658124 0.092450924
0003c0 a3 2a d5 bd 5c e4 af bd 9e 70 c5 3e cd df 4e 3f
       -0.10408523 -0.08588478 0.38562483 0.8081024
0003d0 5a 51 11 3f ce cf 38 3c 35 dd 06 bd d0 a0 ff 3e
       0.5676476 0.011280013 -0.032925803 0.49927378
0003e0 65 dd 43 3f a9 23 ba 3e 4f cb 5f be eb e6 86 be
       0.76509696 0.36355332 -0.218549 -0.2634805
0003f0 25 74 11 bf 63 0e 12 bf f2 8c e5 be 58 6d 11 be
       -0.5681785 -0.570532 -0.44834095 -0.14201868

conv1.bias f4 [16]
000000 1f e2 e0 bf 78 47 90 be cf 55 45 bb 39 bb 45 3e
       -1.7569007 -0.28179526 -0.003011096 0.19309701
000010 4e 7c 19 bf f6 86 67 be 16 52 d4 3d 0d a8 57 3f
       -0.599553 -0.22610077 0.10367219 0.842408
000020 44 cd 79 3b ef e0 38 bd e6 26 c3 3c 85 bf d8 3c
       0.0038116733 -0.04513639 0.02382226 0.026458511
000030 9d 66 2d be 42 a3 64 bd 28 10 ff bc aa 2d 75 bd
       -0.16933675 -0.055819757 -0.031135634 -0.059858

conv2.weight f4 [32, 16, 5, 5]
000000 a5 8f 75 bc 9f 93 6f bd 0a 2b 2c 3c e2 dd 38 3d
       -0.014987861 -0.05849039 0.010508308 0.04513348
000010 be 81 0b 3b 93 3a c8 3c be e1 11 bd b6 f6 86 bb
       0.002128705 0.024441993 -0.035615675 -0.0041187657
000020 c2 27 2f bd e7 0a 28 bd 91 bf 15 3d 9c e3 53 bc
       -0.042762525 -0.041026022 0.036559645 -0.012932684
000030 ee f2 95 bd 7f ee cf bd 73 5d 69 bd d0 7d 14 bb
       -0.07321726 -0.101529114 -0.056973886 -0.0022657998
000040 ca fb 00 3d 6c de 30 bd 9e 8e 08 be f1 b4 33 bd
       0.031490125 -0.043180868 -0.13335654 -0.04387373
000050 33 b4 a9 3c 36 c6 7e 3c 02 e9 9c bd 71 01 79 bd
       0.020715808 0.015550187 -0.0766163 -0.06079239
000060 2f 10 27 bd d2 41 77 3d 92 b5 8a 3d 5c f3 a2 3d
       -0.04078692 0.060365506 0.06772913 0.07956573
000070 2b 1d 9f 3d 03 95 a8 bc b8 80 3b bd d2 00 18 3d
       0.07769235 -0.020578867 -0.045777053 0.037110157
000080 23 48 b3 3d fe 36 5f 3c b5 2b d4 bc 28 2c 4c bd
       0.08753993 0.013623951 -0.025899747 -0.0498468
000090 08 18 4f 3d 5f dc 40 3d 59 0c fe 3d fc 56 54 3d
       0.050560027 0.047085162 0.12404699 0.051840767
0000a0 76 ea f6 bd a3 37 d8 bc d0 ee 18 3d 06 1f 7f 3d
       -0.120564386 -0.026393717 0.037337124 0.062285446
0000b0 2c ad 1c 3d e3 54 2f be c9 9d b4 bd 69 00 bd 38
       0.038251087 -0.17122225 -0.08819158 9.012299e-05
0000c0 15 14 1d 3d 1a d8 3d bb 79 eb 29 3d d2 ae fd bc
       0.03834923 -0.0028967918 0.04148433 -0.03096715
0000d0 00 01 1c 3d 15 c8 47 3c ef 31 17 3d 52 03 fd bc
       0.03808689 0.012193699 0.036912855 -0.030885372
0000e0 3f db 1e bc a1 71 31 3d 09 ce b6 3b 87 1b 75 bb
       -0.009695827 0.043321256 0.0055787605 -0.003740044
0000f0 7f b1 6e 3c 72 44 1e bd f3 16 46 3d 61 da e1 bb
       0.014568686 -0.038639493 0.04836173 -0.006892488
000100 e2 ca c1 ba a3 fc 2c 3c a0 c9 9c 39 bd cf 0f 3d
       -0.0014785195 0.01055828 0.0002990486 0.035110224
000110 06 54 e5 3b 05 7d 00 3d 86 bf 9e bc cc 41 93 3c
       0.0069985418 0.031369228 -0.019378435 0.01797571
000120 78 da 1b 3d 03 a8 39 ba 01 28 b5 3c 2d ee b6 39
       0.038050145 -0.00070822256 0.022113802 0.000348912
000130 76 ec cb 3b ed c0 b1 bd 16 d1 83 bd b6 90 62 bd
       0.0062232567 -0.08679376 -0.06436364 -0.05531379
000140 d8 8b 8e bd 6d af ea bb a6 92 b9 3c 7a c8 8e bd
       -0.06960267 -0.0071620257 0.022652935 -0.069718316
000150 a9 20 85 bd 09 b1 b1 3b 98 32 94 3d b2 a1 ca 3d
       -0.0650037 0.0054227156 0.072362125 0.09894122
000160 a0 72 a0 3d c7 94 27 3d 66 26 ab bc 18 7b ac 3d
       0.07834363 0.04091337 -0.020892333 0.08421916
000170 1e a8 39 3d d0 32 8b 3b d9 a4 89 3c 4e be 6d bd
       0.045326345 0.0042480007 0.016802238 -0.058042817
000180 c0 a2 7a bd 94 f4 94 bd 60 e0 f1 bc 1f e1 61 3a
       -0.061190367 -0.07273212 -0.029525936 0.00086166145
000190 5e 67 df bd 38 30 3e be 06 fe 73 be fa 34 8e be
       -0.109083876 -0.18573081 -0.23827371 -0.27774793
0001a0 0f 06 85 be e2 ec 04 bc 71 81 d7 bc 28 10 70 be
       -0.25981185 -0.008113118 -0.02630684 -0.23443663
0001b0 11 06 2c be b4 3f 42 be 7b 92 93 3d 8a 03 b0 3d
       -0.16799189 -0.18969613 0.07205673 0.08594425
0001c0 3a ae bc bd 63 f4 16 be f6 3f 76 be 03 a0 60 3e
       -0.092129186 -0.14741664 -0.24047837 0.2193604
0001d0 91 ca 46 3e ca e3 82 3c 7c b0 15 be a1 fc 41 be
       0.1941321 0.015977759 -0.14618105 -0.18944027
0001e0 ea b9 9d 3e b2 71 76 3e e7 74 e5 3c 8b 54 df bd
       0.30805904 0.24066809 0.028009845 -0.10904797
0001f0 14 ff 1e be 47 1a 4c bd f5 81 98 bc bf 08 43 3d
       -0.15526992 -0.049829748 -0.018616656 0.047615763
000200 05 a9 77 3d 70 0c 99 3c 83 be 29 bd a1 ae af 3c
       0.060463924 0.018682688 -0.04144145 0.021445574
000210 b4 a1 17 3d 5b 2f b3 3d 2d 68 fa 3c b1 84 81 bd
       0.037019446 0.08749267 0.030567253 -0.06324137
000220 5d bb 0b bd e9 7e 20 bd f4 63 f1 3c 77 15 52 3c
       -0.03411423 -0.03918353 0.029466607 0.0128225
000230 e0 1a 6b 3c 7b 62 8c bd 0e 04 a4 bd c4 01 01 bd
       0.014349669 -0.06854721 -0.08008586 -0.031495824
000240 06 4e d8 bc 0e 9e 43 bd 46 93 1f bd 1a c5 f7 bc
       -0.026404392 -0.047758155 -0.03895881 -0.030245353
000250 f8 2e 63 bd 8a 4e 64 3d b3 76 15 3c 78 73 2e bd
       -0.055464715 0.055738963 0.009122538 -0.04259059
000260 a0 23 33 bc bd 31 d6 bc c0 17 3c 3d 2b e4 08 bd
       -0.010933787 -0.026146764 0.045921087 -0.033420723
000270 0a a5 02 3d 6f b6 40 bd 33 50 99 bb 48 c6 13 bd
       0.031895675 -0.047048982 -0.00467875 -0.036077768
000280 7a ff 25 3c e3 38 08 bd f3 72 da 3b 67 ea 1c 3a
       0.010131711 -0.033257376 0.006666535 0.00059858564
000290 cd 83 e0 bc e7 ba 7e 3b 77 de d4 3c 73 8e df 3c
       -0.027406598 0.0038868727 0.025984986 0.027289605
0002a0 a0 fb 9a bc 0d 06 e3 bc ea 2f fa bc 12 0c 27 bd
       -0.018918812 -0.027712846 -0.030540425 -0.040782996
0002b0 fa d8 83 3c 70 a0 03 3d 4a 54 a0 3c ba ce cb bc
       0.016094673 0.032135427 0.019571442 -0.024878848
0002c0 57 b6 13 be 8a 60 5d be b0 69 95 be b3 71 95 be
       -0.14425026 -0.21618858 -0.29182196 -0.29188308
0002d0 b5 e3 d0 3d 27 04 13 bd bc f9 f2 bd 23 8b 8a be
       0.10199682 -0.03589263 -0.11864039 -0.27059278
0002e0 ed fc 92 be 51 0d 30 3e c8 6b 7d 3d 4d 46 01 3d
       -0.28708592 0.1719258 0.061870366 0.031561185
0002f0 f8 ac 0d be 10 b6 69 be 51 b4 78 3e 40 3e 2c 3e
       -0.13835514 -0.22823358 0.24287535 0.16820621
000300 e4 08 a6 3d 7a d3 2a bc c1 6d fd bd d7 bc 96 3e
       0.081071645 -0.0104263965 -0.123744495 0.29440948
000310 a6 69 70 3e 35 76 32 3e 1c 84 d0 3d e3 77 b5 3c
       0.23477802 0.17427905 0.10181448 0.022151893
000320 2a a2 8c bc 76 d6 cf 3c 41 0e ca 3a 6f b3 b1 3c
       -0.01716717 0.025370818 0.0015415625 0.021692006
000330 48 9a 1b 3c 51 37 3f bd 67 9a bc 3c 0d 9f 2c bd
       0.009497233 -0.046683613 0.023022844 -0.04214387
000340 2c 0c 8d bc 92 3a 3a bd 84 2f 19 3b 23 44 7d bc
       -0.017217718 -0.045466013 0.0023374269 -0.01545814
000350 83 13 d9 bc 91 bb 90 bb 66 73 d7 bc af ef a4 3c
       -0.026498562 -0.004416891 -0.026300143 0.020133821
000360 2a c4 d7 bc 64 94 b3 bb fd 5e 97 3c e0 31 8d bb
       -0.026338656 -0.005480336 0.018477911 -0.004308924
000370 75 9e e4 3c 43 2b 83 3c 59 57 a0 bc 73 5e 5c bb
       0.02790759 0.01601184 -0.0195729 -0.0033625632
000380 3f 17 0b bd 7a c0 a2 bc 50 35 ea 3c fb e9 45 3d
       -0.033957716 -0.01986717 0.028589875 0.048318844
000390 27 f3 c9 bb f7 11 8a bc fd aa dc 3c 32 62 26 3d
       -0.006163019 -0.01685427 0.026937002 0.04062099
0003a0 80 b9 cb 3b 2e b9 e6 bc 6a 02 3a 3d 63 a9 07 bd
       0.0062171817 -0.028164472 0.04541246 -0.033120524
0003b0 4a 63 38 bd 47 ba b6 3c 15 72 21 bd ed 36 f3 3c
       -0.045016564 0.02230562 -0.039415438 0.029689277
0003c0 cd 2c 6e bc 03 d2 d5 bc e5 a2 2e bd 21 0a d0 bb
       -0.0145370485 -0.026101118 -0.042635817 -0.0063488637
0003d0 0d 06 05 bd 5b f0 90 3c 23 3d 9d bc fb fa e8 3b
       -0.032476474 0.017692735 -0.019194191 0.0071099973
0003e0 b3 77 8c 3c a7 02 17 3c c0 f0 c4 3b cd c7 86 bc
       0.01714692 0.009216941 0.006010145 -0.016452694
0003f0 c7 b5 f1 3c a7 57 2d 3c 87 83 47 3d 65 5c 17 3d
       0.029505624 0.01057998 0.04870942 0.03695335

conv2.bias f4 [32]
000000 83 d5 21 3e 02 3c 1f 3f 0c 3c 26 bd 9f 24 a5 bd
       0.15804105 0.6220094 -0.04058461 -0.080636255
000010 bb f6 59 be 56 a8 34 3f 0e 78 5b 3c cb 6b fd be
       -0.21285526 0.7056936 0.0133953225 -0.49496302
000020 a0 f4 c4 3d cc c4 3c bd a1 63 09 bf 29 e1 e6 3c
       0.09616971 -0.046086118 -0.53667647 0.028183537
000030 3d 17 ca 3c 92 e6 35 3e f3 6b a5 3e 2e c8 2e 3d
       0.024669284 0.17763737 0.3230892 0.042671375
000040 6a 12 57 3f 75 82 8d bd 13 07 d9 bd bc 08 af be
       0.8401247 -0.06909648 -0.105970524 -0.3418635
000050 0d 7d e5 3c dd 53 66 3f da 38 93 3e 80 08 7e 3e
       0.02801373 0.89971715 0.28754312 0.2480793
000060 53 9c ce bd 3f 7a de bd 90 d3 5c 3c 38 87 45 be
       -0.1008841 -0.1086316 0.013478175 -0.19289863
000070 3c 8d cd 3d cc e6 9a be d6 51 30 3f e0 f8 5b bd
       0.10036704 -0.3025421 0.6887487 -0.053704143

fc1.weight f4 [10, 5408]
000000 a6 a4 b4 3c c2 73 31 3d 3e d2 85 3c 04 92 12 3d
       0.022051167 0.043323286 0.016335603 0.035783783
000010 97 b1 31 3c 7a 02 0c 3d ad f8 c6 3c b0 dd 91 3d
       0.010845563 0.03418205 0.0242885 0.07122362
000020 c5 f1 b9 3d 6b a2 bc bb 01 55 01 3d 02 e9 f5 3c
       0.09079317 -0.0057566664 0.031575207 0.030018333
000030 c8 e4 4b 3d f4 47 ff 3c 10 2c 06 3c 6d e5 bc 3c
       0.04977873 0.03116224 0.008189216 0.023058617
000040 f8 74 05 3c e9 e7 14 bc 14 45 1b bd 35 c1 2f 3d
       0.008145563 -0.009088495 -0.037907675 0.042908866
000050 3a dd 54 3d 0d 01 84 3d 2f c0 15 3a 61 0b 1a bc
       0.05196879 0.06445513 0.00057125365 -0.009402127
000060 9f d9 05 bd cc d6 19 3c 37 2b 21 3d b2 b7 57 3d
       -0.032678243 0.0093895905 0.039347854 0.05266542
000070 b2 74 47 3d 3c 05 36 3d ba 27 9c 3c 94 06 d4 3b
       0.048695274 0.044438586 0.019061912 0.0064705107
000080 fa 71 3a 3d 28 12 0f 3d 4a 61 61 bb a3 a1 79 3c
       0.045518853 0.034929425 -0.0034390264 0.015236291
000090 7d 04 a8 3c 23 c3 ae bc 27 5c aa bc cd a1 16 3d
       0.020509953 -0.021333283 -0.020795895 0.0367754
0000a0 97 d5 74 3d 3e 3f 85 3d b1 45 d7 3c 8b 52 9c 3c
       0.059774008 0.06506203 0.026278349 0.019082328
0000b0 ba 67 47 3d 7e 58 99 3d 86 d5 8d 3d 1e 41 a2 bb
       0.048682906 0.07487582 0.06925492 -0.00495161
0000c0 05 1c 85 3c aa 23 85 3d 92 d6 b0 3c 73 52 62 3d
       0.016248712 0.06500943 0.02158669 0.05525441
0000d0 da 93 d7 3c 08 a2 29 3d a5 a2 44 3d 23 d8 1e 3d
       0.026315618 0.04141429 0.048006672 0.038780343
0000e0 21 ed c9 bc 45 8d 11 3d f5 17 4e 3d 94 20 4d 3d
       -0.024649205 0.035535116 0.050315816 0.050079897
0000f0 24 01 0e 3d a4 4f 32 3c ed fe 5d 3d e4 86 dc bb
       0.034669057 0.010883246 0.054198194 -0.0067299474
000100 0d 2d 18 3d 61 17 92 3c 95 82 18 3d a0 d0 90 3c
       0.03715234 0.017833414 0.037233908 0.017677605
000110 ab d0 6e 3d f9 8b 7b ba f2 b0 81 3c f5 69 ab 3c
       0.05830447 -0.00095957477 0.015831444 0.020924548
000120 a5 86 1f 3b 9e a0 6e bc 8a c9 05 bd ac 10 d4 bc
       0.002434173 -0.014564661 -0.032662906 -0.025886856
000130 15 64 64 bd 87 02 a9 bc 2e 4d b6 3c 7f 66 a7 3c
       -0.05575951 -0.020631088 0.022253599 0.020434616
000140 e6 d5 23 3d e3 a3 cd 3c a7 97 3e 3d 29 0a b5 3c
       0.03999891 0.025102561 0.046531346 0.022099571
000150 95 ed fd 3c 13 40 24 3d 0f e4 d4 3b ef 4d 66 3c
       0.030997077 0.04010017 0.0064969133 0.014056667
000160 ef 38 8d bc e0 5d 11 bc f4 96 0c bd bf 78 53 3c
       -0.017239062 -0.008872479 -0.034323648 0.012907206
000170 76 de d1 3c a2 ee 01 3d b6 5c 8e 3c fe ec 40 3d
       0.025618773 0.03172172 0.017378192 0.047101013
000180 ec 4f 69 bc bc 1f 11 3c fe b1 56 3d 69 27 82 bc
       -0.014240246 0.008857664 0.05241584 -0.015887933
000190 1f 1b 0b 3d fb a4 b9 bc bf c7 b2 3c cc 0c 44 bc
       0.03396141 -0.022661677 0.021823762 -0.011965942
0001a0 d6 55 85 3c d7 d4 8b 3d c5 23 1f 3d 0d 6f 13 bc
       0.016276281 0.06827705 0.03885247 -0.008998645
0001b0 8d ce 18 3c 38 92 96 3a 56 f7 82 bb 74 a7 7b 3d
       0.009326589 0.0011487668 -0.00399677 0.061438993
0001c0 a1 b7 3a 3d bc fe d2 3c b9 bf 9a bc 87 37 b5 3d
       0.04558528 0.025756232 -0.018890249 0.088484816
0001d0 d7 0b 35 3d 0c 5b 92 3c 44 ec ab 3c 24 33 a8 3d
       0.044200744 0.01786568 0.020986684 0.08212879
0001e0 25 0c 05 3d 6a d2 56 3d 75 fe 31 3d 5b b7 8c 3c
       0.032482285 0.05244676 0.04345556 0.017177274
0001f0 bf 4a 77 3d 74 3a 4a 3d 17 39 22 3d 7a 92 06 3c
       0.060374018 0.04937215 0.039605226 0.008213634
000200 9a bf 29 3d 72 16 86 3d f5 4e 89 3d f4 ac d6 bb
       0.04144249 0.0654725 0.06704513 -0.0065513793
000210 b7 a5 ea 39 3f a8 82 3c 2e 2c c3 3c fe 5a 7c 3d
       0.00044755425 0.015949367 0.023824777 0.061610214
000220 30 72 8c 3d 3d d0 c0 3c 43 1d 55 3d cd 78 db 3c
       0.06857717 0.023536796 0.05202986 0.026791
000230 0a 43 43 3c a6 76 43 3d b1 5a 14 bc dd a5 16 3d
       0.011917839 0.047720574 -0.009054826 0.036779273
000240 89 4a 28 3b 86 e0 30 3d 25 f4 a6 3c 50 b9 0a 3d
       0.0025679192 0.043182872 0.020380089 0.033868134
000250 4d 27 3c 3d 52 24 b0 3d 7f 5f 06 3c 7b 34 b1 3c
       0.045935918 0.086006775 0.008201479 0.02163147
000260 79 14 aa 3c bd b3 d4 bc c5 22 14 3d 8d 92 e6 3c
       0.020761715 -0.025964612 0.03616597 0.028146053
000270 a5 1a a7 3d 14 82 85 3d 6c ce 77 3d 63 23 8b 3d
       0.08159379 0.06518951 0.060499594 0.06793859
000280 c5 3e 41 bb bb 91 29 3d e2 52 43 3d 4e c7 83 3b
       -0.0029486876 0.041398745 0.047686465 0.0040215617
000290 34 67 5d 3c b0 a2 70 3c c0 56 67 bd c2 eb 3f 3c
       0.013513375 0.014687225 -0.056479216 0.011713924
0002a0 98 83 98 3d 2b 44 87 3c 0f f3 b0 3c 77 39 5b bb
       0.074469745 0.016511997 0.021600274 -0.0033451
0002b0 cc d0 e2 ba e1 0a 29 3c 42 06 68 3c fc 48 24 3d
       -0.0017304658 0.010317535 0.014161648 0.040108666
0002c0 15 5b 9a 3c 96 3a 04 3d 7d 16 6d 3d 06 96 c3 3c
       0.01884226 0.032282434 0.057882775 0.023875248
0002d0 ac 6b 8d ba 73 0f 20 3d 2a 3f 99 3c 75 66 43 3c
       -0.0010789535 0.039077234 0.018706877 0.011926283
0002e0 a7 5c 65 3c 2f 51 c2 3b 23 b7 41 3c 92 ed c2 3c
       0.013999141 0.005930088 0.011823448 0.023794923
0002f0 54 1a 3c 3c 1d 39 96 3c 44 4f 9d 3c 61 d5 07 3d
       0.0114808865 0.01833778 0.019202836 0.03316248
000300 97 5e 91 3c ef 24 91 3c e9 8c e2 3c 1b 27 35 3c
       0.0177453 0.017717807 0.027655082 0.011056687
000310 26 0a 85 3c d5 82 cb 3c 8c 93 14 3d 5d 46 7e 3c
       0.01624019 0.024842659 0.036273524 0.015519706
000320 c7 7d 9d bb 6d a1 87 3b 66 60 07 3d ca 52 86 3c
       -0.0048062536 0.0041391165 0.033050917 0.016396899
000330 9c b9 e0 3c 1b eb dd 3b f2 32 9c 3a bb de 05 3d
       0.027432255 0.0067724115 0.0011917038 0.032683115
000340 cb ed 27 3b 24 99 da 3c 79 55 e0 3c 88 56 2f 3d
       0.0025623913 0.026684351 0.027384507 0.042807132
000350 25 9d cf 3c ea e0 39 ba b4 66 22 bc 84 43 0a bc
       0.025343487 -0.0007090705 -0.009912182 -0.008438949
000360 06 e7 28 bb 39 79 64 3c be b6 80 bc 0b cd b3 3b
       -0.0025772466 0.013944917 -0.015712138 0.0054870895
000370 31 99 d8 3c f8 87 09 bc 09 7e cb 3c f2 c1 0f 3c
       0.026440235 -0.008394234 0.024840372 0.0087742675
000380 2c 03 68 3b f2 47 99 3c ef e4 b0 3b e4 34 0b 3c
       0.0035402281 0.018711064 0.0053983848 0.008496497
000390 a7 f5 57 bc dc d0 7c 3c ef 60 f2 bb e1 17 90 bb
       -0.013181127 0.015430655 -0.0073968093 -0.004397378
0003a0 14 fa ee 3c f4 7d 4d 3d 94 98 6c bc b5 95 d4 ba
       0.02917198 0.050168946 -0.014440674 -0.0016218933
0003b0 14 21 a1 3a 1c 89 17 3b 11 66 81 bb 34 cd b4 3c
       0.0012293183 0.0023122495 -0.003948935 0.022070505
0003c0 c4 eb 09 38 b7 8c b4 39 80 b5 41 bc db 44 46 bc
       3.288292e-05 0.00034437116 -0.011823058 -0.012101377
0003d0 89 72 b6 3c 5e 9f e4 3c d4 d3 d7 3c bf 83 e7 3b
       0.022271411 0.027908023 0.026346125 0.007065266
0003e0 fa 07 b1 bb 11 20 96 bc 72 b3 83 bb 48 31 d4 bb
       -0.005402562 -0.018325837 -0.0040191943 -0.0064756013
0003f0 b1 2e 80 bc c3 95 bd 3b 17 a6 2e 3c 08 6a 35 3b
       -0.015647264 0.0057856753 0.010659716 0.0027681608

fc1.bias f4 [10]
000000 a9 87 f1 3b bb 0a 9e 3d 10 20 03 3f 83 c2 a9 bd
       0.0073709083 0.077168904 0.512208 -0.08289053
000010 9a 15 f1 be a1 23 18 bd cf 34 0b be c3 0c 9d 3c
       -0.47086793 -0.037143353 -0.13594364 0.019171124
000020 81 77 ce bd b1 9e 3a 3e
       -0.10081387 0.18224598
