assignment_2_cnn/Model/Simple-CNN/model_with_augmented_data.pth (torch, 275388 bytes, 6 tensors)

conv1.weight f4 [16, 3, 5, 5]
0.0694589 -0.076009125 0.10172894 -0.09096541 0.093728125 -0.06758977 -0.0077089807 -0.014800927
-0.004410669 -0.012772983 0.017792482 -0.006893715 -0.059003633 0.032066274 -0.08113717 -0.07851893
-0.038748957 -0.013840095 -0.04409451 0.08313782 -0.011846592 -0.10578446 -0.06955202 -0.023629768
-0.0032043094 0.019291516 0.021166861 -0.071624964 -0.048943724 0.112940684 -0.08020833 0.04905997
-0.07004209 -0.024280196 -0.09374876 -0.031734385 -0.061374918 0.018223124 -0.039025277 -0.015047639
0.040831838 -0.004280933 0.052003607 -0.034534372 0.006767888 0.015537333 -0.0027314506 -0.04853055
0.049825087 0.05383233 0.08308844 -0.07005737 0.0936743 -0.041332792 0.074728884 0.09562914
-0.016480586 0.04051513 0.06287563 0.0718561 -0.069830604 -0.111737385 -0.040202003 -0.07066614
-0.007483605 0.0019092198 -0.014261073 -0.036978588 0.0373039 -0.08665639 -0.031379092 0.0963596
0.053849097 -0.059643447 0.08751405 -0.06963222 -0.07675322 -0.029145528 -0.07385334 0.06346204
-0.0022330163 0.03469851 -0.0053735385 0.054039273 -0.106988765 0.09891862 -0.06508538 -0.05505927
0.06833421 0.03559924 -0.08631558 -0.090760894 -0.079369515 -0.044775926 0.03537469 0.08830219
0.08108184 -0.06513982 0.053332876 0.11432723 -0.06724257 0.028479928 -0.034672588 -0.040722225
-0.01312804 0.074163824 -0.102344476 0.0056949947 -0.04207835 -0.052850533 -0.09702663 -0.009984765
-0.018572675 0.079090424 -0.0030125892 -0.034639467 -0.00050278415 0.061300904 -0.11025747 -0.09471378
-0.0053186156 -0.071614064 0.03785245 0.01084251 0.025221756 0.09234301 -0.07215758 -0.08968885
-0.09401617 0.08166856 0.06024823 -0.069363125 -0.020795243 0.054159816 -0.11122417 -0.03867829
-0.101616964 -0.078187205 -0.11105839 -0.061329905 0.051827513 -0.10662328 0.059765916 0.08629949
-0.02608805 -0.020825472 -0.008939209 -0.00082063413 0.10827562 0.093216605 -0.10972159 -0.077545404
0.034755975 -0.023502922 -0.08049953 -0.003992802 -0.042805906 -0.08966119 0.05880302 -0.062916875
-0.07673289 -0.04693856 0.11490786 0.07832426 0.027726922 -0.0028051767 -0.10337304 0.03752338
0.06734118 -0.04779157 0.025996841 0.063128866 -0.018487016 0.022013249 0.012638085 0.031746704
-0.10885606 -0.028933559 0.019248404 0.012691976 -0.112656794 0.016095273 0.07620054 -0.111548275
-0.10910822 -0.04879195 0.048370063 0.08862704 -0.09519453 -0.06917047 -0.058194146 0.08829774
-0.041905116 0.101003096 -0.07154928 -0.052418917 0.0101544885 0.003939242 0.02521285 -0.08573059
0.014089422 0.06720692 0.027156057 -0.02180011 -0.022530857 -0.0880293 -0.018593254 -0.021474097
0.07229043 0.033802867 -0.018464068 0.103917345 -0.004111416 -0.027868634 -0.0019322626 0.11115655
-0.017064638 -0.013213577 0.012854844 0.055160884 -0.051075924 -0.003270506 0.07650406 0.010347599
-0.022968369 -0.050957873 0.048720714 -0.02493525 0.08128171 0.07245108 0.0272176 -0.10645943
0.0045983978 -0.114023134 0.106586166 -0.11135064 0.032913364 -0.024336083 0.07523007 0.012210128
-0.027218288 0.09297628 -0.011217995 0.065692246 -0.04482577 0.043390397 -0.041085254 -0.08038384
-0.098018326 0.07386618 0.001052466 0.100525625 -0.04009217 0.029207455 -0.084071495 0.050734095
00000000: 7840 8e3d acaa 9bbd 4357 d03d 134c babd
00000010: 88f4 bf3d 816c 8abd 9e9b fcbb 967f 72bc
00000020: 6087 90bb c645 51bc 8ac1 913c ace4 e1bb
00000030: cbad 71bd ed57 033d 3f2b a6bd 88ce a0bd
00000040: 3ab7 1ebd 91c1 62bc 729c 34bd 2944 aa3d
00000050: 3518 42bc 86a5 d8bd 4a71 8ebd 3793 c1bc
00000060: 64ff 51bb 3e09 9e3c 2066 ad3c 1cb0 92bd
00000070: 3779 48bd 724d e73d 4444 a4bd 1bf3 483d
00000080: 3a72 8fbd 43e7 c6bc 5aff bfbd eafb 01bd
00000090: 4464 7bbd a948 953c f8d8 1fbd 5f8a 76bc
000000a0: 493f 273d 1247 8cbb bc01 553d ea73 0dbd
000000b0: 29c5 dd3b 4c90 7e3c 2302 33bb f8c7 46bd
000000c0: 6415 4c3d 4a7f 5c3d 462a aa3d 3d7a 8fbd
000000d0: 50d8 bf3d 934c 29bd 750b 993d 36d9 c33d
000000e0: 4b02 87bc 31f3 253d f0c4 803d 4a29 933d
000000f0: 5903 8fbd 92d6 e4bd dbaa 24bd 69b9 90bd
00000100: 0739 f5bb c93e fa3a 47a7 69bc dc76 17bd
00000110: f9cb 183d e878 b1bd 5d87 00bd 2f58 c53d
00000120: df90 5c3d b04c 74bd 913a b33d 569b 8ebd
00000130: cb30 9dbd 9ac2 eebc 6c40 97bd 63f8 813d
00000140: cc57 12bb 0620 0e3d 8214 b0bb 4958 5d3d
00000150: ed1c dbbd d895 ca3d 7c4b 85bd d485 61bd
00000160: cef2 8b3d 82d0 113d 39c6 b0bd d9e0 b9bd
00000170: 7c8c a2bd f666 37bd 0de5 103d c7d7 b43d
00000180: 3c0e a63d 0768 85bd 9373 5a3d 6524 ea3d
00000190: 79b6 89bd bd4e e93c d804 0ebd 59cc 26bd
000001a0: fe16 57bc 34e3 973d fb99 d1bd 149d ba3b
000001b0: 595a 2cbd cd79 58bd e6b5 c6bd 2497 23bc
000001c0: b925 98bc 29fa a13d dc6e 45bb 1de2 0dbd
000001d0: 46cd 03ba a816 7b3d abce e1bd 4cf9 c1bd
000001e0: c847 aebb 65aa 92bd 2c0b 1b3d c8a4 313c
000001f0: db9d ce3c 551e bd3d 5ac7 93bd caae b7bd
00000200: 8d8b c0bd d941 a73d d9c6 763d 410e 8ebd
00000210: c95a aabc afd6 5d3d 7fc9 e3bd 206d 1ebd
00000220: 8e1c d0bd 9d20 a0bd 9572 e3bd 1135 7bbd
00000230: 1649 543d 4e5d dabd 1bcd 743d c9bd b03d
00000240: 9bb6 d5bc 2e9a aabc c375 12bc d31f 57ba
00000250: 9cbf dd3d 59e8 be3d b7b5 e0bd 20d0 9ebd
00000260: 485c 0e3d 3389 c0bc f0dc a4bd 0dd6 82bb
00000270: 3f55 2fbd 49a0 b7bd 6fdb 703d 90da 80bd
00000280: 2226 9dbd a642 40bd d054 eb3d 7868 a03d
00000290: 9223 e33c 0ed7 37bb 3fb5 d3bd 1eb2 193d
000002a0: 2cea 893d 18c1 43bd 54f7 d43c b549 813d
000002b0: 1572 97bc 2155 b43c f80f 4f3c d508 023d
000002c0: edef debd 1206 edbc d4ae 9d3c 01f2 4f3c
000002d0: 9bb8 e6bd 3cda 833c 070f 9c3d 6c73 e4bd
000002e0: 2174 dfbd 11da 47bd b01f 463d 1882 b53d
000002f0: 5af5 c2bd 3fa9 8dbd fc5c 6ebd 72d5 b43d
00000300: b3a4 2bbd b6da ce3d 6e88 92bd 38b5 56bd
00000310: 035f 263c c214 813b 2e8b ce3c 8593 afbd
00000320: 52d7 663c c8a3 893d 6176 de3c 2596 b2bc
00000330: a292 b8bc b548 b4bd e150 98bc 72ea afbc
00000340: 010d 943d e074 0a3d f541 97bc 9ed2 d43d
00000350: 0fb9 86bb c34c e4bc f943 fdba 0ca6 e33d
00000360: 24cb 8bbc c27d 58bc 209d 523c 61f0 613d
00000370: fd34 51bd fc55 56bb 29ae 9c3d fa88 293c
00000380: 2928 bcbc 34b9 50bd 5f8f 473d 0245 ccbc
00000390: 0677 a63d 3b61 943d 72f7 de3c 6707 dabd
000003a0: 28ae 963b f684 e9bd d949 da3d ce0b e4bd
000003b0: 2ad0 063d 775c c7bc 3912 9a3d fd0c 483c
000003c0: e3f8 debc 596a be3d aecb 37bc a889 863d
000003d0: 3a9b 37bd 21ba 313d 0349 28bd 48a0 a4bd
000003e0: d5bd c8bd 2747 973d e6f2 893a 61e0 cd3d
000003f0: b037 24bd 7944 ef3c ad2d acbd 8ece 4f3d

conv1.bias f4 [16]
-0.0814957 -0.07552137 0.02884871 0.06188427 -0.04145782 0.03659955 -0.077413246 0.075283565
-0.05469039 -0.076223955 -0.011103179 0.11500508 0.058166258 -0.035858724 0.050101187 0.100080594
00000000: 38e7 a6bd f3aa 9abd 2154 ec3c 5c7a 7d3d
00000010: adcf 29bd 69e9 153d d68a 9ebd 452e 9a3d
00000020: 0803 60bd 4e1b 9cbd 1cea 35bc c987 eb3d
00000030: be3f 6e3d 99e0 12bd e736 4d3d 0ef7 cc3d

conv2.weight f4 [32, 16, 5, 5]
-0.012847346 0.024950344 0.016353203 -0.043637384 0.0062632742 0.034209263 0.04363036 -0.0176125
0.02360406 -0.022828227 -0.0051098648 -0.049920857 -0.04380246 -0.0015111566 0.004727918 0.024698425
0.010629463 -0.018367965 0.013355213 0.009622509 -0.027418125 0.015142358 0.01680771 -0.041427802
-0.022555334 0.02306279 -0.049594093 -0.045274135 -0.0020513 -0.014397091 -0.04612378 0.030665869
-0.009697747 0.0075993775 -0.0014405787 -0.049069494 0.015916187 -0.02011484 0.044481326 -0.044348504
0.028893197 0.04103725 -0.005705714 0.02415352 -0.035161298 -0.044874813 0.020882457 0.03765098
0.0058896304 0.033241767 0.006603056 0.042134304 0.046325035 -0.004392302 -0.044421252 0.0025574327
0.016751414 -0.0236695 -0.011698526 -0.01753065 -0.024136204 0.0060195387 -0.0031572462 -0.0074427067
0.010967678 -0.009172702 -0.037235368 0.00592854 0.0020607652 0.049527686 0.005875349 -0.049474638
-0.035680868 -0.0027444304 -0.024221033 -0.0030521452 0.0043633105 0.0024475993 -0.038421284 0.046890795
0.02954734 -0.0071102204 -0.03258437 -0.020558452 0.0024340271 0.049305625 -0.04317109 3.7938356e-05
-0.03013876 -0.027377827 -0.011723751 -0.038202073 0.013230843 -0.0367059 0.000113362075 -0.022536654
-0.038982697 0.014395947 -0.032197606 0.040738028 -0.048942525 0.04831438 -0.006857288 -0.025164396
0.04798717 0.0077218595 8.7618827e-07 0.017330486 0.00030585527 -0.04719165 0.013042152 0.04893225
-0.00929789 0.025318414 0.028224057 0.009233683 0.0470591 -0.043163158 0.010229385 -0.030177241
-0.034568127 -0.039789855 -0.043856125 0.04208034 0.013841808 0.038996436 -0.018311871 -0.0050872625
0.038656723 0.024820125 0.038846906 0.008882654 -0.01206556 0.016440822 0.019918567 0.024797989
-0.007118821 0.0384335 -0.024092048 0.038744222 -0.04676638 0.009579909 0.032116514 0.041314732
0.04554094 0.026448762 0.026860982 0.02713707 -0.02335087 0.042333033 0.006913966 -0.031625547
0.037915416 -0.03013751 0.034002688 0.035245568 0.03676746 -0.029461248 0.017605906 -0.030039942
0.001441896 -0.021066291 0.034098662 -0.04205822 -0.01884433 -0.014947546 0.017781151 -0.04308918
0.018880202 -0.021898342 -0.043905534 -0.042260762 -0.0009215057 -0.01861161 -0.0049068867 -0.022479534
0.047937065 -0.03405079 0.041271456 0.016805518 -0.035994064 0.04690173 0.039323855 -0.029962778
0.015320343 -0.030860234 -0.010818916 -0.0066800416 0.0009909094 0.025629897 -0.0026072084 0.032972913
0.04483622 0.016598409 -0.007756001 -0.031489518 0.0014745534 0.02360834 -0.004641664 0.0013524175
-0.049853493 -0.025696779 -0.014916658 -0.018984009 0.039905805 -0.040531546 0.024897952 -0.003133917
0.037785478 -0.013072324 0.007819289 0.0021840811 0.03330291 -0.025383139 -0.011018801 0.035431154
0.034231354 -0.011937725 -0.04470044 -0.033200152 -0.010172206 -0.04679049 -0.024457395 -0.018756038
0.019708473 -0.00588668 -0.045737293 0.019608242 -0.016367322 -0.033703804 0.004235983 0.019009328
0.041227233 -0.02867651 0.008703244 -0.0061030625 -0.015579856 0.046384662 -0.015868379 0.0389286
0.032211162 0.0051477733 0.010770154 0.02478971 -0.04334555 -0.0093856035 -0.023936624 0.032875217
0.014971346 0.01886856 -0.029208733 0.034499075 0.02040487 -0.043349642 -0.033882923 -0.039576482
00000000: ad7d 52bc aa64 cc3c 27f7 853c 1dbd 32bd
00000010: 273c cd3b 031f 0c3d c0b5 323d 1748 90bc
00000020: 4d5d c13c 4302 bbbc a770 a7bb d079 4cbd
00000030: 356a 33bd 0012 c6ba a7ec 9a3b 5a54 ca3c
00000040: 3327 2e3c 6a78 96bc d3cf 5a3c baa7 1d3c
00000050: fa9b e0bc a717 783c 53b0 893c 33b0 29bd
00000060: f7c5 b8bc 2dee bc3c 2d23 4bbd 5f71 39bd
00000070: 1a6f 06bb c7e1 6bbc 4aec 3cbd fd36 fb3c
00000080: 4de3 1ebc 3304 f93b cdd1 bcba 18fd 48bd
00000090: aa62 823c e0c7 a4bc 0d32 363d c7a6 35bd
000000a0: 6db1 ec3c ad16 283d 00f7 babb 9add c53c
000000b0: 4b05 10bd a7ce 37bd b011 ab3c ea37 1a3d
000000c0: cdfd c03b 8528 083d 735e d83b 0595 2c3d
000000d0: 52bf 3d3d 4ded 8fbb 0ff3 35bd 9a9a 273b
000000e0: 433a 893c 8ae6 c1bc 2dab 3fbc 709c 8fbc
000000f0: 4ab9 c5bc 8d3f c53b cde9 4ebb f3e1 f3bb
00000100: c7b1 333c 1a49 16bc 1d84 18bd 3344 c23b
00000110: e70d 073b 8bdd 4a3d 0086 c03b eba5 4abd
00000120: 1a26 12bd e7db 33bb 306b c6bc 8006 48bb
00000130: 1afa 8e3b e767 203b a35f 1dbd 9010 403d
00000140: 430d f23c dafc e8bb 3077 05bd 336a a8bc
00000150: 3384 1f3b b2f4 493d 2bd4 30bd 0020 1f38
00000160: 90e5 f6bc 7747 e0bc fa14 40bc c779 1cbd
00000170: 2dc6 583c ed58 16bd cdbc ed38 ca9e b8bc
00000180: 52ac 1fbd fadc 6b3c a3e1 03bd ebdc 263d
00000190: f577 48bd 4de5 453d 1ab3 e0bb 9025 cebc
000001a0: 328e 443d a707 fd3b 3333 6b35 aaf8 8d3c
000001b0: 335b a039 084c 41bd c0ae 553c 2f6d 483d
000001c0: 2d56 18bc 9068 cf3c 2336 e73c e048 173c
000001d0: 0bc1 403d dacb 30bd 2799 273c 4336 f7bc
000001e0: 4f97 0dbd b0fa 22bd 7ba2 33bd 6f5c 2c3d
000001f0: c0c8 623c baba 1f3d c702 96bc 0db3 a6bb
00000200: 8356 1e3d 9353 cb3c ef1d 1f3d 8d88 113c
00000210: a0ae 45bc e7ae 863c 432c a33c 2725 cb3c
00000220: 0045 e9bb 726c 1d3d b05c c5bc 43b2 1e3d
00000230: 1b8e 3fbd 0df5 1c3c 9b8c 033d a339 293d
00000240: 2389 3a3d 13ab d83c 900b dc3c 904e de3c
00000250: 534a bfbc 6765 2d3d 8d8e e23b ca89 01bd
00000260: 324d 1b3d f0e2 f6bc 6746 0b3d a85d 103d
00000270: 7a99 163d b758 f1bc 433a 903c 5316 f6bc
00000280: 00fe bc3a 3793 acbc 0aab 0b3d 3d45 2cbd
00000290: 6d5f 9abc 8de6 74bc c7a9 913c 487e 30bd
000002a0: a7aa 9a3c 2764 b3bc 4ad6 33bd 9f19 2dbd
000002b0: 3391 71ba 6077 98bc f3c9 a0bb 0027 b8bc
000002c0: a859 443d d778 0bbd 420c 293d baab 893c
000002d0: 836e 13bd 071c 403d 0d12 213d 8074 f5bc
000002e0: 2d02 7b3c 9ace fcbc d341 31bc 40e4 dabb
000002f0: 67e1 813a caf5 d13c b3dd 2abb 9b0e 073d
00000300: 2fa6 373d 63f9 873c 0d26 febb 27fb 00bd
00000310: cd45 c13a 4766 c13c 1a19 98bb 9a43 b13a
00000320: 2d33 4cbd 0d82 d2bc 0065 74bc 5a84 9bbc
00000330: 4574 233d 6804 26bd caf6 cb3c 6762 4dbb
00000340: f2c4 1a3d 4d2d 56bc 7a1c 003c cd22 0f3b
00000350: a268 083d 4df0 cfbc 3388 34bc 4220 113d
00000360: 2d36 0c3d 7396 43bc cf17 37bd e2fc 07bd
00000370: 53a9 26bc 63a7 3fbd e05a c8bc 43a6 99bc
00000380: aa73 a13c 0de5 c0bb 0757 3bbd 77a1 a03c
00000390: c314 86bc 000d 0abd 00ce 8a3b 73b9 9b3c
000003a0: e3dd 283d 00eb eabc 0d98 0e3c 33fc c7bb
000003b0: a742 7fbc d8fd 3d3d 67fe 81bc 9873 1f3d
000003c0: daef 033d a7ae a83b 4d75 303c ca13 cb3c
000003d0: 1a8b 31bd 13c6 19bc bd16 c4bc 2aa8 063d
000003e0: 604a 753c 3d92 9a3c 2747 efbc e74e 0d3d
000003f0: 1d28 a73c 658f 31bd d2c8 0abd f31a 22bd

conv2.bias f4 [32]
0.020379854 -0.012666118 -0.026131077 0.009605712 -0.047747392 -0.012674654 -0.015039379 -0.009670287
0.044135917 -0.03780367 0.023898637 0.02577796 0.03086157 -0.015448779 -0.009858012 0.04559356
0.009813303 0.011254514 0.04316705 0.03975283 -0.045270152 0.035951126 -0.035237905 0.03573376
0.041620918 0.0023230494 -0.04945853 0.011569763 0.008554781 0.007748836 -0.028113032 -0.010530061
00000000: a7f3 a63c 8d85 4fbc d710 d6bc 4761 1d3c
00000010: c592 43bd 5aa9 4fbc ba67 76bc 2070 1ebc
00000020: ddc7 343d 05d8 1abd 13c7 c33c 4d2c d33c
00000030: 67d1 fc3c e01c 7dbc 8083 21bc 50c0 3a3d
00000040: fac7 203c da64 383c efcf 303d ddd3 223d
00000050: 326d 39bd 7d41 133d 9f55 10bd 905d 123d
00000060: b27a 2a3d 4d3e 183b 0795 4abd 1a8f 3d3c
00000070: 5a29 0c3c f3e9 fd3b 4d4d e6bc 4786 2cbc

fc1.weight f4 [10, 5408]
-0.008155434 0.008693551 0.012534572 0.0061104177 0.0061210743 0.0029751023 0.012456756 -0.0057720873
0.008941955 -0.0073757763 0.00048216156 0.006346928 0.0031390842 -0.010511259 0.005021458 0.004652458
-0.011515923 -0.0020301293 0.005446838 0.0005740174 0.002271621 0.009526581 -0.007229198 -0.007796919
0.0067943297 0.01128419 -0.012454958 0.0123336725 -0.0062516727 0.01355513 -0.005036547 -0.0044015916
0.0041456744 -0.005180584 -0.012079507 0.0075759445 0.012941138 -0.0085399 -0.0066131568 -0.009248897
-0.005444496 -0.0025563021 0.0022142576 -0.0002585385 -0.0115695745 0.010276804 0.01163188 -0.009301569
-0.00578395 -0.008912827 0.005486709 -0.0119607 0.010646022 0.01327626 0.008682575 -0.0101677505
-0.008418463 -0.0035728386 0.0065739746 -0.011555872 -0.0032585512 -0.005890335 -0.00025284057 -0.00012162608
0.0019313842 -0.013228383 0.006091257 -0.004796726 -0.010875472 0.010858514 -0.011193809 0.008508285
0.007807824 0.004105019 -0.0074096415 -0.0074648 0.010539412 -0.0072441953 0.009682844 0.008014118
0.007555288 0.0061662835 0.006300064 0.0036649343 0.0055657104 -0.009883178 -0.0040766476 0.0041237045
0.011541342 0.007882989 -0.0062525906 -0.0026370895 0.0042336704 -0.0051255757 1.2494919e-05 -0.0031289998
-0.0045567146 0.010287219 -0.008281282 -0.005269256 0.005823244 -0.007084493 -0.005975282 -0.0055104652
0.004477117 0.0098112775 0.012347279 -0.0065681553 -0.0088143535 0.0019068677 -0.01138683 -0.007104986
0.007944379 0.0039693075 0.004120328 0.007106518 0.008983682 0.00454693 0.008636322 -0.0007282035
-0.009809176 -0.006918937 0.0054168086 -0.008006957 -0.0049217646 0.009837707 0.010512184 0.010550739
0.0045798677 0.009231364 0.012521109 0.008624626 0.0028811877 -0.0062350347 -0.0057220086 0.008730926
-0.0024471043 -0.0018228771 -0.008090838 -0.00339369 0.0012104072 0.0007990362 -0.009559701 0.011069366
0.00975698 -0.002207634 0.012721428 -0.010552055 -0.006417221 -0.00882634 0.009817214 0.005113155
0.011346019 -0.0005983361 0.0049193087 0.009648073 0.012116068 0.010846173 0.0089752115 0.0076729134
-0.0032426391 0.012276946 0.010504016 0.0037399088 0.008067296 0.01053091 8.870291e-06 0.01177745
0.0050753267 -0.0021698186 -0.008176171 0.00075558113 0.0005513278 -0.01174427 0.0008533975 -0.004480604
-0.004058458 -0.009955718 0.0067277914 -0.001060298 0.007266165 0.001059152 -0.004107392 -0.010894526
-0.009689656 -0.012649673 -0.012799314 -0.012423993 0.012082409 -0.0012204171 -0.0107487915 0.0025804539
0.0023106588 -0.0015508565 -0.0058830534 -0.0056053316 -0.0046979375 -0.013538757 0.0064041247 -0.0026778632
-0.0040505296 0.0017680424 -0.007973261 -0.0041627907 -0.011403355 -0.002103105 0.001557044 0.0045734015
-0.0065990733 0.0066652824 -0.0014239394 -0.00037270781 0.0031828538 0.004173305 -0.005998607 0.006147888
-0.012951991 -0.011152104 -0.005207932 0.009214945 -0.0035018178 0.009243493 -0.011506922 -0.012658711
-0.008698112 0.0061317924 -0.0022945928 0.0033374988 0.0044836565 -0.01256665 -0.010879097 -0.00907882
0.010303535 -0.0073261387 -0.0063205296 0.006958093 -0.008724899 -0.008820848 0.0054447292 -0.006038755
0.006504222 0.0036645276 -0.0076149562 0.00026867643 -0.004069202 -0.008521668 0.00753566 0.011133186
-0.0039396007 -0.00023325525 0.0013799688 -0.009320181 -0.00044651667 -0.009040081 -0.010405854 0.0015396973
00000000: 5f9e 05bc 656f 0e3c ce5d 4d3c e639 c83b
00000010: 4b93 c83b eff9 423b 6c17 4c3c c723 bdbb
00000020: 4781 123c 7fb0 f1bb a1ca fc39 e4f9 cf3b
00000030: 18b9 4d3b 6a37 2cbc 0b8b a43b a573 983b
00000040: 48ad 3cbc eb0b 05bb 647b b23b a879 163a
00000050: 7adf 143b 6015 1c3c e8e2 ecbb 4c7d ffbb
00000060: f8a2 de3b 53e1 383c e10f 4cbc 2c13 4a3c
00000070: d5da ccbb 5616 5e3c 9e09 a5bb 3a3b 90bb
00000080: 70d8 873b e3c1 a9bb 20e9 45bc a13f f83b
00000090: 1107 543c f0ea 0bbc 2eb3 d8bb b088 17bc
000000a0: be67 b2bb a287 27bb 141d 113b 738c 87b9
000000b0: 508e 3dbc 0a60 283c a493 3e3c 9c65 18bc
000000c0: 4a87 bdbb 1b07 12bc dac9 b33b d0f6 43bc
000000d0: a76c 2e3c ac84 593c 5c41 0e3c a396 26bc
000000e0: 98ed 09bc 4926 6abb 7f6a d73b d754 3dbc
000000f0: 6b8d 55bb b603 c1bb b08f 84b9 8111 ffb8
00000100: 8026 fd3a dcbb 58bc 2b99 c73b db2d 9dbb
00000110: 092f 32bc e9e7 313c 3d66 37bc 5566 0b3c
00000120: c6d8 ff3b 6583 863b 94cc f2bb 489b f4bb
00000130: 7fad 2c3c b760 edbb cba4 1e3c a64d 033c
00000140: 5992 f73b 890e ca3b c470 ce3b 652f 703b
00000150: 9060 b63b 0eed 21bc 6695 85bb 2420 873b
00000160: e617 3d3c a727 013c 88e2 ccbb 05d3 2cbb
00000170: 9aba 8a3b 72f4 a7bb 45a1 5137 e80f 4dbb
00000180: 7e50 95bb b98b 283c 37ae 07bc b9a9 acbb
00000190: e9d0 be3b 0925 e8bb 4ccc c3bb 2291 b4bb
000001a0: c8b4 923b 7bbf 203c 3e4c 4a3c ae39 d7bb
000001b0: 146a 10bc ddef f93a d48f 3abc f1d0 e8bb
000001c0: 2429 023c f710 823b d103 873b cbdd e83b
000001d0: 4b30 133c 6afe 943b 5c7f 0d3c e9e4 3eba
000001e0: abb6 20bc 40b8 e2bb 7c7f b13b 9d2f 03bc
000001f0: c146 a1bb 552e 213c 4c3b 2c3c 02dd 2c3c
00000200: b712 963b 263f 173c 5625 4d3c 4e4e 0d3c
00000210: 4fd2 3c3b 434f ccbb b07f bbbb 280c 0f3c
00000220: 995f 20bb 9bed eeba 6f8f 04bc ac68 5ebb
00000230: 87a6 9e3a 6976 513a 4ba0 1cbc 495c 353c
00000240: bedb 1f3c f4ad 10bb 896d 503c 87e2 2cbc
00000250: 8d47 d2bb 5a9c 10bc 61d8 203c 418c a73b
00000260: a7e4 393c a8d9 1cba 2732 a13b f412 1e3c
00000270: 7982 463c 26b4 313c c40c 133c 106d fb3b
00000280: 7582 54bb 3e25 493c 0919 2c3c 4219 753b
00000290: b12c 043c d789 2c3c 9cd1 1437 35f6 403c
000002a0: ed4e a63b 8433 0ebb 59f5 05bc 3112 463a
000002b0: fb86 103a 0a6b 40bc 89b6 5f3a 08d2 92bb
000002c0: d0fc 84bb 4f1d 23bc ce74 dc3b b2f9 8aba
000002d0: 0319 ee3b 3ed3 8a3a 4d97 86bb f47e 32bc
000002e0: 5dc1 1ebc 9340 4fbc 37b4 51bc 018e 4bbc
000002f0: 4cf5 453c 67f6 9fba b31b 30bc d51c 293b
00000300: 6c6e 173b 1c46 cbba a1c6 c0bb eeac b7bb
00000310: 28f1 99bb aad1 5dbc b1d9 d13b 177f 2fbb
00000320: 4eba 84bb a9bd e73a 48a2 02bc 0568 88bb
00000330: 23d5 3abc 3fd4 09bb ba15 cc3a 79dc 953b
00000340: 0a3d d8bb 7168 da3b 7aa3 baba ff67 c3b9
00000350: 6d97 503b 38c0 883b f68f c4bb 3974 c93b
00000360: 9634 54bc 50b7 36bc 4da7 aabb 48fa 163c
00000370: c17e 65bb 0572 173c 8787 3cbc 7b66 4fbc
00000380: 8782 0ebc 34ed c83b e160 16bb f0b9 5a3b
00000390: a3eb 923b 5ae4 4dbc 3d3e 32bc 55bf 14bc
000003a0: 28d0 283c 1b10 f0bb 721c cfbb b700 e43b
000003b0: e1f2 0ebc 5185 10bc b369 b23b c0e0 c5bb
000003c0: 5e21 d53b 9228 703b e286 f9bb 24dd 8c39
000003d0: f156 85bb 779e 0bbc b3ed f63b f767 363c
000003e0: c417 81bb fb95 74b9 12e0 b43a acb3 18bc
000003f0: 741a eab9 d91c 14bc 517d 2abc abcf c93a

fc1.bias f4 [10]
-0.0057498515 -0.00025176097 -0.003202556 -0.0011791068 -0.008399428 0.0038442076 0.0061509404 -0.006116519
-0.0043705697 -0.00073339406
00000000: 4069 bcbb c9fe 83b9 f9e1 51bb 428c 9aba
00000010: c19d 09bc 1aef 7b3b d48d c93b 156d c8bb
00000020: ff36 8fbb 3e41 40ba
