assignment_2_cnn/Model/Simple-CNN/model_with_augmented_data.pth (torch, 275388 bytes, 6 tensors)

conv1.weight f4 [16, 3, 5, 5]
000000 9d 9e ad 3d 8d 0b 12 3e 58 84 17 3e bd 06 c0 3d
       0.08477519 0.14262219 0.14796579 0.09376285
000010 5c 76 c2 3d a8 f9 ba 3c 26 fb 6a 3e fa f3 87 3e
       0.094952315 0.022824124 0.22947368 0.26553327
000020 13 92 23 3e 05 b5 22 3e eb 4e 5c 3d e0 e5 57 3e
       0.15973692 0.15889366 0.0537862 0.21083784
000030 6c 0f fa 3d 2e ac d0 3d e0 f5 1f 3e c9 8d 8d 3e
       0.12209973 0.10189091 0.15621138 0.27647236
000040 02 45 36 3e f6 af 11 3e 4a b8 4a 3e 2d f4 cd 3d
       0.17799762 0.1422728 0.19796863 0.100563385
000050 44 6b 92 3e 0b 95 86 3e 31 c4 7a 3e f4 cd 38 3e
       0.28597462 0.26285586 0.24488904 0.18047315
000060 e2 85 7e bc 7b 61 dd be 81 e6 96 be 2f 11 87 be
       -0.01553485 -0.43238434 -0.29472736 -0.26380298
000070 bc 8f cc be c3 6b e4 be f0 95 fc be 84 7d b7 be
       -0.3995341 -0.44613466 -0.49333143 -0.35837948
000080 79 75 8d be 42 e4 bd be 12 1d b9 be 9b 6a 97 be
       -0.27628687 -0.3708821 -0.3615499 -0.2957352
000090 0a bd 5d be 01 98 9f be 90 d1 9e be 9d ae 81 be
       -0.21654144 -0.31170657 -0.31019258 -0.25328532
0000a0 20 e2 9b be b1 bd 5a be 34 8f 99 be 91 52 6c be
       -0.30445957 -0.21361424 -0.29992068 -0.23078372
0000b0 7f 89 f0 be f5 92 94 be 23 8b 17 be 25 2f b4 be
       -0.469799 -0.2901837 -0.1479917 -0.35192218
0000c0 62 62 d3 be cc b3 86 be 33 8a 77 ba 60 61 b6 3d
       -0.41285998 -0.2630905 -0.00094428955 0.089052916
0000d0 62 6f 2f 3e 3a a9 b8 3d 43 f2 dd 3d a3 0b 3b 3d
       0.17132333 0.090166524 0.108372234 0.045665395
0000e0 7f 0c b2 3d 5c f7 2f 3e ee b0 e2 3d ec bb 47 3e
       0.0869379 0.17184204 0.11068903 0.1950528
0000f0 10 7a 7a 3d 56 50 97 3d 7b ff 2b 3e 6a b6 d8 3d
       0.061151564 0.0738837 0.16796677 0.10581668
000100 59 1b 1d 3d 12 5b 6e 3e 4d 8b a5 3e cb 00 07 3e
       0.03835616 0.23276928 0.3233284 0.13183896
000110 e9 66 73 3e 91 22 f2 3c 37 a5 5a 3e d9 c2 8e 3e
       0.23769726 0.029557498 0.21352087 0.27883032
000120 58 5c a1 3e 3a cb 36 3e 9b bf 36 3e ba ea 86 bd
       0.31515765 0.17850962 0.17846529 -0.06587739
000130 c0 54 eb bd 98 f0 96 3d 1f 36 5d 3d d0 7f 3b 3d
       -0.11490774 0.07370108 0.054006692 0.04577619
000140 a5 95 50 bd 23 2b f8 bd 10 e4 9e 3c db a2 8d bd
       -0.050923962 -0.12117603 0.019395858 -0.06915828
000150 50 a7 fd bc 7b 26 1e 3c b1 ed b5 bd 8b ff a4 bd
       -0.03096357 0.009652729 -0.08883227 -0.080565535
000160 92 95 c4 3d 53 57 dc 3d ef c2 2b 3c f2 b5 95 bc
       0.09598841 0.10758843 0.0104834875 -0.018275235
000170 a1 78 e4 3d 4d 5e ee 3b e8 0b 08 bd 18 d2 83 bc
       0.11155821 0.007274425 -0.03321448 -0.016091391
000180 51 d4 00 3e 72 ff ce bc cd ca f0 3d d4 b5 05 bc
       0.12580992 -0.02526829 0.11757431 -0.008161027
000190 25 ba 11 3d f6 e6 d8 bd 09 5f 3a 3d 1f d3 44 bd
       0.035577912 -0.10590927 0.04550079 -0.048052903
0001a0 80 67 88 3c e6 de 60 bd 79 24 11 3d ba d6 eb 3b
       0.016650915 -0.054900073 0.035435174 0.0071972283
0001b0 2e 5e ad bc ff fe 3b bd 29 6d 04 3c f9 8b 32 bd
       -0.021163072 -0.04589748 0.008082666 -0.04359052
0001c0 d2 e8 9e 3d bf d0 17 3a ba f4 fb bc df 89 69 bd
       0.07759251 0.00057912985 -0.030756343 -0.05701625
0001d0 ec 72 b6 bd e3 c2 01 3e f3 a2 a0 bc 8a 57 f1 3d
       -0.08908638 0.12672 -0.01960895 0.11784275
0001e0 d0 0f 16 3d 42 d4 13 bd 16 a1 b6 3c d8 78 45 bd
       0.036636174 -0.036091097 0.022293609 -0.04821095
0001f0 7c f8 c5 bd af 38 6d 3d fd 14 b6 3c 6d 00 e7 3c
       -0.09666535 0.057915386 0.022226805 0.028198445
000200 4d 3e b7 bd 7f 64 cc 3d 38 62 bf bc 9c e3 dd bd
       -0.0894743 0.099801056 -0.023362264 -0.10834429
000210 67 59 91 bd 18 49 9f 3d eb 67 6d bd 8c 0c 8d bd
       -0.0709713 0.077776134 -0.057960432 -0.06887159
000220 49 c1 00 bd ce 4d 84 3d 65 56 42 3d b7 ea 37 3b
       -0.03143433 0.064601526 0.047445673 0.0028063485
000230 8f 02 35 bd 01 d2 b1 bc 35 6b 19 bd 44 48 a8 3c
       -0.044191893 -0.021706583 -0.037455756 0.020542271
000240 1e e2 df 3c 9b 09 2e 3d c2 7e c8 3c a5 fc 56 3d
       0.0273295 0.04248963 0.024474505 0.052487034
000250 b0 13 9c bb 89 6d 65 3d 67 02 e8 bd 25 3a 24 3d
       -0.004763089 0.056012664 -0.11328583 0.040094513
000260 f7 c8 94 3d ec a6 9e 3d b9 1f 1c bd 83 d6 5d bd
       0.072648935 0.077466816 -0.03811619 -0.054159652
000270 39 ce a8 bd a9 d5 44 bc 0a 93 06 3b b5 0a 85 bc
       -0.08242459 -0.012013831 0.002053442 -0.016240457
000280 4b 39 8a bd ec 40 d9 bd 11 9e ce bd 0c 14 d9 bb
       -0.06749209 -0.10608086 -0.100887425 -0.006624704
000290 10 85 54 3d 88 93 6f 3d 53 c3 d0 3d 28 ce c4 3d
       0.05188471 0.058490306 0.10193505 0.09609634
0002a0 c7 66 d1 3c 8f 88 b4 bd f6 6b da bd 0d c8 e0 bd
       0.025561703 -0.08815109 -0.10665123 -0.10975657
0002b0 0e fc a6 bd 6c a8 41 bd 64 18 c3 bd 01 22 af bd
       -0.08153544 -0.04727976 -0.095261365 -0.085514076
0002c0 4a 82 a1 3d 75 ab c2 bb 1b d4 82 3c 5b 63 a5 3b
       0.07886179 -0.0059408494 0.01597028 0.0050472445
0002d0 86 db a7 3d c9 cc 94 3b c4 0a 6c bd 6a fd 18 bc
       0.08196168 0.004541014 -0.057627454 -0.009337762
0002e0 5a be d8 3c e0 9f 5e bd cf 2c 0b 3d 25 e2 9f bb
       0.026457954 -0.054351687 0.03397828 -0.0048792535
0002f0 b8 ef 88 bd 35 b7 1f bd 0d ce 07 3d 52 43 c8 3d
       -0.06686348 -0.03899308 0.03315549 0.09778465
000300 56 c6 e8 bd c7 e6 29 bc f1 e8 3b bd d4 fd a5 3c
       -0.113659546 -0.010369963 -0.045876447 0.020262636
000310 96 06 8f 3d f7 79 b7 3d bd a3 c0 3b 53 ac 49 bd
       0.06983678 0.0895881 0.005878894 -0.049236607
000320 c5 84 87 bd a2 00 da 3d 2a 65 cf bd ca 05 8d 3c
       -0.06617121 0.10644652 -0.101267174 0.017214675
000330 1e 6e 85 3d 7e 13 8b 3c 5f c6 7a bd 4a bb 98 3d
       0.06515144 0.016977068 -0.061224338 0.074575976
000340 38 6d b1 bd 37 36 96 3d d8 e5 81 3c 4a 23 59 3d
       -0.0866341 0.073345594 0.015856668 0.05301217
000350 79 b3 23 bd 3c 74 62 bc af c0 b2 3d ce ff 80 bb
       -0.03996608 -0.013821658 0.08728158 -0.0039367443
000360 97 74 6b bd 28 04 7c bd 86 35 be bc c4 77 c3 3d
       -0.057484236 -0.0615274 -0.023218881 0.09544328
000370 d7 f1 9d 3c da 95 a4 3d 3b 86 cb 3d 4c 52 29 bc
       0.019280357 0.080363944 0.09937712 -0.0103345625
000380 cc c8 bf bd b2 22 8e bd d9 d4 5b bb b3 cd 8e 3c
       -0.09364471 -0.06940211 -0.0033543615 0.01743207
000390 f2 cb 87 bd 7b 2e 4f bb 71 4e c6 bd f4 2d b7 bd
       -0.06630696 -0.0031613398 -0.0968293 -0.08944312
0003a0 e9 b6 7b 3d 7d eb 5f 3d 52 e1 81 bc de 1d 28 bc
       0.061453734 0.05466794 -0.015854511 -0.010261027
0003b0 2c a7 33 bd 1e 5b 45 bd 7e a2 1e bd e9 cb 3d 3d
       -0.0438606 -0.0481826 -0.038729183 0.046337042
0003c0 d8 03 05 3d 24 62 9d bd 8e 23 3c bd 01 2f ec 3d
       0.03247437 -0.076847345 -0.045932345 0.11532403
0003d0 d6 d5 5a bd a6 1f 98 bd 46 19 19 bc 42 58 87 bd
       -0.053426586 -0.074279115 -0.009344405 -0.06608631
0003e0 a1 24 5a bd 2b 0b f4 bb 52 80 80 bc 5c e4 0a 3d
       -0.05325759 -0.0074476204 -0.015686188 0.033909187
0003f0 9c 3e d3 3c 49 09 b8 bd 47 01 3e bd 20 9a 8f bd
       0.02578669 -0.08986146 -0.046387937 -0.07011819

conv1.bias f4 [16]
000000 ed cf a1 3e ea 22 1b bd 41 68 a3 bd eb 2f aa bd
       0.31603947 -0.037875094 -0.07978869 -0.08309921
000010 9a 40 cf bf 81 92 73 3d dd 30 81 bd 2a ab 9a bb
       -1.619159 0.05946589 -0.06308148 -0.0047201114
000020 7c db 5c bc aa eb 1f 3f 78 80 2d bb bb 77 99 bd
       -0.0134800635 0.6246897 -0.0026474278 -0.0749354
000030 4d c1 c1 be f0 7c 6f bd 94 f8 b1 bf 4c 6f 1f 3f
       -0.3784279 -0.05846876 -1.3903985 0.622792

conv2.weight f4 [32, 16, 5, 5]
000000 dc eb 0a bd 49 12 88 bd 9e 67 06 bd 16 57 97 bd
       -0.03391634 -0.066441126 -0.03281366 -0.07389657
000010 c5 73 00 be a0 c7 23 bd b2 3e e8 bc 17 30 c0 bd
       -0.12544163 -0.0399853 -0.028350208 -0.093841724
000020 f6 8b 06 be b1 03 a2 bd 48 31 7c bd 76 73 6e bd
       -0.13139328 -0.0791086 -0.061570436 -0.05821558
000030 5b b0 90 bd 86 d6 ef bd 81 3b e2 bd f0 8f 18 bc
       -0.07064887 -0.11710839 -0.11046506 -0.009311661
000040 91 b1 88 bd 92 87 81 bc 8e 81 6f bd f2 9d b8 bd
       -0.06674493 -0.015811715 -0.058473162 -0.09014501
000050 ed 60 d8 bc ac 66 2e 3c 1b 47 00 bc e3 db 4e bd
       -0.026413405 0.010644596 -0.007829453 -0.05050267
000060 16 e0 f6 bd d0 6d 3f bd f6 70 0f 3c 4b 1c e2 b9
       -0.1205446 -0.046735585 0.008754959 -0.0004312716
000070 94 37 a4 3c e0 57 1b bb a0 cb dc bc 13 2b 1e bb
       0.020046033 -0.00237035 -0.026952565 -0.002413456
000080 46 1d 04 bb 1e 98 df bb 59 be e0 3c 5c 44 f7 39
       -0.002015905 -0.0068235537 0.027434515 0.00047162443
000090 a5 08 9e bc 23 3a 2f 3d 4f 9d 1d 3d 7d 85 48 bd
       -0.019291231 0.042780053 0.0384801 -0.04895543
0000a0 04 a1 d9 3c 45 b2 2d bc f4 41 24 bd 23 f6 ba 3c
       0.026566036 -0.010601585 -0.04010196 0.022822445
0000b0 ba 25 95 bb 4c c3 8d 3c 74 34 92 3c c2 fd b5 bc
       -0.0045516165 0.017305039 0.017847277 -0.022215728
0000c0 c8 01 8f 3c 16 d0 d3 3c 78 23 30 bd 06 b4 10 bd
       0.017456904 0.025856059 -0.043002576 -0.035327934
0000d0 7e 3e 0e 3d 85 c0 3e 3a 28 cf 82 3c 1e f4 ec 3c
       0.034727566 0.00072766125 0.01596792 0.028924998
0000e0 77 e2 f6 3c 63 70 2e 3d 59 fd 01 bd c1 3a cf 3c
       0.030137284 0.04258765 -0.03173575 0.02529657
0000f0 a7 08 cf 3c 29 2b 23 bd ea ad 10 bd 6f e7 32 bd
       0.02527268 -0.039836083 -0.035322107 -0.043677744
000100 5b 57 41 bd a3 53 21 3d 96 bf 31 bd 43 1e 2f bc
       -0.04720245 0.039386403 -0.0433956 -0.010688367
000110 d2 6f c5 3c 24 b9 32 3d 13 6e 96 bb 41 6a 48 3d
       0.024101172 0.043633595 -0.0045907586 0.048929457
000120 c0 c2 34 3d 76 a9 ad 3c 25 72 27 bd 92 70 12 3d
       0.04413104 0.02119897 -0.04088034 0.035751887
000130 40 13 1a 3d 11 29 56 3c 1a 75 40 3d 8f 1e 96 bc
       0.037616014 0.013071314 0.046986677 -0.018325118
000140 73 a4 a4 bb 56 a6 2e bd 3a 66 04 bd ed b3 60 bc
       -0.0050244867 -0.0426391 -0.032324053 -0.013714773
000150 ed 54 d7 bc 41 04 38 3c 9a e4 c0 3c 03 3c 89 3c
       -0.026285613 0.011231483 0.023546506 0.016752249
000160 9a 73 d7 bb a0 27 2e 3c d4 50 15 3d 15 46 04 bc
       -0.00657506 0.0106295645 0.036454037 -0.0080733495
000170 08 af 46 3d 33 12 4b 3d 4d 9b 9d 3b c3 33 2f bd
       0.048506767 0.049577903 0.004809773 -0.042773973
000180 5a 13 13 bd da 05 b3 3c a6 93 0d 3d 4d 67 db bc
       -0.035907127 0.021853376 0.034564637 -0.026782656
000190 e9 74 4b 3d 11 50 49 3d 25 57 a4 3d 28 fa 68 bd
       0.04967204 0.049148623 0.08024434 -0.056879193
0001a0 a5 ec e4 bc 76 52 e6 3d 5e a9 91 3d 73 12 e8 3d
       -0.027944872 0.11246197 0.07112382 0.11331644
0001b0 b7 5b c5 3c 81 6a 9c bd a1 e9 28 3e 44 25 a3 3d
       0.024091585 -0.076375015 0.16495372 0.07966092
0001c0 a4 54 f9 3d b6 ed 3f 3c 40 de bf bd e3 6f 2d 3e
       0.12174347 0.01171439 -0.09368563 0.16937213
0001d0 9b f4 ce 3d 62 ac 4c 3d fb 28 27 bd 6f 42 9d bd
       0.101052485 0.049969085 -0.040810566 -0.07678687
0001e0 98 b4 d0 3d 2d b3 af 3d bc fd 1b bc d2 cd 82 bd
       0.101906955 0.08579097 -0.009520944 -0.06386913
0001f0 f2 1e e9 bc e2 f2 a0 bc 5e c9 1c bd a2 c7 00 3d
       -0.028457139 -0.019647066 -0.038277976 0.031440385
000200 ad e4 30 bc e0 e1 3c bc df c3 9d 3c d6 4a 72 3c
       -0.010796708 -0.011528462 0.019258438 0.01478835
000210 a9 6f 85 bc 58 a1 a5 3c bc b8 e1 bc 57 87 2f 3d
       -0.016288595 0.020218536 -0.027553909 0.04285368
000220 95 64 c3 3c 02 bf 20 3d 5f 26 28 bd c9 b2 ee bc
       0.023851672 0.03924466 -0.04105222 -0.029137986
000230 c9 14 fd 3b 48 91 ae 3c b3 a3 1a 3b 20 7e b2 3c
       0.007723425 0.02130951 0.0023596107 0.021788657
000240 0f a2 74 bd e9 85 64 3d fc c3 6f 3d 99 8e 0a 3d
       -0.059724864 0.05579177 0.058536515 0.033827398
000250 c7 99 2e 3d ed d8 9a bc 13 5c f7 bc 57 15 11 3a
       0.042627122 -0.018902266 -0.030195272 0.0005534491
000260 3a cc 0d bd eb 65 ee bc 9c dc 42 bd 85 cf ed bc
       -0.034618594 -0.029101333 -0.04757367 -0.029029617
000270 e6 e0 1c 3d 64 de 45 bd 70 e2 a9 bb 20 b5 b0 bc
       0.038300417 -0.04830779 -0.005184464 -0.021570742
000280 80 db d7 3c ad a6 fb bb 49 8a 0f 3d 99 ca 43 3d
       0.026349783 -0.0076797814 0.03504399 0.047800634
000290 96 19 1c bc ee 07 9a bc ec 60 75 3c f1 e1 a0 bc
       -0.009527585 -0.01880261 0.014976721 -0.019638987
0002a0 8b dd 3c bc d5 44 79 bc 09 ab 0a bd 8c b5 3f bd
       -0.011527429 -0.015214165 -0.033854518 -0.046803996
0002b0 a0 4f d4 3c 43 f6 3a bc 3a 64 1f 3a 78 80 40 bc
       0.025916874 -0.011411252 0.00060803036 -0.011749379
0002c0 33 2c 92 3c e1 e3 6c bb 77 ba 00 3d 50 37 ac 3c
       0.017843341 -0.0036146569 0.031427827 0.021022469
0002d0 85 f9 33 3c b0 f2 f0 bc 67 ab f8 3a 4a 16 84 bc
       0.010984783 -0.029412597 0.001897198 -0.01612391
0002e0 6c c5 a6 3c 65 e0 27 bd c5 1b 9b 3c f5 34 73 3c
       0.02035781 -0.040985484 0.01893414 0.014844169
0002f0 d6 e9 d7 bb 0b fc 10 bd 71 f1 51 bc d4 f2 2b 3d
       -0.0065891547 -0.035396617 -0.012813912 0.041979626
000300 1d 8e 05 3d 05 1e fa 3a 7d b2 cd 3c a1 fe cd 3c
       0.032606233 0.0019082433 0.025109524 0.02514583
000310 89 28 c4 3b 38 84 ac bc bc 88 b4 bc 92 66 f4 bb
       0.0059862775 -0.02105914 -0.022037856 -0.0074585164
000320 92 b6 08 bd 32 a1 a3 3b b9 d9 09 bc 0d b8 c2 bc
       -0.033377238 0.004993581 -0.0084137255 -0.023769403
000330 39 3b cd 3c c8 46 45 3d fd 23 e7 3b 95 15 3d 3d
       0.025052654 0.048163205 0.0070538507 0.04616316
000340 59 b0 3e 3d d3 ee 8e 3c 3c 7d 0c 3d fa 7f da 3c
       0.046554897 0.017447865 0.03429912 0.026672352
000350 8c 73 b8 bc cd da d4 bc 93 3e 40 bd b6 45 29 3d
       -0.022516035 -0.025983239 -0.046934675 0.041326247
000360 9f f6 02 3d de 30 67 bc 83 b7 18 3d 3c 95 e0 3c
       0.031973477 -0.014110772 0.037284385 0.02741491
000370 3e d5 00 bd 13 35 3a bc 5a 02 3d 3d ad 9b 1a bd
       -0.031453364 -0.011365193 0.04614482 -0.03774612
000380 cd f0 f5 bc 25 9a f1 bc c9 78 d1 bc 54 33 5b bb
       -0.03002205 -0.029492447 -0.02557029 -0.0033447342
000390 af b5 4d bc 42 fb 84 3d d0 c0 4d bd 72 53 0a 3c
       -0.012555524 0.06493236 -0.05023271 0.0084427465
0003a0 96 aa ac bc 23 5b fb bb d2 17 f9 3a fd 03 2d bc
       -0.021077435 -0.0076707765 0.0019004291 -0.010560033
0003b0 89 5f 5c bd 40 d3 4a bd 96 dc 9c bc 85 36 d6 bc
       -0.053802047 -0.04951787 -0.019148152 -0.026149044
0003c0 91 41 05 bc c7 9f 88 bd f1 7c 72 bd 0a 18 23 3c
       -0.008133308 -0.066711 -0.059201185 0.009954462
0003d0 31 f9 bd bc 4c 9f 5d 3b 7f 7d 01 3c 9f de 46 bd
       -0.023190113 0.0033816872 0.007903456 -0.04855215
0003e0 54 6d 44 3c 19 ff da 3b a6 57 14 3d ec c3 02 bd
       0.0119889565 0.006683242 0.0362164 -0.031925127
0003f0 34 1c e2 3b 19 01 06 bd 72 29 63 3a e2 90 db 3c
       0.0069003347 -0.03271589 0.00086655386 0.026802484

conv2.bias f4 [32]
000000 f8 38 7a be 93 a4 3f 3f 0f b2 96 3d 34 9d 95 3e
       -0.24435794 0.74860495 0.07358181 0.292215
000010 0a 66 cc 3e 99 d8 8f 3e c2 fa 51 bd 57 90 84 be
       0.399216 0.28094938 -0.051264532 -0.25891373
000020 99 50 af 3d ba c0 33 bf 05 81 81 be c9 05 d9 be
       0.08560295 -0.7021595 -0.25293747 -0.42387226
000030 88 9d c0 3c b9 70 3e 3f 34 90 23 3d c6 56 01 3e
       0.023512617 0.7439075 0.039932445 0.12630758
000040 31 e7 93 3d 86 95 ae bd 29 96 ec 3e 43 d7 95 3d
       0.07221831 -0.08524613 0.46208313 0.073164485
000050 63 e6 0a bf f8 b5 2c 3d 6b 3a b7 be 18 92 13 3d
       -0.5425779 0.042165726 -0.35786757 0.036027998
000060 ec d3 9a 3e 19 42 dc bd 3d 3d 2a 3e 0e 8d 00 3f
       0.3023981 -0.107547946 0.16624923 0.5021523
000070 ac f2 24 bd e4 b4 f1 3e 97 25 05 3f 47 0f 1b bf
       -0.040270492 0.4720832 0.5201048 -0.60570186

fc1.weight f4 [10, 5408]
000000 4a 41 6a 3d bd 48 a8 bb 85 8d 53 3a e7 ba 37 bb
       0.05719117 -0.005135624 0.0008070099 -0.0028034986
000010 67 56 85 b9 28 1e 30 3c fd 47 fb 3b fe 42 47 3c
       -0.00025432112 0.010749377 0.007668494 0.012161968
000020 d7 77 51 3c ee 5a c4 3c 31 e8 4c 3c 28 68 ea 3b
       0.01278492 0.02396914 0.012506531 0.0071535297
000030 74 6e b8 3c de b3 7a ba 11 aa 9b bc 80 b3 ad bc
       0.022513606 -0.00095635455 -0.019001992 -0.021203756
000040 cb cf 03 3b d1 9a 27 bc 23 5f 14 bc ac da ea bb
       0.0020112868 -0.010229782 -0.0090558855 -0.007167181
000050 cf a1 ec 3a a8 25 1e 3c 33 e0 00 3c bb ef 29 3c
       0.0018053594 0.009652533 0.007865953 0.010372098
000060 21 5f 40 3c e6 cb f1 3b 43 7f 8d 3b 01 1f 3d bb
       0.0117414305 0.007379043 0.0043181493 -0.002885759
000070 e5 c2 47 ba 02 55 40 bc 19 ae 89 3a 28 85 9b bb
       -0.0007620289 -0.011739017 0.0010504156 -0.004746098
000080 55 48 ea bb 4f 16 4a 3c 58 81 4d 3b eb 45 b4 ba
       -0.007149736 0.01233442 0.0031357612 -0.0013753747
000090 a6 66 c5 bb 4e 0d 06 3c 9e 09 c8 3c be 6e 16 3c
       -0.0060241995 0.008181883 0.024418648 0.009181676
0000a0 40 23 81 bc 8e 68 97 3b 18 b4 3c bb 9d 56 7f bc
       -0.015763879 0.004620618 -0.0028793868 -0.015584615
0000b0 05 8d 9f 3a ed c5 a8 bc 74 c7 6b 3b 99 93 9a bc
       0.0012172764 -0.02060219 0.0035977038 -0.018869208
0000c0 0a 48 77 bc 9a 7d f9 ba 6b 2c c5 bb ac 41 ad bb
       -0.015092859 -0.0019034625 -0.006017258 -0.0052873697
0000d0 be b1 82 bc 19 6b 5e bb 15 7b da bc 7c 42 b4 bb
       -0.015953895 -0.0033938347 -0.026670018 -0.0055010896
0000e0 bc d4 ba 3b 59 7a 0e bb 4e 27 40 bc 59 0e 70 bc
       0.0057016294 -0.0021740405 -0.011728121 -0.014651858
0000f0 c5 7d 0b bc bc 0e a0 bc 85 b1 99 bc 62 3a ce ba
       -0.0085138725 -0.019538276 -0.018761406 -0.0015733952
000100 80 1a 87 3c 08 bd dc bb 3b 1d bd bb 6c 16 c8 bc
       0.016492128 -0.0067364015 -0.005771307 -0.024424754
000110 6a 5c 80 bc c6 6b 0c 3b 53 2a 57 3b 40 85 b4 bc
       -0.015669066 0.0021426543 0.0032831624 -0.022036195
000120 31 f6 b5 bc 27 44 94 bc e0 cf 37 bc 05 7b 21 bb
       -0.02221212 -0.018098904 -0.011218995 -0.0024639976
000130 e2 3f 89 bc f2 31 25 3c b5 c6 e1 bc 00 6f f8 bc
       -0.016754095 0.010082709 -0.027560571 -0.030326366
000140 68 fd 40 bc fc 15 16 bc 97 d6 5e bb 2a b6 f2 bb
       -0.011779167 -0.009160515 -0.0034002417 -0.0074069696
000150 72 96 1a 3b 4a 11 0a bc 17 76 22 ba 79 75 de 3a
       0.0023588208 -0.008426974 -0.00061974063 0.0016972265
000160 6f 12 56 3b 0c 1a bf bb e5 1b 82 bb ea a7 de bc
       0.0032664796 -0.0058319625 -0.0039706104 -0.027179677
000170 44 96 13 bd a0 be 32 bc 43 c3 18 bc f6 8a 6f bc
       -0.036031976 -0.010909706 -0.009323898 -0.014620533
000180 c5 77 d6 bb d3 74 1c bc 33 cc 43 bc c9 b2 de bb
       -0.0065450394 -0.009549337 -0.01195054 -0.006796215
000190 c3 bf a0 bb be 88 1e bc f4 15 9e bb e8 cc 81 3c
       -0.0049056723 -0.009676157 -0.0048243944 0.015844777
0001a0 55 b1 ec bb 2b 87 da bc 51 5e 02 bc ce 86 77 bc
       -0.007223288 -0.026675781 -0.007957057 -0.015107824
0001b0 d9 5c 54 bc 87 49 4a bc da be 1d 3c a4 39 5e bc
       -0.01296159 -0.012346632 0.009628022 -0.013563547
0001c0 a4 08 f6 3a c6 1e c0 bc 60 2c 6d bc 2c e3 01 ba
       0.0018770886 -0.023452174 -0.014475912 -0.0004954811
0001d0 da e9 f7 bb bb db 20 bc b4 ff 68 bc bd 51 76 ba
       -0.007565719 -0.009818013 -0.014221121 -0.0009396335
0001e0 a3 85 4d bc 32 1e 58 bb 64 b9 e0 39 af bf a7 39
       -0.0125440685 -0.0032976982 0.00042862736 0.00031995538
0001f0 4f 5b 6a bb e2 f2 bd bc bd 05 8a bc f0 82 53 bc
       -0.003575999 -0.023187105 -0.01684844 -0.012909636
000200 93 5d 14 bc 04 49 05 3a a3 d1 0b 3c a2 02 0f bd
       -0.009055513 0.00050844275 0.008533868 -0.03491462
000210 e0 fa 84 bc 73 27 47 bc 2e d3 87 bc da 81 95 3b
       -0.016232908 -0.0121554015 -0.01658019 0.0045625987
000220 27 39 2a 3c b5 7b 28 bc 59 d9 04 bb 18 9a 02 bc
       0.010389603 -0.0102834 -0.002027115 -0.007971309
000230 ed bb dd bc e8 03 9b bc 3f e9 89 3c 95 c8 2b 3c
       -0.027067149 -0.018922761 0.016834853 0.010484834
000240 5e 45 c7 bc 94 3c 99 bb da a7 9e 39 af 16 9f 3a
       -0.024325069 -0.004676411 0.00030261168 0.0012137498
000250 95 7f 4a bc a7 7c f4 3a ae 4d 80 bc ad 2b a1 bb
       -0.0123595195 0.0018652872 -0.01566204 -0.0049185366
000260 be 4e ac bc 97 47 79 ba 7f 80 56 38 aa f6 95 3c
       -0.021033641 -0.0009509264 5.1141247e-05 0.018306095
000270 de fe 20 3d c6 e5 a2 bb 90 82 15 3c 2e 4b a0 3c
       0.03930556 -0.004971239 0.009125367 0.019567098
000280 6b d9 9a bb 45 71 d9 bb c3 d4 3c bc 43 09 9b 3b
       -0.0047256253 -0.0066358172 -0.011525336 0.0047313287
000290 79 14 1c 3c 35 62 91 3c cd 7c c9 3c 00 61 02 3d
       0.009526365 0.017747024 0.024595642 0.031830788
0002a0 a7 18 2c 3d 0b 35 1a bc be 70 fe 3b 8d c7 42 3b
       0.042015698 -0.0094120605 0.0077649048 0.0029720992
0002b0 7c 24 a9 ba 4d 26 64 bc b5 0a cd bb 48 12 a6 bc
       -0.001290455 -0.013925147 -0.00625738 -0.020272389
0002c0 f5 2d cd bc 00 8d be bc a9 2b ed bb 88 b5 27 bc
       -0.025046328 -0.023260593 -0.0072378707 -0.0102361515
0002d0 36 8f 2c bc 21 e4 8c bc 03 14 36 3b 42 00 ae 3b
       -0.010532191 -0.017198624 0.0027782924 0.0053100893
0002e0 1e f1 44 bc ba 15 b6 bc a0 dd 0f bc ec ea b9 bc
       -0.012020377 -0.022227157 -0.008780867 -0.022695027
0002f0 4c a6 bd bc 4b fe 04 bc fe a3 dc bb 53 b9 bd bb
       -0.023150586 -0.008117269 -0.0067334166 -0.0057899146
000300 fd 57 7b bc 75 9f 1b bc 0b df cf bb eb b4 d2 3b
       -0.015340802 -0.009498467 -0.0063437275 0.0064302585
000310 07 5c 2d bc bd 45 e7 bc e9 d5 81 bb 06 cb cf bc
       -0.010581023 -0.028231496 -0.0039622677 -0.025365364
000320 32 24 aa bb b2 24 03 bc ba 57 a3 bc ab d1 d5 bc
       -0.005192303 -0.008004354 -0.019939292 -0.026100954
000330 10 60 90 bb 66 32 01 bd 09 ac fa bc 8a e4 70 bc
       -0.004405983 -0.031542204 -0.03059961 -0.014702925
000340 f7 4f cc bb 1e 9b 6c bc af 25 4e bc 36 d5 50 bb
       -0.0062351185 -0.01444128 -0.012582227 -0.0031865365
000350 58 34 4c bc 6c e9 51 bc 9f cf 76 39 92 e8 73 bc
       -0.012463652 -0.012812 0.00023537733 -0.014886992
000360 2c ec a6 bb 47 35 c6 bc 25 e7 8f bc e5 59 a2 bc
       -0.005094072 -0.024195326 -0.017566273 -0.019818256
000370 f4 89 82 bc af 49 84 3c 59 93 ae 3b b8 78 0d bc
       -0.015934922 0.016148416 0.005327624 -0.008634739
000380 ee 98 13 3c 3b 36 9a bc ed 29 ef bb b5 39 09 bc
       0.009008629 -0.018824687 -0.007298699 -0.008375575
000390 0f 62 a7 bb a9 60 d3 39 05 40 27 bc ae 00 dd bb
       -0.005108125 0.00040317074 -0.010208135 -0.006744466
0003a0 b3 e4 a9 bc 41 08 8c bc 43 d8 77 3c 04 a5 0d bc
       -0.020738935 -0.01709378 0.015127244 -0.0086453
0003b0 6a 45 4d bc 4f e7 10 bb b3 5d 60 bb 6d 5b 39 3b
       -0.012528757 -0.0022110527 -0.0034235537 0.0028283254
0003c0 ee c7 62 3a 5e 5d a6 bb e6 50 a0 bc 7e aa a5 3b
       0.00086510077 -0.005077048 -0.019569825 0.0050557246
0003d0 b9 f2 a1 bc 79 cf de bc d6 9c a6 bc 4d 37 d0 bb
       -0.01976906 -0.02719854 -0.020338457 -0.0063542486
0003e0 ce 17 61 bb 93 f7 16 ba 45 41 db ba 83 57 38 3b
       -0.0034346464 -0.00057589373 -0.0016727826 0.0028128333
0003f0 fa 2e 80 bc 86 b2 2f bc 8d 3f 0d 3b 9a db 70 bc
       -0.0156474 -0.010723716 0.0021552772 -0.014700795

fc1.bias f4 [10]
000000 48 c8 40 bd 45 47 a2 3d 3d 7c e0 3e f2 6f 81 bd
       -0.047066003 0.0792375 0.43844786 -0.0632018
000010 ce a0 c0 be f8 6f 7d bd 57 92 5b bd 41 ef a3 3d
       -0.37622684 -0.06187436 -0.053606357 0.080046184
000020 07 51 df bd 06 18 1f 3e
       -0.109041266 0.15536508
