assignment_2_cnn/Model/Simple-CNN/model_with_augmented_data.pth (torch, 275388 bytes, 6 tensors)

conv1.weight f4 [16, 3, 5, 5]
00000000: 984d 07bd afc6 853b 86b3 763d c67e 9dbd
00000010: a279 703d ce5e c6bd 987e 26bc 361f bb3c
00000020: 774f bb3d 3dd3 af3d 7cff 59bd c935 83bd
00000030: e6ee c1bd 4619 8c3d 9189 cdbc 86a7 5038
00000040: d3e9 613d 8189 77bc c2f6 da3d 90cf d73d
00000050: f4cc ba3d 6320 823d b674 3d3d 234d 1ebc
00000060: ae22 d5bd 75dd a43d a808 bfbd 81a2 e33d
00000070: 3964 d33c 792d d9bd ee5c cf3b ea36 9dbd
00000080: b42b e43d ea2d afbd c177 58bc 89f3 883d
00000090: 957b 1b3d cf7c 95bd 355b 243b d862 cabd
000000a0: b3aa ad3d 9c1f 70bd d6c3 2abd 1189 abbd
000000b0: 2d30 9a3d ff15 e13d 0456 e1bd 91d1 e7bd
000000c0: 58aa f0bc ca71 a53d ff29 a13d d42c 1c3d
000000d0: b5c3 b9bd 8eda d23d 23b2 90bd c47b 753c
000000e0: 86fd 303b 95ac 6bbd 69d7 ddbd 151a 38bd
000000f0: a074 743d 17c0 b2bd 5151 2bbc da4b d53d
00000100: 91bd 54bd a0c7 823d b837 14bd a6ff 0d3c
00000110: 1699 ccbd 4510 d6bd 7fca a83d 1166 e33d
00000120: a02f 0ebd 0bf3 7c3d 23e7 84bc 4600 d13d
00000130: 23c9 6a3d 11e9 dfbb 8f4a 45bd 395c 5a3d
00000140: 0603 84bd f519 cdbd 5535 ebbd 681c 6fbd
00000150: 57c1 ebbd aea7 193c 569b cd3d 7e91 afbd
00000160: 08b5 69bd 7b70 16bd 12c1 833d 2b0b 49bd
00000170: 165f 9e3d b046 f2bc 4129 79bd 912e 29bd
00000180: 5fd7 f3bc 6d9b cb3d 255c cfbd 513b 90bd
00000190: e7e6 d43c 4316 9cbd 13f2 a23d 734a 9b3d
000001a0: 74c8 f0bb edec 8a3d 76d0 3fbd 9104 9ebc
000001b0: 860b a53d a60a 7a3c 72af 293d 9cfe e8bd
000001c0: 87f2 30bd 2e97 013d 6582 523c 5768 b9bc
000001d0: c223 8f3c c973 033d 25f4 12bb 45a4 e33d
000001e0: e8ab 56bd 8131 1cbd 618b 6d3b 08ad c3bd
000001f0: 1bb0 ff3c 7593 93bd 0a2b e6bd 83b1 cfbc
00000200: 4f05 a0bc 4ef6 db3d 3dcb c33b 598e abbd
00000210: dd3b c53d a0c8 8b3d 1839 4a3c 9807 953d
00000220: f442 f63b 4c59 ba3d 1e8e e0bd 805f 3bbd
00000230: a0b0 74bd 8e13 1bbd a32d df3d 13d0 91bd
00000240: 9311 54bd 62f0 4b3d 36b0 e6bd d408 353b
00000250: 892d 3abc 2176 c6bd 214f 9f3c 1295 7f3d
00000260: fc9e 523d 9f10 96bd 184e d13d c5ee 9d3c
00000270: d133 db3d 888d b53c 4d48 b03d 5777 5bbb
00000280: 56df b7bc 438f c0bd b32b 903d bf2e 4eba
00000290: a05c 05bd e946 0cbd 28c8 23bc 94db 03bd
000002a0: c552 de3d 9663 b83d bd7b 9ebd 1daf b33b
000002b0: 965d 35bc 8091 67bd d263 5dbd 909f cd38
000002c0: 5a27 bebd 559d bebd 989c 8bbd f997 653d
000002d0: 325f 873d ce9e 69bd f2f5 13bd a70f 1d3d
000002e0: c92d e23d 8165 87bd 1ba1 83bc 7e8d 9b3d
000002f0: 720d 953d eb2d ecbd d590 813c b38b d83d
00000300: af4a 24bd 1c32 6cbd 92e7 c73d cc10 033d
00000310: 7384 a0bd b942 d63d 8140 573d 32be c73d
00000320: 39a7 de3c 1df9 813d fb09 ae3d 5549 dd3d
00000330: 147c 19bd 24f9 a4bc 76cc 6d3d aab3 ca3d
00000340: b1f9 79bd 90a3 f9bc 000f 883d e214 07bd
00000350: 90c8 c63d a8a0 c73d 511e 55bd 1eca 9abd
00000360: 69a6 8d3d ba12 0ebd 17e2 c53d 64a0 aebd
00000370: d60a 9a3d 7a04 0bbd 545e b03d 3e60 b4bb
00000380: f9e4 abbc d392 dcbd d4ab 76bd 8597 983a
00000390: 4e9c babd 83ad ce3d 6333 8bbd 0a80 87bc
000003a0: f1d1 6a3c 7a4e aebb b31f b03d 697b c7bc
000003b0: 37a9 713d 321e a2bd 77aa 65bc b7fb cb3a
000003c0: 7602 183d 34a4 edbc a928 2abd 1db7 d63d
000003d0: a6fb 0d3d 94b1 e0bc 06be 423c 9ba3 113d
000003e0: 1be1 ad3d 7f8e 943c 4058 983d c6f1 893c
000003f0: 7bc5 e9bd 66e3 baba 86a3 553d 811e e83b
-0.033032984 0.004082523 0.0602298 -0.07690196 0.058709748 -0.09686051 -0.010162018 0.022842031
0.09146016 0.085852124 -0.053222165 -0.06406743 -0.094693944 0.06840758 -0.02509001 4.9747083e-05
0.055154633 -0.015108467 0.106915966 0.10537636 0.09121123 0.063538335 0.046253882 -0.0096619455
-0.10407005 0.08050052 -0.09327823 0.111149795 0.025804626 -0.10604376 0.0063282168 -0.0767649
0.11141148 -0.08553679 -0.013212145 0.06687076 0.037959654 -0.07299196 0.0025078778 -0.09882134
0.08479824 -0.058623895 -0.04169067 -0.08375753 0.0752872 0.109905235 -0.11002734 -0.113192685
-0.029378101 0.08078344 0.07869338 0.03812869 -0.09070531 0.10295592 -0.07065227 0.014983121
0.002700658 -0.057537634 -0.10832102 -0.04494675 0.059681535 -0.087280445 -0.010456399 0.10414858
-0.051938597 0.06385732 -0.03618595 0.008666908 -0.09990136 -0.10452322 0.08241748 0.11103452
-0.034713387 0.06175522 -0.016223496 0.1020513 0.057320725 -0.0068332036 -0.048166808 0.053310607
-0.06445889 -0.100147165 -0.11484782 -0.0583767 -0.11511486 0.009378357 0.100393936 -0.08572672
-0.05705741 -0.036728363 0.064333096 -0.049082916 0.0773298 -0.029574722 -0.06083036 -0.041304175
-0.029765783 0.099417545 -0.10124997 -0.07042564 0.025989009 -0.076214336 0.07956328 0.075825594
-0.0073481146 0.06783471 -0.046829663 -0.019289287 0.080588385 0.015261328 0.041427083 -0.11376688
-0.043200042 0.031638317 0.012848471 -0.02263276 0.017473105 0.032092843 -0.0022423354 0.11115316
-0.052410036 -0.038133148 0.0036246406 -0.095544875 0.031211903 -0.072058596 -0.11238678 -0.025353199
-0.019533781 0.10740338 0.0059751556 -0.0837676 0.09630559 0.068253756 0.012342714 0.07276839
0.0075153057 0.09099063 -0.10964607 -0.045745373 -0.059738755 -0.037860446 0.108973764 -0.07119765
-0.051774573 0.049789794 -0.11264078 0.002762367 -0.0113633955 -0.096905 0.019446911 0.062398024
0.05142115 -0.07327389 0.10219973 0.019278893 0.107032426 0.022162214 0.0860754 -0.003348788
-0.022445362 -0.09402325 0.07039585 -0.0007865242 -0.032559037 -0.034247313 -0.009996451 -0.032191828
0.10855631 0.090033695 -0.07738445 0.0054835216 -0.011069676 -0.056535244 -0.054050274 9.8048826e-05
-0.092848495 -0.093073525 -0.06816977 0.056053136 0.06609954 -0.057036214 -0.036123224 0.038345005
0.11043889 -0.06611157 -0.016068032 0.07595347 0.07277955 -0.11532196 0.015816132 0.105735205
-0.040110286 -0.057664976 0.097609654 0.03199844 -0.07837763 0.10461945 0.05255175 0.09753074
0.027179347 0.06346343 0.084979974 0.108050026 -0.037471846 -0.02013833 0.058056317 0.098975495
-0.06102914 -0.0304735 0.06643486 -0.0329789 0.09706223 0.097474396 -0.052030865 -0.07558082
0.06916506 -0.034685828 0.09662264 -0.08526686 0.07521598 -0.033939816 0.08611742 -0.005504637
-0.020983206 -0.10770192 -0.06022246 0.0011641836 -0.09111844 0.100916885 -0.067969106 -0.016540546
0.0143322805 -0.0053194137 0.08599796 -0.024350839 0.058999266 -0.079159155 -0.014017693 0.0015562688
0.037111722 -0.029008962 -0.041542683 0.10484145 0.03466382 -0.027428426 0.011886125 0.035556417
0.08490201 0.018134354 0.07438707 0.01683892 -0.114146195 -0.0014258444 0.0521579 0.0070837145

conv1.bias f4 [16]
00000000: 23df 413d f492 943d 924c eb3d 5b83 723d
00000010: 2762 a83c a3cd b43d 70ce 893d 07d3 5fbd
00000020: 25ec 3bbd 60d4 67bd e884 02bd ed56 82bd
00000030: 245b e83d 030c 4b3d af2d aebd ffa7 9d3d
0.04733194 0.072545916 0.11489214 0.0592073 0.020554615 0.088282846 0.06728828 -0.05464461
-0.0458795 -0.05659902 -0.03186503 -0.06364236 0.11345509 0.049572002 -0.08504807 0.07698058

conv2.weight f4 [32, 16, 5, 5]
00000000: 0dd1 b13c 58f0 07bd 5a64 c93c a21f 19bd
00000010: 23f1 81bc 200d 453c dd79 d93c 9a5b 043a
00000020: 4064 26bc 0839 2b3d eda9 a7bc e0ca 3bbc
00000030: b03f c83c 3fe8 2dbd cd4c 46b8 9a8f d63a
00000040: 1a2f e2bb aae3 863c cd32 df3a 7f71 343d
00000050: 8dbd 20bc ad46 5e3c 3f04 033d 7a32 a4bc
00000060: 4038 c5bc aa4b 02bd 6dfe ff3c 5af0 dabc
00000070: da80 5ebc 40e1 4abd 33be 6ebb ad0b 70bc
00000080: 8737 1cbc 4d41 de3c daac cdbb 5087 fbbc
00000090: 7fbd 10bd 203d 16bd 1a80 073b 6342 18bd
000000a0: 13f0 053c cd3c 173a 5aa2 063c e7d8 0dbd
000000b0: f3f6 b3bc 107c 8c3c 9da4 b03c a390 ea3c
000000c0: 63d0 8d3c 5d01 ad3c 33d2 683c 47c8 773c
000000d0: 8ab2 9b3c 4d3b c13c e73a 16bd 38f8 1d3d
000000e0: d08a dc3c fd8f bebc 804c 293b f33b d33b
000000f0: daf3 f23c c071 01bc 9725 e2bc b343 1d3b
00000100: 0280 273d 6ddd 523c cd63 33bc ed4d 8ebc
00000110: 5a54 e5bc 0add b6bc 732d cdbb c785 c23c
00000120: 9fc6 0ebd e73d c33b 2092 bb3c b328 633b
00000130: cd0f e4bc bdc2 233d 3a51 babc ad1f f1bc
00000140: 809e e9bc 28e0 2abd e0ce 5c3c cd7c c53c
00000150: c752 3abc d342 0abd ad58 80bc c04f f6bc
00000160: 57d7 123d 37fe c73c 3304 9d3a 3db4 253d
00000170: 776e 1c3d 77b9 45bd 5700 b53c 5a6b e23b
00000180: 0ace 0cbd e0c7 debc a05e fbbc 873a 6fbc
00000190: 3dc1 32bd ea31 0f3d 2399 21bd d016 a7bc
000001a0: 8067 05bb e850 33bd 00c4 923c 5030 f53c
000001b0: 4713 e5bc 3d62 d83c abba 4bbd 002a ceba
000001c0: 80eb 253c 33bb 2639 ad27 383c fa27 18bc
000001d0: 007f 423b c7c1 f23c ef07 3a3d 8071 4fbb
000001e0: ef4d 1ebd 9069 253d 120b 453d 0a5f 803c
000001f0: 4045 463c 67fe 2c39 33a1 93bb 00b8 6b3a
00000200: cdce a93b 0d15 d93b 1a04 463b 73b2 903b
00000210: 4f14 263d 223e 373d 8de7 18bd 000e 4e3b
00000220: b376 9b3b db2f 323d 1a6b 04bb 1ba5 1cbd
00000230: 97b3 973c 4700 29bd 629f 243d 1d06 af3c
00000240: 808f 76bc c0ac 4dbc fd7c 9a3c ad7c 37bd
00000250: 6a96 43bd 6577 0dbd 5304 45bc 40be f0bc
00000260: db30 2dbd c757 35bc 48a2 21bd aaa5 a43c
00000270: 8018 113d ead7 de3c b795 ff3c 80dd 6bbb
00000280: a79f 9e3c 13de 8fbc ba89 70bc d3d3 88bc
00000290: 8ab6 14bd 1d28 e3bc 5b17 483d fa63 243c
000002a0: f766 8e3c 40b1 88bc 0d74 32bd 90a0 3c3d
000002b0: 803b 3d3d b2c8 46bd da84 193c 630f 0d3d
000002c0: 1372 32bd b7e6 01bd c8f8 31bd 9a22 79bb
000002d0: 0038 10ba ab91 1abd e042 24bc 125b 22bd
000002e0: 3044 e1bc 9a2c 2f3b 87ea 9dbc 3ded d7bc
000002f0: 6af2 f7bc 428e 45bd f06e eebc 201b 32bd
00000300: 17a2 b1bc cd03 98ba 2dc4 32bc cdf0 37bb
00000310: a02a 67bc 5a2d fcbb cd1b 4e3b a8cb 353d
00000320: adfe 373d e717 eabb 783a 15bd 8780 f5bc
00000330: c29a 053d 7805 07bd fac1 403d 6064 1cbc
00000340: 4f2e 3abd 6075 d4bc 2344 e3bc bd48 c13c
00000350: b01f d83c 43aa 283d 6045 b93c c812 0d3d
00000360: 3b59 45bd 835c 80bc 5a7d 94bb 4a57 aa3c
00000370: b027 b83c b7c1 e0bc 1adc 3f3c 5b39 29bd
00000380: 9a29 cd39 7a63 12bd b868 3c3d 9a74 e2bb
00000390: 7a51 47bc d217 053d f342 04bc 32ac 38bd
000003a0: 9a1c 123b 905b 4abd 73f3 983b c050 9abb
000003b0: e780 17bb 33f2 bbba 7b07 263d 870f 083c
000003c0: 4079 7fbc e7b0 80bc 33db 09bb e045 683c
000003d0: 20ca a93c 2db7 443c e010 13bc 73e7 f53c
000003e0: cd14 88bc 3a6d b0bc 956f 05bd 1790 35bd
000003f0: 8053 a8bc 450c 2d3d 935a 593c 00dc 60bb
0.021706128 -0.033188194 0.024583984 -0.037383683 -0.015862053 0.012027055 0.026547367 0.000504905
-0.010155737 0.041802436 -0.02046677 -0.011461943 0.024444431 -0.042457815 -4.7278405e-05 0.0016369701
-0.0069025876 0.01646598 0.001702869 0.04405355 -0.009810817 0.013566655 0.03198647 -0.0200436
-0.024074674 -0.03181044 0.03124925 -0.026725937 -0.013580525 -0.04953122 -0.0036429286 -0.014651221
-0.009534723 0.027130747 -0.006276709 -0.03070417 -0.035336968 -0.036679387 0.002067572 -0.037172686
0.008174914 0.0005769253 0.008217419 -0.034630682 -0.02196834 0.017149001 0.021562869 0.028633421
0.01731128 0.021118814 0.014210272 0.015123433 0.019006032 0.023587847 -0.036677267 0.038566798
0.02692166 -0.023262018 0.002583295 0.0064463555 0.029657293 -0.007900655 -0.027605815 0.002399665
0.040893562 0.012870175 -0.010949087 -0.017371142 -0.027994324 -0.022322197 -0.0062615215 0.02374543
-0.03485739 0.005958307 0.022896826 0.003466171 -0.027839566 0.03998064 -0.02274381 -0.02943405
-0.028517962 -0.04171768 0.013477057 0.024107361 -0.011372275 -0.033755135 -0.015667284 -0.030067325
0.035849895 0.024413211 0.0011979401 0.04045509 0.038191285 -0.048272576 0.022094889 0.00690977
-0.03437618 -0.027194917 -0.03068477 -0.014601356 -0.043641318 0.03495971 -0.039452683 -0.02039662
-0.002035588 -0.04377833 0.017915726 0.029930264 -0.027963294 0.026414031 -0.049738567 -0.001572907
0.010126948 0.00015900731 0.011239928 -0.009286875 0.0029677749 0.029633416 0.045417722 -0.0031653345
-0.038648542 0.040383875 0.04810626 0.015670318 0.012101471 0.0001649797 -0.0045053004 0.0008991957
0.0051821233 0.006624824 0.0030214847 0.004415804 0.04054671 0.04473699 -0.0373302 0.003144145
0.0047443747 0.04350267 -0.002020544 -0.038243394 0.018518252 -0.04126003 0.04019106 0.02136522
-0.0150488615 -0.012553394 0.018858427 -0.044796634 -0.047750868 -0.03453769 -0.012024957 -0.029387593
-0.04228292 -0.011068291 -0.039461404 0.020098526 0.035423756 0.027202565 0.03119932 -0.0035990179
0.019363238 -0.017561948 -0.014681274 -0.016702568 -0.036306895 -0.027729088 0.0488504 0.010033602
0.017383082 -0.016686082 -0.043567706 0.04605156 0.04619932 -0.04853124 0.009370053 0.034438502
-0.04356582 -0.031714167 -0.043450147 -0.003801501 -0.0005501509 -0.037736576 -0.01002571 -0.039637633
-0.027498335 0.0026729465 -0.01927687 -0.026358241 -0.03026696 -0.04823137 -0.029105633 -0.0434829
-0.021683736 -0.0011597812 -0.01091103 -0.0028067112 -0.014109284 -0.007695836 0.0031449676 0.044383675
0.044920612 -0.0071439627 -0.036432713 -0.029968513 0.03261829 -0.0329642 0.04705999 -0.009545416
-0.04545432 -0.025934875 -0.027742451 0.023594255 0.026382297 0.041178 0.022616088 0.03444174
-0.0481808 -0.015669113 -0.0045315446 0.020793576 0.022479862 -0.02743612 0.011710191 -0.041314464
0.00039131643 -0.0357394 0.045998305 -0.0069108726 -0.012165422 0.03249342 -0.008072603 -0.045086093
0.002229488 -0.049403727 0.0046676933 -0.004709333 -0.0023117603 -0.0014339149 0.040534478 0.008304483
-0.015592873 -0.015709354 -0.0021035194 0.014176816 0.020726264 0.012006563 -0.008976191 0.03001759
-0.016611481 -0.021536458 -0.032577116 -0.044326868 -0.020547628 0.04224803 0.0132662235 -0.0034310818

conv2.bias f4 [32]
00000000: b30f 3e3c 9759 333d 20b4 08bd ed8f af3c
00000010: faca 20bd 2020 1b3c 8d79 a03b a78b 05bd
00000020: 97d5 23bd 5357 55bc e3d9 8c3c 2d94 0c3d
00000030: 6ac8 c83c 2fb6 40bd ab31 09bd 6a57 843c
00000040: 05d3 06bd faa9 583c da1c a0bb f8b2 28bd
00000050: 3747 4c3d 7ac5 bc3c 0d87 d7bb aa35 103d
00000060: 07a2 3ebd 2d9f 25bc 8bb6 3f3d 1d97 8ebc
00000070: 8fcf 103d 3098 c7bc ba52 47bc adb1 a6bc
0.011600423 0.04378661 -0.033374906 0.021430934 -0.039256074 0.009468108 0.0048973025 -0.032603886
-0.039998617 -0.013021308 0.01719374 0.034321 0.024509627 -0.047048744 -0.033494633 0.016154964
-0.032916088 0.013224119 -0.004886252 -0.041186303 0.049872603 0.023043383 -0.0065773786 0.035207428
-0.04654124 -0.010108751 0.046804946 -0.01740604 0.035354193 -0.02436456 -0.01216572 -0.020348394

fc1.weight f4 [10, 5408]
00000000: 103c 403c c136 38bc 963b 0e3c afe9 0fbc
00000010: a1e0 b63b d9c4 5d3c 44fe 183b 0a89 50bc
00000020: a627 c939 166d 38bb 464f 5cb9 510b 31bb
00000030: 4e42 b8bb 2f19 31bc f548 b2bb a8c8 59bc
00000040: c42a 5ebc e031 4bbb da51 f5ba b692 5b3c
00000050: e873 e33a b9ff e2ba f273 14bc fd7e dcbb
00000060: a8e0 c03b 6cc7 f63b 4382 43bc 7a08 213c
00000070: 073c f1bb 8c3e 5abb 8733 a5bb 0dec 2fbc
00000080: e78e 183c 1273 28ba 2f98 86bb 423c 10bc
00000090: abdc d6bb 2295 00bc 32b1 d33b 13a7 e9bb
000000a0: 7c89 033c 1d43 f7ba 7c1d a13a 81a2 1a3c
000000b0: e395 14bc cc2e fc3a 620f 973b ca2d 1d3c
000000c0: 8836 a7bb cb4c 9ebb 3309 143b a723 1bbc
000000d0: 8a1d 213b 14bc 253c b487 dbbb 0d94 5fbb
000000e0: f305 32bc f4f7 2cbb 3f52 91bb 2e4b e03b
000000f0: 75a4 40b9 c28a 393b 7092 493c 96d5 4cbc
00000100: fb9d 50bc 38ee 1c3c 2055 5dbc 335b d7bb
00000110: 943b 9b3b 693d 0a3c 41c0 5ebc 6f06 b53b
00000120: 0d71 213c 327e fcbb e3f7 f3bb a693 18bc
00000130: b619 1e3c d440 efbb 2517 b7bb 6af1 7e3b
00000140: edfe 09bc 4b96 9d3a c61e 0dbc fbe2 0d3c
00000150: fbd3 4a3c 9e45 273c b96f 39bb d908 dabb
00000160: 4ae3 863b d7a0 2ebb bcd6 ebba 3838 12bb
00000170: 11c0 1bbb 28e8 2bbc b460 723b a3fb acbb
00000180: 762b 36bb 8bee 9d3b 7d82 38bb 4a20 87bb
00000190: 7a36 4b3c e3c3 feba 4297 ebba 9b16 193b
000001a0: 5a0a 4a3c 41bf 803b 0911 c9bb 0e68 07bc
000001b0: f808 edba a490 52bc 80ca 503c d7ea c6bb
000001c0: b9df e73b b5e8 b23b f057 22bc ac46 fc3a
000001d0: ef1b a4ba f643 c63a b7f3 d63b f969 b5bb
000001e0: ec3e 2fbc 1f8e 103c c0fe a83b 67ef 87bb
000001f0: 0467 593b 7948 62ba 3b31 eb3b c5de a03a
00000200: a2ae 1fbb 4fb4 17bc 26cf 5ebb a639 8a3b
00000210: 2531 b038 94db 2abc 168b 253c 5260 a2bb
00000220: e284 563c 2f9f 1bbc 0fa0 2ebc 7545 463b
00000230: f4e1 893a 3ee2 863b 5e20 1dbb fdcc da3b
00000240: 0b60 1d3c 00e8 5cbc e662 ce3b 3cec 39bc
00000250: c986 403b 06e2 8dbb cc17 be3b 0652 bc3b
00000260: 6e27 4e3c d28d 1abc b207 463c 5442 4dbb
00000270: efc0 5dbc 06dd c7bb f8db 9bb8 cfed ae3b
00000280: 5f81 4ebb 26b5 6ebb 5fcc f43b a9a7 69bb
00000290: a8e4 5bbc e93b c3bb c684 5abc 4aed 3cbb
000002a0: aa36 06bc 9aef 333b f6da 333b 2eb5 173c
000002b0: a218 f5bb 8b40 18bc adc0 7ab9 9522 fbb9
000002c0: 55be 23bc a737 5cbc b40c 29bc 6a92 fd3b
000002d0: 14f9 0abc e459 08bc 0b9a 5c3c 5e41 343c
000002e0: 7a28 db3b 2b37 33bc e68c 303c 601f 163c
000002f0: 2407 aa3b 65d0 a3bb d55d 9b3b 1c3c 0bbc
00000300: 2fdd 64bb 337b 32bb 05a7 353c 1b37 42bc
00000310: 9b03 38bc 5479 21bb 623e 5d3b 520e 5abc
00000320: 4232 0f3c 596c 503b 0b7d 103c 2ad1 c4b9
00000330: d0cc d5bb b794 efbb 0c2f 573b 1316 763b
00000340: 30bb e1bb 4297 683b 3faa 193c 25a5 33bc
00000350: b991 a53b e67f 643b 5484 9bbb 02a2 42bb
00000360: 2a09 163c 6273 fd3b aec0 5cbc 00fe c4bb
00000370: 630b 4b3c 143b 5c3c 1e48 3f3c f976 523c
00000380: 613b debb 4195 c13a 16a5 233b 3d0f e9bb
00000390: 2330 c93a e2fb f3bb fbbb 09bc 4b31 b63b
000003a0: ea12 193c 73e9 61bb 90f9 e1bb 81f2 81bb
000003b0: a75c dc3a 6703 2ab9 69a0 8b3b bedc 30bc
000003c0: e2c0 e83b 0f2d d53b 8514 5abc 6ebc 0abc
000003d0: df5f a2bb af22 55bc 0304 bf3b 4608 473c
000003e0: e9a8 90bb 9e2d 553c d1e1 4abc c0a7 21bb
000003f0: ffd6 d03b a690 213c 2fd4 15bc f4d9 333c
0.01173307 -0.011243523 0.008681199 -0.008783742 0.005580977 0.013535702 0.0023344913 -0.012727985
0.00038367248 -0.0028141192 -0.00021010367 -0.0027014802 -0.0056231385 -0.010809227 -0.005440826 -0.013292469
-0.013560001 -0.003100507 -0.001871641 0.013401678 0.0017353268 -0.0017318643 -0.009060847 -0.0067290054
0.005886156 0.007531097 -0.011932912 0.009828681 -0.007361892 -0.003330144 -0.005041543 -0.010737431
0.009311414 -0.0006425838 -0.004107497 -0.008803429 -0.0065570674 -0.007848056 0.0064603323 -0.0071305125
0.008028384 -0.0018864606 0.0012292112 0.009438158 -0.009068939 0.0019240021 0.004609988 0.0095934365
-0.005102936 -0.004830932 0.002258849 -0.009468949 0.0024584257 0.010115642 -0.0066995267 -0.0034115345
-0.010865676 -0.0026392909 -0.0044348533 0.0068448996 -0.00018371812 0.0028311466 0.01230298 -0.012502095
-0.012732978 0.00957828 -0.013509065 -0.006572151 0.004737327 0.008437493 -0.013595642 0.0055244486
0.009853614 -0.0077054733 -0.007445322 -0.009312546 0.009649685 -0.0073014293 -0.005587476 0.0038901218
-0.008422595 0.001202294 -0.008613294 0.008660073 0.012379642 0.010209469 -0.0028295352 -0.0066538868
0.0041164504 -0.002664616 -0.0017993073 -0.002231134 -0.0023765604 -0.010492362 0.003698391 -0.005279021
-0.00277969 0.0048196963 -0.002815395 -0.004123722 0.012403125 -0.0019437041 -0.0017974155 0.0023359421
0.01233157 0.0039290492 -0.006136064 -0.008264555 -0.0018084338 -0.012851868 0.012743592 -0.0060704756
0.0070762304 0.0054598697 -0.009908661 0.0019247136 -0.0012520532 0.0015126455 0.006559815 -0.0055363146
-0.010696154 0.008822947 0.0051573217 -0.004148412 0.0033172974 -0.0008632015 0.0071774996 0.0012273422
-0.0024365564 -0.0092592975 -0.0033997982 0.004218298 8.401488e-05 -0.010428328 0.010103961 -0.00495533
0.013093205 -0.009498402 -0.010658278 0.0030253802 0.001051961 0.0041163256 -0.0023975591 0.0066772685
0.009605418 -0.0134830475 0.0062984107 -0.011347827 0.0029377213 -0.0043299226 0.0058011767 0.0057470826
0.012582643 -0.009433227 0.012086796 -0.0031320052 -0.0135347685 -0.006099346 -7.431948e-05 0.0053384076
-0.0031510217 -0.003642389 0.007470652 -0.0035652912 -0.013421215 -0.0059580696 -0.01333732 -0.0028827959
-0.008191744 0.0027456046 0.0027443743 0.009259505 -0.007479743 -0.009292732 -0.00023913635 -0.00047900216
-0.009994109 -0.013441003 -0.01031797 0.007738401 -0.008482236 -0.008322213 0.013464461 0.011001913
0.006688175 -0.010938446 0.01077578 0.009162754 0.0051888395 -0.004999208 0.0047414103 -0.008498218
-0.0034921875 -0.0027234077 0.011087184 -0.0118539585 -0.011231328 -0.0024638968 0.0033759107 -0.013309078
0.00874001 0.0031802861 0.008818875 -0.00037539873 -0.0065246597 -0.0073114294 0.0032834439 0.0037549778
-0.0068887696 0.0035490547 0.009378969 -0.0109646665 0.005052772 0.0034866272 -0.0047459994 -0.0029698615
0.009157458 0.007734702 -0.013473673 -0.0060117245 0.0123928515 0.01344182 0.011674909 0.012845748
-0.006781981 0.0014769213 0.0024970225 -0.0071124122 0.0015349429 -0.0074457983 -0.008406634 0.0055600754
0.009342888 -0.0034471422 -0.0068962052 -0.0039656763 0.001681228 -0.00016213731 0.0042610657 -0.010794817
0.0071030715 0.0065056155 -0.013310556 -0.008467777 -0.0049552764 -0.0130087575 0.0058293357 0.012147969
-0.004414667 0.013011364 -0.01238294 -0.0024666637 0.006373286 0.009861147 -0.009144827 0.010977257

fc1.bias f4 [10]
00000000: e607 bc3b af38 8dbb 3b47 f7bb 8c50 8dbb
00000010: 9d8e 593b 6d23 2d3c ac57 493c b9aa 51bc
00000020: 5ee8 acbb 04ec f1bb
0.0057382463 -0.0043097357 -0.007546333 -0.0043125805 0.0033196576 0.010567528 0.012288969 -0.012797051
-0.0052767238 -0.0073828716
