assignment_2_cnn/Model/Simple-CNN/model.pth (torch, 274804 bytes, 6 tensors)

conv1.weight f4 [16, 3, 5, 5]
00000000: ccab be3d c8ae a43e 0d15 b23e d1d9 e43e
00000010: 7cbd 323e 8491 113d dc7c 2f3d fb4c e03e
00000020: 7b87 073f f56e 7d3e 2d15 bdbe 1b3f a0be
00000030: 1a2c f93d 479c 8f3e 0c53 133e 0127 c5be
00000040: 152f b0be 876d a7be 8df8 0abe 0025 04be
00000050: 9492 32be e80a cabe e600 d4be 6b84 a7be
00000060: e145 82bc 1db2 473d 32f9 093e 8772 bb3e
00000070: 3463 c13e 1089 163e 0465 cdbc 187a 303e
00000080: 1dbe c83e 6af3 d23e b1a2 a43e f595 a2be
00000090: 5720 99be 7c52 27bc 5531 383e ac85 06bc
000000a0: f868 48be 3194 e0be 29cb b9be b8ff 57be
000000b0: 0c67 eebd a191 8ebe 35d6 c7be 58a6 84be
000000c0: 1227 18be a299 36bd 91c7 643e 25ff 363e
000000d0: b5f0 f43e 31a3 a73e 5931 623e 58f3 a63d
000000e0: 5ea9 393e 5e54 923e 6e6a e43e 7e5d 9e3e
000000f0: 356c 8dbe 3131 cfbd c878 f6bc 941a 873e
00000100: d4e3 ac3d 01e6 29be 4db9 8fbe 1259 20be
00000110: 0eda 19be c25f fc3b 4b8e 40be 59fa 97be
00000120: d646 afbe 0a45 2bbe efbd 3abe 1a30 b0bd
00000130: 2f46 f63c 0ccb 383e ee5f 83bd 5146 04bd
00000140: a989 83bd 23b6 2b3e e4f1 d23d acf5 efbc
00000150: 7acd 36bd e464 403e 2714 763c 74ac 42be
00000160: 68d1 d9bd 6527 f33d 2f6b 393e 4405 05bd
00000170: 1a1e 2abe dc81 60bd d1a0 603d b556 ccbd
00000180: e463 83bc ead6 80bd c2f8 9cbd a43b 713d
00000190: 5bdf e43c 0ce9 95bd c173 f73d f1fe e1bd
000001a0: 45da 6cbd 52a2 72bd 549f 593d 43aa a6bd
000001b0: 47d4 a6ba b0be d6bd 6eb0 3b3e 8da9 013e
000001c0: 022c 50be 0f76 4fbe 6326 c43d afc5 423e
000001d0: b56b 00bc 231b 89bd d171 6ebd 0f3d 213e
000001e0: 91bf 2c3d c1b5 30be c82e 2dbd ee34 73bd
000001f0: 8e8b 8ebd 07c6 82bd dc87 053d 962a 693e
00000200: 98f5 133d 546b 60bd b334 cabd d331 133e
00000210: a2bd 063e d22b a2bd 61e7 47bc 0eb5 343e
00000220: 3917 69bc c785 25be 7ee2 f4bc a0d1 023e
00000230: 18d0 053e 65d2 c5bd d702 1dbe 7157 b7bc
00000240: 6a09 133e 99b8 71bd 373f a7bd b737 943a
00000250: 30cb 63bd 421f 6f3d e2df dd3d f3e9 1e3e
00000260: 30b1 023d e061 563d 3414 d3bd e48f 693d
00000270: fc1c be3d aeb5 ad3d 6610 853c 5f74 8abd
00000280: 77fe 103e 7a6c 4c3d ca70 16bd 1ca1 02bd
00000290: 9613 15bd 0809 333d a9c5 6abd 7998 613d
000002a0: 90b5 0d3c 3f5f 14bd 3fa2 8e3d e3c9 d1bd
000002b0: 5056 a1bd d75e 7ebd 0f27 2a3d eb1e af3d
000002c0: eb4c 2f3d 9151 493c 09e5 a83d cd25 fc3a
000002d0: d9d7 4d3d 49c1 1c3e b98a a33d 2517 d63d
000002e0: fd25 283e afe6 373e 3aa8 5d3e e6ff 7c3e
000002f0: afa9 e13d 8a55 5e3d 2c93 e03d b213 393e
00000300: 42b7 5d3e d0d8 443e 11fc 143e dcc0 37bc
00000310: f724 cf3d dd84 5b3e 8d99 353d 34b4 383e
00000320: 250a cf3d e3d7 48bd 7b8c ef3c 2825 7ebd
00000330: 265b 3ebd 64d2 943c 096f c03d 54f1 be3d
00000340: d369 b53b ca47 83bd 7904 29bd 00b3 993d
00000350: afd5 da3b 6fc2 7cbc 48b1 cd3d 83df 35bd
00000360: 4883 2a3e a3e6 933c aa93 db3d 7239 22bd
00000370: 94d2 993d 2b69 e53d f2bf 003d ca6a 133d
00000380: fe78 073d 5a8f 1a3c bf9b b7bd 4470 5cbd
00000390: 58c2 bdbd d353 abbd ed00 7abc 7ce5 cebd
000003a0: cba8 f33c f776 b93b e248 9a3c 7b84 2bbd
000003b0: 0946 553c a510 6d3d 43b8 a73d e997 2d3c
000003c0: d18a 7bbd 97aa 9b3c e6ba 26bb 389a 9c3d
000003d0: 88b6 af3d 41bf a43c dc92 60bd 6465 973d
000003e0: 9fb9 e03c b4ef dcbc 7df3 8dbc 6d87 32bc
000003f0: d77b b83d c06b d6bd 1a6d d83c 18f1 b63d
0.093101114 0.32164598 0.34781685 0.4469743 0.17455095 0.035539165 0.042843685 0.4380873
0.529411 0.24749358 -0.36930218 -0.31298146 0.12166615 0.28048918 0.14387149 -0.3850632
-0.3441092 -0.3270075 -0.13571377 -0.1290474 -0.17438728 -0.39461446 -0.41406935 -0.32718214
-0.015902461 0.048753846 0.13473967 0.36610815 0.37770998 0.14700723 -0.025072582 0.17234075
0.39207545 0.41201335 0.32155374 -0.31755033 -0.29907486 -0.010212537 0.17987569 -0.008210581
-0.19571292 -0.4386306 -0.3628781 -0.21093643 -0.116407484 -0.2784548 -0.39030614 -0.2590816
-0.14858654 -0.04458011 0.22341754 0.17870767 0.47839895 0.32741693 0.22089137 0.08151883
0.18131015 0.28579992 0.4461245 0.30930704 -0.27621618 -0.101168044 -0.03008689 0.26387465
0.08441892 -0.16591646 -0.2807106 -0.15658978 -0.15024588 0.007701845 -0.1880428 -0.29683188
-0.3423373 -0.16725555 -0.18236516 -0.08602925 0.030062763 0.18046206 -0.064147815 -0.03229362
-0.06422741 0.16768698 0.10300043 -0.02929195 -0.04462955 0.18788487 0.015019453 -0.19011098
-0.10635644 0.11872748 0.18107294 -0.032475725 -0.16613045 -0.054811344 0.054840866 -0.099774756
-0.016038842 -0.062909916 -0.07664634 0.05889477 0.027938535 -0.07319841 0.12082625 -0.11034954
-0.057825346 -0.059236832 0.053130463 -0.081379436 -0.0012728059 -0.104855895 0.18329021 0.12662335
-0.20329288 -0.2025988 0.09577634 0.19020723 -0.007838179 -0.06694629 -0.058214013 0.15745948
0.04217488 -0.17256834 -0.042280942 -0.05937665 -0.06960212 -0.06385427 0.03260027 0.22770151
0.03612289 -0.054789856 -0.09873333 0.14374475 0.13158277 -0.07918514 -0.012201161 0.17647192
-0.014226728 -0.16164313 -0.029893156 0.12775278 0.13067663 -0.0965927 -0.15333115 -0.022380562
0.1435906 -0.059013937 -0.08166354 0.0011308108 -0.055613697 0.05837942 0.10833718 0.15518932
0.03190726 0.052339435 -0.10306588 0.05702199 0.09282872 0.08481918 0.016243171 -0.06760477
0.1415957 0.04990814 -0.036728658 -0.031891927 -0.03639563 0.043709785 -0.05731741 0.05507705
0.008649245 -0.036223646 0.0696454 -0.10243585 -0.07877791 -0.062102165 0.041541155 0.08550819
0.042797964 0.012287513 0.0824681 0.001923734 0.050254676 0.15308107 0.079854436 0.10453633
0.16420741 0.17959093 0.21646205 0.24706993 0.11018693 0.054280795 0.10965571 0.1807392
0.21651939 0.19223332 0.1454928 -0.011215415 0.10114472 0.21437402 0.04433589 0.18037492
0.10109357 -0.04903401 0.029241791 -0.062047154 -0.046473645 0.018166728 0.09396178 0.093233734
0.005536297 -0.06410177 -0.04126403 0.07504845 0.006678305 -0.015427216 0.10043579 -0.04440261
0.16651642 0.018054312 0.10721524 -0.039605565 0.07510868 0.112017 0.031433053 0.035990514
0.03307437 0.009433592 -0.08965253 -0.053818002 -0.09265584 -0.083655976 -0.01525901 -0.101023644
0.029743573 0.0056599337 0.018833581 -0.04187439 0.013017186 0.0578772 0.08189442 0.0105953
-0.061411683 0.019002242 -0.002544099 0.076466024 0.08579737 0.020110728 -0.054827556 0.073923856
0.027432261 -0.026969768 -0.017328018 -0.010896546 0.090079956 -0.104697704 0.026419211 0.08932704

conv1.bias f4 [16]
00000000: 9367 eebd 815a 133d e36e 98bf 75cb 5dbd
00000010: 6a94 373d aee7 733d c85d ee3d 2c3b afbd
00000020: 75a9 bf3e 74df c9bb 5c2d 98bf 496e 5ebd
00000030: 89a7 c7be 68de 4b3f 5279 b63c e26f f53e
-0.11640849 0.035974983 -1.190884 -0.05414911 0.044819273 0.05954712 0.11638981 -0.08556208
0.37433973 -0.006160671 -1.1888843 -0.054304395 -0.38995007 0.7963624 0.022274647 0.47936922

conv2.weight f4 [32, 16, 5, 5]
00000000: 8a39 363d 503d 843d 4112 dc3d c06a 443d
00000010: 13dd d93d 4047 573d 4baa 3c3d 6e8d 063d
00000020: f198 59bc 86e2 7e3c c4f4 e5ba ac84 1d3c
00000030: 9a76 903b fcd5 133d b70f 983d c379 d8bc
00000040: 315c 32bc f462 683c e9fd e0bc be97 d2bc
00000050: 9367 96bc a3a9 10bc 06e8 fbbc 2e81 273b
00000060: 213d 333d d8f1 253d 5eb9 d93c 1ca1 da3a
00000070: bb79 a83c 0cf5 6b3d 43c4 243d 6148 783d
00000080: 9ee4 b93c 9021 37bd 1520 783b 3835 703d
00000090: 07d5 82bc f199 03bd 0337 0e3d ec13 b43b
000000a0: 0857 143c 4892 c2bc 3983 33bd 9239 033d
000000b0: 60e2 323b 1df6 3b3d 1720 08bd f1e2 d1bc
000000c0: d0c7 d63c e845 14bd d6bc 54bc 4226 7bbc
000000d0: dfa7 bbbc 9e6d 283d ee95 373d d282 573c
000000e0: 4b92 61bc 950d fa3c 221d 063b 8b86 31bd
000000f0: 5861 313d fe64 8a3c 8980 8a3c d782 c2bc
00000100: 1a01 34bb 5ad0 53bd d93a 7e3c 8295 bbbc
00000110: 96af 47bd 3d67 79bd 1963 c93c 78a0 11bd
00000120: fb91 76bd a078 81bd 2015 0fbd ead1 66bc
00000130: 015b 413d 5947 08bd 9c7b d7bc 4d1c e3bc
00000140: ed8f 183b 8e7a 31bd 7148 363d bec3 17bd
00000150: b5b2 aebc 990b ac3b 1aa7 3bbb 91ac 0e3d
00000160: c8b1 3abd d367 ffbb 8e2d 823c bf5a 45bd
00000170: 359d 21bd 9d8f 49bd c3a9 27bd 1c00 d3bc
00000180: 4883 113d 41af dbbb f314 313c 863a 17bd
00000190: 0288 cb3c 25e7 9dbc d5e6 b83b 8dda 013c
000001a0: 735c bfbc 1645 a73c 314c d6bc b8ea 03ba
000001b0: 1181 cfbc 16e8 0bbd 2846 cdbc 465c ee3c
000001c0: ed25 b93c fb1f 913c 5eda 5c3d c2c7 1b3b
000001d0: 54b5 9f3c 2e27 b43c a321 8b3b b365 193c
000001e0: 1d3d bf3c a23d d7bc a4b2 043d f058 0c3d
000001f0: bc1b 8cba 4c8c eb3c 9d71 233d 2e73 31bd
00000200: b78b 263d 91ed 493d b85f 2bbd 80d4 acbc
00000210: 9c19 a9bc 0439 95bb 3d89 613d 18cb 5c3c
00000220: 0aee 283b c17e 133d 3bd9 8f3c de1f 45bb
00000230: 7bb1 1a3d e482 32bd f9cf 42bd da58 873b
00000240: 748a 493d 36ff 113d 8366 07bd 1d85 8a3b
00000250: 7b87 b3bc a235 5b3d 1bb2 e73d 839c 3a3d
00000260: b388 023d d9b4 c5bb ea1d a73c 4fe2 92ba
00000270: 7fbd 85bd 4063 6bbd 8e69 ccbd 4c63 04bd
00000280: 18da 1ebd 1e66 dbbd a29f b3bd 38ff a0bd
00000290: 4f33 c0bc fde9 74bd 51cd d8bd 7ad2 f9bd
000002a0: 606d 05be 600d d3bd b00a 6cbd ea91 d9bd
000002b0: 8395 f2bc abc0 6dbd 829d 9ebc f910 dcbc
000002c0: 497a 2f3d c4ca 403d 4b8f 473d b689 9abb
000002d0: 4e23 0b3d 6190 973c b6b9 89bc 6982 acbc
000002e0: 51a3 bcbc 6d58 e73c 0b41 73bb 9435 3cbd
000002f0: afbe 98bc 2242 10bd d3a7 f9bc e89c 27bd
00000300: be60 0c3c a212 bf3c 7036 263d 7985 303b
00000310: d1e9 3e3d 6777 9b3c 9520 cbbc c9e9 b0bc
00000320: a9c7 9d3d 44fa ae3c a9d9 f03c 16fa 82bc
00000330: 1a44 903d 3d3c 403b b643 1fbc f571 1bbd
00000340: 5d4d 023d df93 df3c 0e86 05bd 6dcc 33bb
00000350: 0a83 6f3d 6e12 183d 3859 83bc 9246 ffbc
00000360: 00da 02bd 728d 17bd cdd3 a7bc 0bf6 3c3d
00000370: 1e3d 7e3d 8459 f6bc 3911 f9bb 6b5f 293c
00000380: 61ea bf3c 4384 253d ebed b83c 7985 013d
00000390: 1075 153c bc37 693d f0de f5bb f3ad 203d
000003a0: 4281 c63c 6a97 803d 2cf9 063d 3d4b 883d
000003b0: a8c0 3c3d ed45 423c 5c3f 18bb f8bd dabb
000003c0: c813 6a3d fc26 6a3b 8a41 913d b052 5f3c
000003d0: e60c a33b 9e49 653d 6b11 8e3b 789e 403d
000003e0: 3231 c63c 9578 42bd b461 c43a cff9 423d
000003f0: 0043 e3ba 55bb 6c3c a97d 713b e2b8 7f3c
0.044488467 0.06457007 0.10745669 0.047953367 0.1063787 0.052558184 0.04606084 0.03284972
-0.013281093 0.015556937 -0.0017544259 0.009614151 0.0044086697 0.036092743 0.07424872 -0.026425248
-0.010886238 0.0141837485 -0.027464824 -0.025707122 -0.018359935 -0.008829507 -0.030750286 0.0025559175
0.04375947 0.040513843 0.026577648 0.0016680094 0.020565858 0.05760674 0.040226232 0.0606159
0.022692021 -0.044709742 0.003786092 0.058644503 -0.01597072 -0.03212923 0.034720432 0.005495539
0.009053953 -0.023751393 -0.043826316 0.032037325 0.0027295575 0.04588901 -0.03323373 -0.02562091
0.026218325 -0.03619948 -0.012984475 -0.015328946 -0.022907196 0.041120164 0.04482072 0.013153749
-0.013767789 0.030524055 0.0020464142 -0.0433412 0.043305725 0.01689386 0.016906993 -0.02374403
-0.0027466477 -0.05171237 0.01551696 -0.02289844 -0.048751436 -0.06088947 0.024583386 -0.035553426
-0.06019781 -0.063218355 -0.034932256 -0.014088133 0.04720593 -0.033271167 -0.026304059 -0.027723456
0.0023279146 -0.043329768 0.04450268 -0.03705191 -0.021325449 0.005250406 -0.0028633536 0.03483254
-0.0455797 -0.0077943592 0.015890863 -0.048182245 -0.039456565 -0.049209226 -0.04093338 -0.025756888
0.03552559 -0.0067042415 0.010808217 -0.036921047 0.024845127 -0.019275257 0.0056427517 0.007925642
-0.023359513 0.020418685 -0.026159378 -0.0005032229 -0.025330098 -0.03415688 -0.025057867 0.029096734
0.022601092 0.017715445 0.05391919 0.0023770188 0.019495644 0.021991339 0.004245953 0.009362626
0.02334457 -0.026274506 0.032396927 0.034264505 -0.0010689418 0.028753422 0.039903272 -0.043322735
0.040660586 0.049298827 -0.04183933 -0.021097422 -0.020642094 -0.004553916 0.05506252 0.013476156
0.0025776648 0.036009554 0.017559638 -0.0030078809 0.037766915 -0.04358186 -0.04756162 0.004130465
0.049204305 0.03564378 -0.033056747 0.004227294 -0.021915188 0.053517945 0.11313268 0.045559417
0.031868648 -0.0060335216 0.020400006 -0.0011206361 -0.06530284 -0.0574677 -0.099810705 -0.03232126
-0.03878221 -0.10712837 -0.08770682 -0.07861179 -0.023461966 -0.05979346 -0.10586036 -0.12198348
-0.13030005 -0.103052855 -0.05762738 -0.10623534 -0.029612308 -0.05804507 -0.019362215 -0.026863562
0.04284123 0.047068372 0.04872064 -0.0047161235 0.033969216 0.018501462 -0.016812187 -0.021058278
-0.023027094 0.028240407 -0.0037117626 -0.045949534 -0.018645613 -0.03521932 -0.030475533 -0.04092112
0.008567987 0.023324315 0.04057926 0.0026935025 0.046609703 0.018977834 -0.02479581 -0.021595852
0.07704098 0.02135957 0.029400663 -0.01598839 0.07044239 0.002933278 -0.009720733 -0.037950475
0.03181206 0.02729219 -0.032598548 -0.002743508 0.058474578 0.03712695 -0.016033754 -0.03116158
-0.031946182 -0.037000127 -0.020486737 0.046133082 0.062070005 -0.030071981 -0.00760093 0.010337691
0.02342719 0.040409338 0.022574386 0.03162143 0.009122148 0.056937918 -0.007503383 0.03922839
0.024231557 0.0627888 0.032952473 0.066549756 0.04608217 0.011857492 -0.0023231125 -0.006675478
0.05714777 0.0035728803 0.07092579 0.013630554 0.004975903 0.05597841 0.0043355725 0.047026128
0.02419338 -0.047478277 0.0014982731 0.047601517 -0.0017338693 0.01444896 0.003684858 0.015608044

conv2.bias f4 [32]
00000000: 5855 8f3e d27a c5bc a10b 703e 7e8e 9dbe
00000010: e2bf 293e 6a0f 9dbd 814b 5cbd 2cd7 693e
00000020: 3d46 b13d 9b7d 233c 8815 2bbe 5b21 c63e
00000030: 1611 88ba c7ed 233e c595 1e3f 38ea 503f
00000040: 41a3 833c 69b1 9ebe 6760 623f 5e89 8c3e
00000050: 3183 5a3e ffd9 acbe 5708 56be c0bd 13be
00000060: 920b e1bd 4b14 08be 28e9 51be 7db8 60be
00000070: 33a8 033c 89e4 1b3d b171 cfbd a799 47be
0.279948 -0.024106417 0.23441936 -0.30772775 0.16577104 -0.076689556 -0.053782944 0.22835988
0.08655975 0.009978677 -0.16707432 0.38697323 -0.0010381069 0.16008674 0.6194728 0.8160739
0.016069056 -0.30994728 0.8842835 0.27448553 0.21339108 -0.33760068 -0.20901619 -0.14427853
-0.10988535 -0.13288991 -0.20499098 -0.21945377 0.008035707 0.038059745 -0.10129107 -0.19492207

fc1.weight f4 [10, 5408]
00000000: 5faf a03c 015c f63c 9a6c f5ba c239 e3bc
00000010: 3b68 1bbb b5dc 37bb 0c16 dcbb b10f 34bc
00000020: b289 163c 538d cc3a 6ed7 503b 9ca9 193b
00000030: d70d ffba fd05 01bb 9903 b63c 5581 4b38
00000040: 85ac d5bc 41ea 173c 594a 983b 0d87 983c
00000050: 15e4 7b3c cb61 d53c 1367 853c 02ce eebb
00000060: 0512 f5bb 6d3e 39bc c0a7 b4bc 7b36 8c3c
00000070: 702f 00bc cf82 a2bb aa9c cbbb 5693 cc3c
00000080: cf28 203d 331b bd3c d598 223d eafc e53a
00000090: f80a ad3b 377a 5dbc 7897 7abc b7e1 15bc
000000a0: ae99 4bbc 4715 04bc f22e 63bb 14ab 753c
000000b0: 5ee0 bc3c 330d f43c de2b 883c 6145 f33c
000000c0: 144c 203c cd25 01bc 9506 613c 2264 27bc
000000d0: b7aa 5cbc cbb5 c63b c7f5 e13c 1ee4 183c
000000e0: c45f 8c3b e23d 74ba e8fd 803c b4c4 fbbb
000000f0: e17b de3c b7ba a83c 3986 dd3c 0cd9 523c
00000100: 1972 773c 019b a03c 7807 9f3c 600b 1c3c
00000110: 3aee 28bb a6af 28bc 23d0 8a3c 663f 7f3b
00000120: 9312 83bb e3c0 34bc bbb0 423c 5e14 cf3c
00000130: e228 383c aeb2 3e3d 11d8 873c 83df 0b3c
00000140: e168 6f3c bb51 013c 7fb8 363b 4024 053c
00000150: ee68 503c a3b8 293c 6f92 2d3a 4c14 2a3a
00000160: eb5a 293b ccf9 bf3c 1f7d 943c 6c56 d83c
00000170: e22a 7e3c 12d0 e93c 5b22 103d 3612 8b3c
00000180: 4351 8c3b c6a0 2b3c be23 2f3c 326a cd3b
00000190: 4cab b83a d84b 813c 9e43 cc3b d595 bb3b
000001a0: b4a1 493d eac6 473d 75e5 123d c97a 523d
000001b0: 8261 133d 7db6 af3c 5fcf 98ba c698 b3bb
000001c0: 5b84 253c 9688 253c b3c4 ba3c 898f 043c
000001d0: bb25 133b b396 f73c f885 f73c 4b09 bb3b
000001e0: b4af 9b3c 31fd 223d 34d6 403c a8f9 5f3c
000001f0: 964d ad3b 3c8a 9e3b 5d2d 6d3c c97d 193c
00000200: 0465 4d3a b296 523c 8425 1d3d d99f c73c
00000210: c71e 833c 5ef4 a03c 0211 ef3c 096e 0b3c
00000220: 9eb0 5a3b 10ed 3a3c bc00 5f3c f095 eb3c
00000230: fc27 a63c 9293 bd3c a8e1 473c acc2 093d
00000240: 77ab 683c e916 073d 2b53 c93c 768b 653c
00000250: aa2c 473b ff6a 0a3d 335e 623c 4cbe cd3c
00000260: 9520 a83c 33aa 7f3c 7e56 8a3c cc40 213d
00000270: abb8 bc3c cdca 1b3d 0388 263d 8b1c 203d
00000280: 882c 1e3d dec4 7c3d c17c 173d abe7 3f3d
00000290: fffc ee3c 5acc e53c e2bd fc3c 1375 423d
000002a0: 3090 053d d9b7 bb3d 2723 f23c 3b43 e03c
000002b0: d9f0 e63c f85a eb3c c65b bf3c bfee 80bb
000002c0: 1656 0e3c 5e49 323d 4e71 323d 3a9f 6c3d
000002d0: 41e0 1f3d bbbe 8f3d 4882 4f3d e204 0a3d
000002e0: 64f3 873d 65ac 793d 9e87 373c 5b6c 953c
000002f0: 15ee bebc dae4 4a3b 2828 253d 0c43 c73a
00000300: aa90 3fbc a6f3 9f3c 3307 b13d 8178 d4bc
00000310: 0e4b 893c 7e40 5c3d ae06 0f3d a847 5a3d
00000320: a09d 5a3c 4972 813c adf3 063d 00ec 1cbc
00000330: 7e02 273c 4678 f43c 3964 0b3d c672 863d
00000340: f971 b13a 6f47 8039 07a7 ed3c 3252 d83b
00000350: cf71 3b3d 8018 353d 4a3e 043d 14e2 973b
00000360: d57e cb3c ec8b 933c bbfd f3ba 8c16 1b3d
00000370: bb50 aa3d 50ae 41bc 10da 07bd 8bed da3c
00000380: f533 2a3c 26b6 b23b 9f7b 763d a422 c93d
00000390: 49e7 963d 3a0c d83a e470 cbbb 345c 6d3c
000003a0: 4745 4e3d 94a0 453d d7aa 8c3a d2cb 87bc
000003b0: 6ccb a53b a4e5 9bb8 e733 013d f5a4 eabb
000003c0: 43e5 413d 4115 1d3d 95e7 09bb be67 b73c
000003d0: 5a25 003d 9ed4 503d 8eb9 a23c 3ae6 1f3d
000003e0: 2f5b b23c 338c 5a3d f81b 343d 39c7 543d
000003f0: 988c 7b3b b462 003b ef4a 0a3d 3e28 ec3b
0.019614873 0.030073168 -0.0018724382 -0.027737502 -0.002371325 -0.0028055136 -0.0067164954 -0.010990069
0.009188103 0.0015606083 0.0031866687 0.0023447042 -0.0019459081 -0.0019687407 0.022218512 4.851942e-05
-0.02608324 0.009272159 0.004647535 0.018619085 0.015374203 0.026047608 0.016284501 -0.0072877416
-0.0074789547 -0.011306387 -0.022052646 0.017115822 -0.00782381 -0.0049594413 -0.006213744 0.024972599
0.039101418 0.023084259 0.039696533 0.0017546688 0.0052808486 -0.013517908 -0.015294902 -0.009148053
-0.012426777 -0.008061714 -0.0034665433 0.0149944015 0.023056205 0.02979145 0.01662248 0.029696168
0.009783763 -0.007882548 0.013734479 -0.010216745 -0.013468436 0.006064152 0.027583016 0.009331731
0.004283877 -0.00093170826 0.015746072 -0.007683361 0.02715868 0.020596845 0.027041541 0.012869131
0.015102887 0.019605162 0.019412741 0.009524196 -0.002577676 -0.010295784 0.01694495 0.00389477
-0.004000017 -0.011032316 0.011882956 0.025278267 0.011240216 0.04655712 0.01658252 0.008537176
0.014612407 0.007893021 0.0027880964 0.008126318 0.01272033 0.010358962 0.00066212466 0.000648801
0.0025841545 0.023434542 0.018126069 0.026408397 0.015513154 0.028541598 0.035189014 0.016976457
0.004282148 0.010475343 0.010689674 0.006268763 0.0014089136 0.015783235 0.0062336465 0.0057246485
0.049226478 0.048773684 0.03586336 0.05138663 0.035981663 0.021449322 -0.0011658481 -0.0054808585
0.010102357 0.010103365 0.022798872 0.008090862 0.002245291 0.030223226 0.030215248 0.005707895
0.01900468 0.039792243 0.01176982 0.0136703625 0.00528879 0.004838256 0.0144761475 0.009368368
0.0007835182 0.012853311 0.038365856 0.024368213 0.016005887 0.019647773 0.029182915 0.008510121
0.0033369432 0.011409059 0.013611015 0.02875802 0.020282738 0.023141656 0.012199797 0.03363292
0.014201037 0.032980833 0.02457579 0.014010301 0.0030391612 0.033793446 0.013816404 0.025115155
0.020523349 0.0156045435 0.016886946 0.039368436 0.023037275 0.038035203 0.040657055 0.03908972
0.038616687 0.061711185 0.03698421 0.046851795 0.029173372 0.028051544 0.030852262 0.047474932
0.03260821 0.091659255 0.029557778 0.027375808 0.028191017 0.0287299 0.02335919 -0.0039347108
0.008687517 0.043527 0.043565087 0.057769038 0.039032225 0.07018801 0.050661355 0.033696063
0.0663822 0.060955424 0.011201767 0.018240144 -0.023306886 0.003095916 0.0403215 0.0015202477
-0.011692205 0.01952536 0.08643951 -0.025936367 0.016759422 0.053772442 0.03491848 0.053290993
0.013343245 0.015801566 0.03294723 -0.009577751 0.010193465 0.029842507 0.034031127 0.0656486
0.0013537995 0.00024467285 0.029010309 0.0066015953 0.045762833 0.04421282 0.032285966 0.004635105
0.024840752 0.018011056 -0.0018615046 0.0378633 0.08316179 -0.0118213445 -0.033166945 0.026724597
0.010388364 0.0054538427 0.060176488 0.0982106 0.07368333 0.0016483136 -0.006208526 0.014487315
0.050359037 0.048248842 0.0010732067 -0.016576681 0.00505965 -7.43375e-05 0.03154364 -0.0071607777
0.04733778 0.038350347 -0.0021042575 0.022388335 0.03128562 0.050984018 0.01986387 0.03903792
0.021771995 0.05335636 0.043971986 0.051947806 0.003838336 0.0019590082 0.03376287 0.0072069457

fc1.bias f4 [10]
00000000: b61a 97bd 69b6 0e3d 8972 043f 23e3 69bd
00000010: 619d e7be aa91 a5bc 1be5 98bd 7a8b 823d
00000020: 07cb b6bd a752 043e
-0.073781416 0.03484193 0.51737267 -0.05710138 -0.45237258 -0.02021106 -0.074655734 0.06374259
-0.08925443 0.12922154
