assignment_2_cnn/Model/Simple-CNN/model.pth (torch, 274804 bytes, 6 tensors)

conv1.weight f4 [16, 3, 5, 5]
00000000: da32 96bd 51b7 c23d 9eec 7c3d bf73 b93c
00000010: eda6 56ba 579c de3d 0b4a 703d ecbf 83bd
00000020: 743f ad3d d5cb e0bc 5f23 bbbb 2dfe b1bd
00000030: 36c5 a1bd 7a46 9c3d d256 84bc af0f b8bb
00000040: 37df 723d db3c 2cbd 0e9f 163d 1705 2c3d
00000050: b340 c4bd 2335 94bc 1b43 7bbb 4592 8a3d
00000060: dae3 82bd 1088 85bc 15af a8bd 1c71 86bc
00000070: 32e2 a7bd 5d12 413d fd05 7fbd 495f c7bd
00000080: 0284 b4bd aeb0 373c 1930 b83d caa2 3dbd
00000090: f2f2 823d e501 90bc e7cf 353c 73eb 97bd
000000a0: 6b0c acbd cfd0 6a3c 5737 59bc 3b1c d2bc
000000b0: cccb 14bc 4061 ccbd de1b dbbd cb3c 44bd
000000c0: 817f ea3c ce19 ddbd 9878 673d 882d c93b
000000d0: cf67 673d 0b07 093a e818 813d 1cca d63d
000000e0: b39d 99bd df18 aabd bc27 9f3c 5e82 b6bd
000000f0: 90e1 ccbd 6e1c 89bd 896b 823d fe16 253c
00000100: a70a 0a3d dfa6 72bc 33c2 c93d ef3c eabd
00000110: b194 b2bd 9536 193c ba9b bcbd 206e 863d
00000120: 7fe4 51bc 3d65 a6bc 6b4c e3bc f332 7bbb
00000130: 9937 4ebe c065 3cbe e91a cebd 2d30 8bbe
00000140: e25f 3fbe 18a3 84bd 6509 743d 6746 9ebd
00000150: 5016 25be 3ac6 903c 8196 a23e e4fa 813e
00000160: afe5 28ba e901 77be 176c 833e fa4b 0f3f
00000170: ea16 b53e d780 40be cec9 b5be 1ec2 893e
00000180: b198 973e 9e05 ca3d 7bc5 3fbe f358 91be
00000190: 5f68 4dbe 2b7c e6bd c7b2 d7bd 1c29 3dbe
000001a0: a42e 36be aaf7 8fbd c424 23be 1cf1 a1bd
000001b0: 3538 5dbe 77cb 34be 5ee5 55bd 5733 b63d
000001c0: 9508 513e b2fa c83c 811e 54be 0cfd 9c3e
000001d0: 4de9 f23e 0e48 533e e587 84bd 82b4 0fbe
000001e0: 5a47 943e efc0 9a3e 4b0d 48bb 177b 7bbe
000001f0: 6877 88be 7fcd f6bd 1462 3ebe 0447 173d
00000200: 5f40 b8bd 4c26 59be c343 3dbc d182 9cbd
00000210: 77ce 0b3e c40b 07be 69c1 e1bc 169e a0bc
00000220: a744 a43e 5ea2 c23d ce8a dbbc a9d2 14bd
00000230: 1316 393e a713 013f 057b 973e 08dd 4fbd
00000240: 20e9 52be 8535 ef3d f115 b83e e8f5 043e
00000250: 1fdb f1bd 415b 87bd b6b2 80be 8ac1 51bd
00000260: c8db 10bd 6e0a 5ebe 9b67 83be e30a 95be
00000270: 3cd3 3bbd 7aeb 03be 3b02 85be 091a 75be
00000280: e4e9 5bbe 5c6b 3cbe af8c 9fbe 2034 afbe
00000290: a033 95be 3a94 72be b4a4 83be 53c3 86be
000002a0: 2b98 b4be 180f afbe 75d0 aabe 0756 9ebe
000002b0: 873f 77be f314 43be b8e6 97be 87f1 563d
000002c0: 3059 093e d5aa a93e 20ee 963e e25b 4f3e
000002d0: aa2b 9a3e beb8 b53e 9f7d 9c3e 14f0 ba3e
000002e0: cd44 b73d 123e 773e 5142 303e ac88 6f3e
000002f0: f092 6f3e cbc0 6c3e 410c 753e 3ee2 7f3e
00000300: 0d6a 973d 59c2 913d 441b 583d 78a9 42bd
00000310: 099d b63d 6b21 503d 5aef 893d 55c1 a33d
00000320: 930c 623e c901 493e ed73 e53e 1679 b73e
00000330: d413 9e3d bce4 193e 50cb db3e 2f04 d63e
00000340: 3ff3 b53e e44d 523e 5ed7 963e 9582 ad3e
00000350: f3ba 393e 558a ae3e 5bc1 833e 9324 5e3e
00000360: df95 be3d bab8 923e 292c 803e 12bd f13d
00000370: 820c a23c c454 12bd b8a4 263e 535d 793e
00000380: a58e 343e e0ef a23d b548 08bc e555 e7bb
00000390: aa65 143a a971 233c 792b 613d 51a8 a9bd
000003a0: 60e3 d13d c99f 73bd d4c0 4abd f662 c5bd
000003b0: d2ae a83d cf1b a33d 9c74 b33b db0c b9bd
000003c0: 78f0 dabd 7b42 123d c3c0 af3d de43 6a3d
000003d0: 176f 023d 783e ae3d 83ad 173b 74d2 e1bc
000003e0: dcd3 9b3d 9f59 74bd 99d9 eabd 767f dbbd
000003f0: bf77 d7bd 3e47 d8bd 9552 003c fcb6 babd
-0.07333918 0.09507621 0.061749093 0.0226382 -0.0008188326 0.10869663 0.058664363 -0.064330906
0.08459368 -0.027440945 -0.0057110037 -0.08691058 -0.07898943 0.0763063 -0.01615468 -0.005617104
0.059294906 -0.042050224 0.03677278 0.04199704 -0.09582653 -0.018091744 -0.0038339559 0.0676618
-0.063911155 -0.016300231 -0.08236519 -0.016411357 -0.0819744 0.047136653 -0.06226157 -0.09734971
-0.08814241 0.011211557 0.08993549 -0.046297826 0.063939944 -0.017579028 0.011096931 -0.07417955
-0.08400806 0.01433201 -0.013257823 -0.025648227 -0.009081792 -0.099794865 -0.106986746 -0.04790954
0.028625252 -0.107959375 0.05651149 0.006139461 0.056495484 0.0005227185 0.063035786 0.10487768
-0.07500782 -0.08305525 0.019428127 -0.08911584 -0.1000396 -0.06694876 0.06368167 0.010076283
0.033701565 -0.014810293 0.09851494 -0.114374034 -0.08719767 0.009351392 -0.0920939 0.065639734
-0.012810825 -0.020311946 -0.0277464 -0.0038329929 -0.20138396 -0.1839819 -0.100637265 -0.27185193
-0.1868892 -0.0647642 0.05957927 -0.07728272 -0.16121793 0.017672647 0.3175545 0.25386727
-0.0006442917 -0.24121822 0.25668404 0.55975306 0.35369045 -0.18799148 -0.35505527 0.26905912
0.29608682 0.09864353 -0.18727677 -0.28388175 -0.20059346 -0.11254152 -0.10532146 -0.18472713
-0.1779123 -0.0702966 -0.15931994 -0.07907316 -0.21603473 -0.1765574 -0.052220695 0.08896511
0.2041343 0.024533603 -0.20714761 0.3066181 0.4744362 0.20632955 -0.06471232 -0.14033702
0.28960687 0.30225322 -0.0030525501 -0.24558674 -0.266536 -0.12050914 -0.18592101 0.03693296
-0.08996653 -0.21206015 -0.0115518 -0.07642139 0.13652979 -0.13188082 -0.027558045 -0.019606631
0.32083628 0.09503625 -0.026799586 -0.036333714 0.18074827 0.5042061 0.29586044 -0.0507479
-0.20596743 0.1168013 0.3595424 0.12984431 -0.11809372 -0.06609202 -0.25136346 -0.051209964
-0.03536585 -0.21683666 -0.25664982 -0.29109868 -0.045855746 -0.12882796 -0.25978264 -0.23935713
-0.21475941 -0.1840033 -0.3116202 -0.34219456 -0.2914095 -0.23689356 -0.25711596 -0.26320896
-0.35272345 -0.34191203 -0.33362165 -0.3092501 -0.24145328 -0.1905096 -0.29668212 0.052476432
0.13412929 0.33138147 0.2947855 0.20249894 0.30111438 0.3549251 0.3056459 0.3651129
0.089486696 0.24144772 0.17212798 0.2339198 0.23395896 0.2312042 0.23930456 0.24988648
0.073932745 0.07117147 0.052760378 -0.0475249 0.08916671 0.05081312 0.06735106 0.079958595
0.22075109 0.19629587 0.44815007 0.3583457 0.07718626 0.15028661 0.42928553 0.41800067
0.35537145 0.20537525 0.29461187 0.3388869 0.18137722 0.34089914 0.25733456 0.2169364
0.093059294 0.2865656 0.25033692 0.118036404 0.019781355 -0.03572537 0.16273773 0.24352007
0.1763254 0.07955909 -0.008318116 -0.0070598 0.0005660901 0.009975829 0.0549731 -0.08284057
0.102484465 -0.059478555 -0.0495003 -0.09638016 0.08236469 0.079642884 0.0054765474 -0.09035655
-0.10690397 0.035707932 0.08581688 0.05719363 0.031844225 0.08508009 0.0023144193 -0.027566172
0.07608768 -0.05965578 -0.11467285 -0.107176706 -0.10520887 -0.10560463 0.007832189 -0.09116933

conv1.bias f4 [16]
00000000: 2219 db3d 9c14 d9bb 20c7 dfbf a188 1e3d
00000010: 8d25 e03d 25a0 903f 7614 813c 8716 62bf
00000020: 9f66 ccbd a525 d2bd 564a a63d 4ade bebe
00000030: 3093 233f 5ace 4e3e f347 273f eb71 bfbd
0.10698153 -0.0066247713 -1.7482643 0.03870452 0.10944662 1.1298872 0.015756827 -0.88315624
-0.09980511 -0.102610864 0.08119647 -0.37278968 0.63896465 0.20195904 0.6534416 -0.093479

conv2.weight f4 [32, 16, 5, 5]
00000000: a7f7 653b adae f53c 4580 97bc 3a03 afbc
00000010: feff 2d3d d2fa 153d 781d 363d 2faa 403d
00000020: b961 403c c0d6 c9bb fd55 1d3d e84a 21bc
00000030: 565e 21bd 08a1 1cbd cc6e c13c 996d aa3c
00000040: 1921 f23c 20ee b43c bbf5 c93c 662e 2e3c
00000050: fc9d 18bd 8a24 143b 97be 113d 619e ca3c
00000060: da21 c9bb 4710 51bd 6680 c4bd 2087 bf3c
00000070: 4b3c 8e3d 4447 93bd 7fcd b9bc bb9f 49bd
00000080: 75db cc3d 9770 c43c 4eb6 f4bc 9db5 5e3d
00000090: f082 8fbc 3b60 b93c 98f3 95bc 1d03 303c
000000a0: 81c6 8abd 7a06 7abd cb08 cc3c 04a0 0fbd
000000b0: cadf 4a3d 54aa 3cbd 6986 bd3d 256b ca3d
000000c0: a5a9 cfbc 7874 64bd 0d71 b03d 2da5 ea3c
000000d0: afdf 8cbc 4013 843d d91a 7b3d 89b4 1a3d
000000e0: db03 8fba 6b23 073e 4ef6 983d 81a1 8bbd
000000f0: 1366 ca3c 007f 203d 599f 1c3e 014c 813c
00000100: 9e82 c7bd 2932 5abd 78fa 37bd 3906 06bd
00000110: e3ae 8bbd b6ec 833c 95a9 cebd 9c22 99bc
00000120: 5751 98bd 086e 443d 6917 3c3d 5dc9 1a3d
00000130: 1ad1 553b c7bd cdbc 386e 553c 8da0 5d3c
00000140: 0727 173c e12b 38ba 4723 09bc d850 2fbc
00000150: 71f9 1e3d 8d65 c2bc f13a 8c3b 60dd 723c
00000160: 33f7 f4bc 0086 d23a cd44 18ba 9aad 52bb
00000170: 6bfc 0f3d 67c4 acbc 57b3 10bd ade3 56bc
00000180: 5756 f0bc 4102 aabb f0a1 ef3c 7de8 1f3d
00000190: 4fa0 33bd 6181 3abd a782 80bd 1091 593d
000001a0: 8c8b 21bd 4d2c 82bd efc2 01be 0056 753d
000001b0: 8290 373e 61e5 76bd e6af b03c 478f 49bc
000001c0: 8513 cd3d 3786 553c 633c 71bd db4f c0bc
000001d0: 761e ebbd eb80 21bd 7f5f e5bd b9b0 97bd
000001e0: 08a2 b33c 72a4 613d 9be2 2b3d 6387 01bd
000001f0: 8559 46bd 8a9d b4bc a043 6abd fa1d 173e
00000200: 6431 9f3d 39ec 43bd 2619 5037 2066 553d
00000210: 1ef4 a03d ac0d 8dbd 87b7 8b3c 43a2 c93c
00000220: 1cb0 8e3d 3f37 38bd dfa5 91bd 3102 a63d
00000230: 37ec 263c a50a 8cbc 2fea 4f3c 878d cabc
00000240: f70a ca3d 78c1 ba3d 704b 133e b12c 933d
00000250: 7af0 663d 9f8d 133d aac4 31bd d482 2e3d
00000260: 7c5e a33c 9015 11bd d282 843c 0787 ca3c
00000270: edc1 c8bc f34e c1bc a00e c4bc 9274 3bbd
00000280: 5850 ecbc 5e1e e9bb 96f5 8f3c af6d 2f3d
00000290: f5e7 1cbd e360 363d 2fda 283d 0826 c93c
000002a0: 9c8f 3cbd 1b10 2b3d 99c6 c03b 75c7 413d
000002b0: 98c1 4e3c 47e0 cc3c c4d0 8dbc 299e 27bd
000002c0: 8020 423d dc45 223e ccab 9b3c c537 dbbd
000002d0: fa61 bdbd ca13 4b3e 343a 5d3e b6ae 0bbe
000002e0: 8ab9 8dbd 9559 72bd 04bc 5a3e 31d6 ffbd
000002f0: e4b4 e6bd 5fd6 d73d 962b 3cbe 19c4 3abd
00000300: f435 16be 8d53 253e db11 073e dd5b 9f3d
00000310: fa45 2e3d 305c 0ebe 0445 eb3d 025e 813d
00000320: 423f 37bd 3fd6 4bbd a97f cbbc 3bef 423c
00000330: dccb 1dbc 1ada 87bc 860e 9a3c e91f 1d3d
00000340: 4006 9dbc 946c e9bc 84c6 373d 0cb7 863c
00000350: 75a7 48bd f086 15bd b2fa 6f3c 792b fbbc
00000360: c593 87bb 9e70 f23c e8a7 95bc 578a 16bd
00000370: e076 a53c afeb de3b cb9c d43c fc8b 1dbc
00000380: 3c88 98bc 397f 023c 6939 a0bb 770f 483d
00000390: edcf 37bc 3e07 d2bc 6f50 ce3c f013 e3bc
000003a0: 9d65 ad3c b320 043d ff19 1b3d 67a2 133b
000003b0: 5c61 e7bc ac16 043d 27a4 353d abe1 033d
000003c0: 271a 17bd 0c1e d9bc 7fc7 b93b bc57 853c
000003d0: cb00 cbbc e55f 363c 2f98 f03c 2d09 403d
000003e0: fc95 d5bc 82b8 343d 8bbc 203d 683f 40bd
000003f0: 7a51 443c 8d8a 013d 00f5 23bb ad57 efbc
0.003509024 0.029990518 -0.01849378 -0.021363843 0.04248046 0.036616154 0.044461697 0.0470373
0.011742049 -0.0061596334 0.038412083 -0.009844519 -0.039396606 -0.03823951 0.023612402 0.020804213
0.029556798 0.022086203 0.024653306 0.010631179 -0.03726004 0.0022604787 0.03558215 0.024733724
-0.0061380686 -0.051040914 -0.095948026 0.023379862 0.06945094 -0.07191327 -0.022680996 -0.049224596
0.100027956 0.023979468 -0.029872086 0.05437242 -0.01751849 0.022628894 -0.018304631 0.01074293
-0.06776143 -0.061041333 0.024906537 -0.035064712 0.049529828 -0.046060875 0.09254152 0.098837174
-0.025349448 -0.055775136 0.08615313 0.028643215 -0.017196504 0.06448984 0.0613049 0.037769828
-0.0010911183 0.13197105 0.07468854 -0.06817914 0.024706876 0.039183617 0.15295161 0.015783312
-0.0974171 -0.053270493 -0.0449166 -0.03272078 -0.06820466 0.016104084 -0.10090939 -0.01869326
-0.07437389 0.047956496 0.045920763 0.03778969 0.0032625855 -0.025114907 0.0130267665 0.013527048
0.009225613 -0.00070255814 -0.008370227 -0.010700427 0.038812105 -0.023730064 0.0042794873 0.014823288
-0.02990303 0.0016061664 -0.0005808592 -0.0032146932 0.035152834 -0.021089746 -0.03532728 -0.013115806
-0.029338045 -0.005188257 0.029252023 0.039040077 -0.043854054 -0.04553354 -0.0627492 0.053116858
-0.039439723 -0.06356106 -0.12672018 0.05989647 0.17926219 -0.060277347 0.02156825 -0.012302226
0.10013489 0.013032488 -0.05889548 -0.023475578 -0.11480419 -0.039429586 -0.11199855 -0.07406754
0.021927848 0.055088468 0.041964155 -0.031623255 -0.048425216 -0.022047777 -0.0571934 0.14757529
0.077730924 -0.0478327 1.2403621e-05 0.052099347 0.07859062 -0.06887373 0.017055286 0.024613505
0.06967184 -0.04497456 -0.071117155 0.08105887 0.010188154 -0.01709492 0.012690111 -0.024725689
0.09865373 0.091189325 0.14384246 0.071862586 0.05638168 0.036023732 -0.043400444 0.042605236
0.019942515 -0.035420954 0.016175661 0.02472259 -0.024506534 -0.023597216 -0.023932755 -0.045765467
-0.028846905 -0.0071142158 0.01757316 0.04282921 -0.03830715 0.044525992 0.0412237 0.024554268
-0.046035394 0.041763406 0.0058830497 0.047309358 0.0126193985 0.025009288 -0.017311461 -0.040922318
0.047394276 0.15846962 0.019002818 -0.107039966 -0.09247203 0.19831768 0.21604234 -0.13640866
-0.069201544 -0.059167463 0.21360785 -0.12492026 -0.11264971 0.10538935 -0.18376002 -0.04559717
-0.14669019 0.16145153 0.13190405 0.077811934 0.042547204 -0.13902354 0.11487773 0.06316759
-0.04473806 -0.049764868 -0.024841147 0.011897857 -0.009631123 -0.016583491 0.018805753 0.03836051
-0.01916802 -0.028494157 0.044867054 0.016444705 -0.048987824 -0.03650564 0.014647173 -0.030660378
-0.0041374885 0.029594716 -0.01826854 -0.036753025 0.020198286 0.006802998 0.025953671 -0.009615894
-0.01861965 0.007964903 -0.0048896563 0.048842873 -0.011219007 -0.025638219 0.025184838 -0.027719468
0.021166617 0.032257747 0.03786659 0.002252722 -0.028244667 0.032248184 0.044346 0.032197636
-0.036890175 -0.026503585 0.0056695337 0.016277187 -0.024780652 0.0111312615 0.029369442 0.04688375
-0.026072495 0.044121273 0.03924231 -0.04693547 0.011982316 0.031626273 -0.0025017858 -0.029216612

conv2.bias f4 [32]
00000000: b483 74be 55af bdbe e77a 59bd f835 413f
00000010: 247d ed3e 5bcc 7c3e dfba 31be 868a 45be
00000020: 3b31 103f 5d8b cb3e a007 e5bd b7ab 90bd
00000030: afdb ba3d 8da0 a6be 80cc b73d 851c dd3c
00000040: 6edd 9abe 9d69 133d 2a1f a0be c5e6 0c3d
00000050: c16a b5bd 9bf6 7bbe 066c 71bc b491 273e
00000060: 2667 26bd 665c 01bf 8d05 18be 1b23 633f
00000070: 6fdb 5fbe f353 07bd b506 0cbf 3c5c e53c
-0.23878366 -0.3704783 -0.053095724 0.75472975 0.46384537 0.2468733 -0.17356442 -0.19291124
0.5632512 0.39754763 -0.11183095 -0.07064002 0.091239326 -0.32544366 0.08974552 0.026991138
-0.30247062 0.035989393 -0.31273776 0.034399766 -0.08858252 -0.24605791 -0.014735227 0.16364175
-0.040625714 -0.50531614 -0.14845867 0.8872544 -0.21861051 -0.033039045 -0.54697734 0.027998082

fc1.weight f4 [10, 5408]
00000000: 4a69 13bd 436b bfbc 6771 18bb 1677 21bd
00000010: 4368 01bc a67b febc a88a 0abb d000 2bbd
00000020: 3d6e 13bd 936e 0cbd 10bf 4dbc f58b 61bc
00000030: 6659 c2bc 1cec 1abc 0cb6 9dbc ac04 f0bc
00000040: 6baf 2ebc 07fd 113c 31d9 ce3c 2204 49bd
00000050: fdf5 f2bc 2595 a2bc a82a 943c 4419 bb3b
00000060: 4cbf 41bc f8cd a0bc 61ac 97bc bb36 b4bb
00000070: b1b6 15bd 1912 11bc d0bc b9bc 4364 38bb
00000080: 4f70 ccbc 1717 b6bc 593a 553c feb4 6ebc
00000090: 0c0e 6b3c 7ae1 09bc dcf6 a0b9 1354 04bd
000000a0: 9de7 fabc 5c75 82bc 2a4f d9bb 2389 c0bb
000000b0: 0fec fe3b 8105 97b9 bdce 2f3c cd44 86bb
000000c0: 83c4 aebc 0927 0ebc b317 14bd a5c2 41bd
000000d0: e617 85bd a87a 6ebc cc48 febc 4052 11bd
000000e0: 4c74 923b e0cb 9cba ad5e 8cbc c9cb 86bb
000000f0: 6ea3 0c3a 84fd 81bc 6259 ecbc f5a8 62bc
00000100: 7fe3 55bc 3e0a 20bd 0929 23bd 9dfe 85bc
00000110: f4b3 bcbc 1df5 2bbd 53db 32bd 124d 75bc
00000120: 7f40 4a3d 4a98 07bb f99b 6dbc a07b 39bc
00000130: 57e9 c73b 1317 febc 6d9e e3bc 296a 84bc
00000140: ed6b adbc 8690 2cbc 1504 14bc 25ad fdbc
00000150: 0372 1abc 8b88 293c ebc7 05bd 0812 4c3c
00000160: 507d bf3b ffc9 dfbc 3008 dfbc ce16 bbbc
00000170: 1663 cfbc 2420 83bc 5f50 50bc 7f19 a5bc
00000180: d0c1 0dbd 9558 e3bb c4c8 a9bc 75ed f4bc
00000190: acde c2bc 7455 acbc d1b0 15bc 0f16 a0bb
000001a0: 8853 15bd d873 e9bc e8c2 013c 67e1 7d3c
000001b0: 0b17 7dbb 9082 5abc f1df 583c 5b82 083c
000001c0: c9ea 14bd 6eac 16bd 1134 073d 213c 5ebc
000001d0: 645a fb3a 90ef 2cbd e270 bcbc 36f2 d0bc
000001e0: fec9 e5ba a9da 96bc ede6 a6bc 0bdb d0bb
000001f0: e11d aebb ff79 fbbc 36d2 66bc 8e61 91bc
00000200: fe84 b7bc 1bbe 13bd 357a 83ba 91e1 adbc
00000210: d912 efbc 6347 b3bc ad96 59bb 64e9 ffbc
00000220: 9216 f2bc 605a 9fbc 4e25 96bc eeed 8f3c
00000230: 7d7b babb a561 bcba cbce 433c cf59 dfbc
00000240: 3be1 abbc 98d5 00bd 9814 a1bc 147e 3bbc
00000250: 2d25 953b ce5f d5bb 96f6 a93c ae72 07bd
00000260: fa59 a93c a677 14bc c577 ebbc 1bad 00bd
00000270: d0fe 393c 6c19 f3bc 3af6 27bd b330 fcbc
00000280: e350 70bc 88e8 bfbc ff1f bdbc 87b5 643c
00000290: ff7f b23b 1387 46bc 54e1 2ebd d428 e1bb
000002a0: dbf0 cdbc 03b2 bd3d 93cc b43d 5eeb 753d
000002b0: 6dd2 763c 86ef b43c 8e11 b1bc ba9b d0bb
000002c0: 8bab 573c 99ac 713c 17c4 153d 5558 823d
000002d0: a935 513d f2d6 e03b f09b d43c e122 513d
000002e0: fa4f 393d c723 d2b7 e889 a7bb ee0e 993c
000002f0: f9ad 57bc c561 37bc 4b6c c8bc d167 a83c
00000300: 440e 263d b153 f53b 5340 6f3c 6b49 35bc
00000310: 665c 31bc 6a05 193c 43b5 6c3c 9ef3 b1bc
00000320: cb76 673c f8c5 ec3b db07 1dbd fba7 a7bc
00000330: 48db 633d ae00 b13c 548a c73c 7a6a fb3b
00000340: 5163 54bb f22c eebc 221d 97bc 1969 613c
00000350: d43d aabb af41 833c b236 eb3c 588d 0abc
00000360: b1de 83bc 9df9 ef3c 99db 883c db22 ef3b
00000370: 24dc 153d 6212 b33a e859 82bb f04b 393c
00000380: 4e3c a03c 6479 cfba 7157 b03b 29fa 003d
00000390: ec91 89bc d908 323c da34 d13a 0d4d c63c
000003a0: 003c 193c 4a67 113d 91a2 a23c 1d73 3b3b
000003b0: 3cb6 b3ba 8abd 563b feb7 ddbc 6bea babb
000003c0: fc4a b93c e883 9dbb 7f4a afbc 280f c03c
000003d0: f235 e33c 6fb9 cb3c 109d a83c fd92 573c
000003e0: d425 713c bb69 e6bb e8fd 85ba f109 993b
000003f0: c3f9 763c d897 a33c 61e9 a0bc 49d0 4b3b
-0.035989083 -0.023366576 -0.0023260952 -0.03942021 -0.007898393 -0.03106482 -0.0021139774 -0.04174882
-0.035993803 -0.03428514 -0.01255776 -0.0137662785 -0.02372427 -0.009455707 -0.019251846 -0.029299103
-0.01066194 0.008910424 0.02525005 -0.049076207 -0.029658312 -0.019846508 0.018086746 0.005709799
-0.011825394 -0.019629464 -0.018514814 -0.0054996884 -0.03655118 -0.0088544125 -0.02267304 -0.0028135933
-0.024955897 -0.022227807 0.013014399 -0.014569519 0.014346611 -0.008415574 -0.00030701503 -0.032306742
-0.03062802 -0.015925102 -0.0066317515 -0.005875723 0.007779605 -0.00028805065 0.010730443 -0.004097557
-0.021333938 -0.008676299 -0.036155414 -0.047304768 -0.06498699 -0.014555611 -0.031040572 -0.03547883
0.00446943 -0.0011962615 -0.017134989 -0.0041136486 0.0005364929 -0.015867956 -0.028851215 -0.013834228
-0.013054728 -0.039072268 -0.039834056 -0.01635676 -0.023035027 -0.041981805 -0.043666195 -0.014971988
0.049377915 -0.0020690137 -0.014502519 -0.011320978 0.0061008143 -0.031016862 -0.027785504 -0.016163902
-0.021169627 -0.010532504 -0.009034176 -0.03096635 -0.009426597 0.010347496 -0.03266136 0.012455471
0.005843796 -0.027317999 -0.027225584 -0.022838023 -0.025315803 -0.016006537 -0.012714474 -0.020153759
-0.034608662 -0.00693805 -0.020725615 -0.029898385 -0.023787819 -0.021036841 -0.009136395 -0.004885442
-0.036456615 -0.028497621 0.007920004 0.015495635 -0.003861847 -0.013336793 0.013236986 0.00833186
-0.03635672 -0.036785536 0.03300864 -0.013564141 0.0019176719 -0.042220652 -0.023003045 -0.02550612
-0.0017531512 -0.018414812 -0.020373786 -0.006373768 -0.0053136204 -0.03069782 -0.014088204 -0.017746713
-0.022402283 -0.03606997 -0.0010030927 -0.021225723 -0.029183792 -0.021884626 -0.0033201382 -0.031239219
-0.029551778 -0.019452274 -0.018328335 0.017569508 -0.0056909905 -0.0014372362 0.011951159 -0.027264504
-0.020981422 -0.0314537 -0.01966314 -0.011443634 0.004551551 -0.006511665 0.020747464 -0.03306835
0.020672787 -0.00906173 -0.028743634 -0.031415086 0.011352256 -0.029675208 -0.041006304 -0.03078494
-0.014667722 -0.02342631 -0.023086546 0.013959295 0.005447387 -0.012117165 -0.04269536 -0.006871322
-0.025139263 0.09262469 0.08828082 0.060038917 0.015064818 0.02208687 -0.021614816 -0.0063662203
0.013163458 0.014750623 0.03656396 0.06364504 0.051076565 0.006861561 0.025953263 0.051058654
0.045242287 -2.5050611e-05 -0.0051128753 0.018683877 -0.013164037 -0.011192744 -0.0244657 0.020557316
0.04054095 0.0074867834 0.014602738 -0.0110648675 -0.010825252 0.00933967 0.014447513 -0.021722611
0.014127444 0.007225748 -0.03833757 -0.020465842 0.055629045 0.02160677 0.024357952 0.007672605
-0.003240783 -0.029074166 -0.018446509 0.013757967 -0.005195359 0.016022531 0.028712604 -0.008456551
-0.016097398 0.02929383 0.016706275 0.0072978563 0.036586896 0.0013662095 -0.003978003 0.011309609
0.019560006 -0.0015829024 0.0053815176 0.03148857 -0.016793214 0.010866367 0.0015961186 0.024206663
0.009352684 0.035498895 0.019852908 0.0028602548 -0.0013710926 0.0032766783 -0.027065273 -0.0057042143
0.022618763 -0.004806984 -0.021397827 0.023444727 0.027735684 0.024868695 0.020582706 0.013157603
0.014718492 -0.007031647 -0.0010222765 0.0046703746 0.015074196 0.019969866 -0.019642534 0.003109949

fc1.bias f4 [10]
00000000: b514 e0bd ff05 053e a61d 033f 2d68 7abd
00000010: 39a5 f0be 63ec a03c 902c 19be 27c8 a5bc
00000020: ada0 a6bd 3e3a 573e
-0.109414496 0.12990569 0.51217115 -0.061134506 -0.47001055 0.019643968 -0.14958405 -0.020237042
-0.08136115 0.21018311
