assignment_2_cnn/Model/Simple-CNN/model.pth (torch, 274804 bytes, 6 tensors)

conv1.weight f4 [16, 3, 5, 5]
000000 42 c5 e8 bd 4c f6 75 bc 16 86 0b bc fc 5c 68 bd
       -0.11365749 -0.015012335 -0.008515855 -0.0567293
000010 e1 02 7f 3c fe 3e fd 3c c4 6c 05 bd 59 c1 85 bc
       0.015564651 0.030913826 -0.03257443 -0.016327547
000020 de 13 b0 bd 8b cd f4 bc 37 09 cf 3d bc c4 47 3d
       -0.08597539 -0.029883167 0.101091795 0.048771605
000030 a1 d3 a6 bc 9d 79 de bd dd 56 87 3b d0 fd 82 bd
       -0.020364584 -0.1086304 0.004130228 -0.06396067
000040 c5 de 74 3d 81 67 04 bd 68 1a 33 bd 22 a1 83 bd
       0.059782762 -0.03232527 -0.043726355 -0.06427218
000050 6e 45 51 bd 3e 0e a2 bd f8 f4 83 bd 85 6d 9c 3c
       -0.051091604 -0.07912873 -0.064432085 0.019095192
000060 6c 8d 29 3d b8 ae 98 3d 1b 37 c4 3d f4 e5 d3 bd
       0.041394636 0.074552 0.09580823 -0.103465945
000070 43 64 56 bd 8f b9 75 3d 34 54 d6 3d 2f f4 78 3c
       -0.05234171 0.059991416 0.10465279 0.015194937
000080 00 91 0a 3d f7 dc 3b 3c 9e 1d ce bd 07 68 d9 3d
       0.03382969 0.011466256 -0.10064243 0.10615545
000090 14 88 ca bd 8e 92 2e bd 62 71 41 bd 43 04 ca bc
       -0.09889236 -0.042620234 -0.04722727 -0.024660235
0000a0 42 36 86 bd 28 00 42 3d f4 f4 de bc 72 4d ab 3d
       -0.065533176 0.04736343 -0.027216412 0.08364381
0000b0 6b 52 a3 bd dc ce 85 bd ee 41 c4 3d 42 e1 c2 bc
       -0.07974704 -0.06533596 0.095828876 -0.023789052
0000c0 3d ae 67 3b 1f f9 e9 3d 10 0a e5 3d 8b 89 5c 3d
       0.0035351657 0.11424469 0.1118356 0.05384211
0000d0 2a 82 79 bd 4f dd cb bc 36 68 9c bd aa 7f a0 3d
       -0.06091515 -0.024885802 -0.07637064 0.0783685
0000e0 f5 0c c7 bd b8 70 ae bd 96 63 a8 3d bd fc de bd
       -0.09719268 -0.08517593 0.082221195 -0.1088805
0000f0 d2 89 19 3d 08 e0 d9 bd ee e4 3a 3d 75 a7 ae bd
       0.03748495 -0.10638434 0.04562848 -0.08528034
000100 59 a0 49 bd 2b ee ae bd fc 3d e0 3d 27 c9 46 3d
       -0.049225185 -0.08541521 0.109493226 0.048531678
000110 c0 13 13 bd 2f 71 e0 3d 2e 01 a1 3d fe ef a2 bd
       -0.035907507 0.10959088 0.07861553 -0.07955931
000120 d1 23 ee bb ac eb c1 bd 51 e3 ac 3d 71 3d a5 bc
       -0.0072674532 -0.09468779 0.08441795 -0.0201709
000130 f0 2a 9b bd 82 e3 9f bc 2c 17 98 3c 10 7b d6 3d
       -0.07576549 -0.019517664 0.018565737 0.10472691
000140 1d b2 bb bd 51 df 35 bd 51 36 6a 3d e0 d6 af 3c
       -0.09164832 -0.044402424 0.057180706 0.021464765
000150 b4 23 62 3d 13 e6 3d bd 3a 4f 9f bd 1e 70 80 bd
       0.05520983 -0.046361994 -0.07778783 -0.06271385
000160 63 28 f9 3b a4 e9 24 3c b0 a7 bf bd cc 7a 86 bd
       0.0076036914 0.01006547 -0.09358156 -0.065663904
000170 2b 9c 97 3d 65 62 9d 3d d7 f6 8e bc bd c7 b2 3d
       0.074028336 0.07684783 -0.017451687 0.08729503
000180 2b df 6d bd ab d9 c2 bd ae d0 dd bc fe fa 83 bd
       -0.058074158 -0.09514173 -0.027077045 -0.06444357
000190 f4 53 b1 bc bd 3b 92 bb bb 03 c5 bc 1e 29 62 bd
       -0.021646477 -0.0044626878 -0.02404963 -0.055214994
0001a0 8e 26 8d bd a7 8b 18 3d c7 35 17 bd 46 a0 24 bd
       -0.06892119 0.037242558 -0.03691652 -0.04019191
0001b0 91 ae d5 bd ee 15 99 3c 86 b9 19 bd 0c f0 f4 3c
       -0.104336865 0.018687215 -0.037530445 0.02989962
0001c0 27 d8 a2 3b e4 3d 82 bd 0e 98 b0 3c 83 cc 86 bc
       0.004969615 -0.06359461 0.02155688 -0.01645494
0001d0 cc 7e c1 bd 41 0e 71 3c 69 a4 c9 bd 16 78 a1 bb
       -0.09448013 0.014712871 -0.09845812 -0.0049276454
0001e0 d9 4f b1 bd 5e a0 22 bd f0 e5 ca bd ed 67 0a bc
       -0.08657808 -0.03970372 -0.09907138 -0.008447629
0001f0 b9 bb b2 bd 3e 85 92 3d fb a6 4e 3d ce be a3 3c
       -0.087272115 0.0715432 0.050452214 0.019988444
000200 4e 30 49 bd 0c 15 8d 3d 5c 89 ac bd e4 96 3d bc
       -0.049118333 0.0688878 -0.08424637 -0.01157162
000210 a5 47 bd bd 9d 48 9b 3d 37 7e c3 bd ca 12 8d bc
       -0.09242181 0.07582209 -0.09545558 -0.017220873
000220 c3 1b 1d 3d 25 91 98 3d 6e 65 37 3d 0a bc 70 bc
       0.038356554 0.07449559 0.044774465 -0.0146932695
000230 c3 d2 bd 3b 4b 7f c9 3d d6 0e 8a 3d 03 2b 11 3d
       0.005792947 0.09838732 0.06741111 0.03544141
000240 9e 31 d4 3c 1c ec 3d bd 67 46 e0 3d b7 ba d9 bd
       0.025902566 -0.04636775 0.10950928 -0.10631316
000250 b8 a9 aa 3d 37 28 95 bc 91 43 66 3e 7b 9d d4 3e
       0.083331525 -0.018207652 0.22486712 0.41526398
000260 52 43 d2 3e cb b5 83 3e f5 a9 57 3e 67 5b 9d 3e
       0.41066986 0.25724635 0.21060927 0.30733797
000270 79 ca d1 3e b3 61 fb 3e 4f 1b 84 3e b1 9d 79 3e
       0.40974787 0.49097976 0.25802085 0.24376561
000280 2c 25 de 3e 29 74 08 3f 1b e5 03 3f f2 20 cb 3e
       0.43387735 0.53302246 0.5152146 0.39673573
000290 63 36 91 3e 27 23 55 3e f2 20 f8 3e 7b f8 cd 3e
       0.28361806 0.20814191 0.48462635 0.40228638
0002a0 3f 9e b2 3e 10 58 89 3e 82 ac 1f 3e e1 08 ad 3e
       0.34886357 0.26825 0.1559315 0.33795837
0002b0 67 ea a0 3e b7 ac 33 3e 2b 19 31 3e a3 24 a2 bd
       0.31428835 0.17546354 0.17294757 -0.07917144
0002c0 f7 63 b6 bc fd 10 7f be 09 95 80 bd 71 20 9e be
       -0.022264464 -0.24908824 -0.06278426 -0.30884126
0002d0 76 c2 af bd e9 18 09 be 88 15 1c be 89 3a c3 bd
       -0.08582012 -0.13388409 -0.15242589 -0.09532649
0002e0 de 7c 80 be 28 a0 da bd ff 42 23 be e7 08 10 be
       -0.25095266 -0.10675079 -0.15943526 -0.14065896
0002f0 1e c0 65 be 1f 2d 80 be 3c 5a 87 bd e4 a5 e4 bd
       -0.22436568 -0.25034425 -0.06609008 -0.111644536
000300 25 c0 2a be 55 a3 28 be 09 b1 82 be 68 f7 5b be
       -0.1667486 -0.16468556 -0.25525692 -0.21481097
000310 32 f2 f2 bd 46 d1 12 be bc 0b 8d be e8 96 83 be
       -0.11862601 -0.14337644 -0.27548015 -0.2570107
000320 e1 12 b6 3b 99 f8 05 be 38 c3 79 bd e5 4a 63 be
       0.0055564498 -0.13083114 -0.06097719 -0.22196539
000330 46 4d 82 be bf de 07 be a1 23 67 3c e7 ce 1a be
       -0.2544958 -0.13268565 0.014107616 -0.1511799
000340 66 cf 2d be 58 96 84 be 30 e8 88 bc b7 e3 96 bd
       -0.16973647 -0.25895953 -0.016712278 -0.07367652
000350 90 57 56 be 0f 1c 5d be ef cc 99 be 4a c8 60 be
       -0.2093184 -0.21592735 -0.30039164 -0.21951404
000360 7f 88 c7 bd bd a1 84 be bd 48 32 be 5a cf 7f be
       -0.097428314 -0.25904647 -0.1741056 -0.24981442
000370 c8 63 06 be 1b db 31 be fd 3a e5 bd cd 2a 8e be
       -0.13124001 -0.17368738 -0.11192892 -0.2776703
000380 66 78 a4 be 74 ea 0d 3e 2f 0b c3 bd d7 4a 22 3e
       -0.32123107 0.13858968 -0.095236175 0.15848862
000390 8b 63 55 3e 36 97 6e 3e 66 c9 25 3e ec a5 8b 3d
       0.20838754 0.2329987 0.16190109 0.068187565
0003a0 48 44 f9 3d 8a 1b 8d 3e 2b ed 83 bd 50 0f 08 bd
       0.12171227 0.27560073 -0.064417206 -0.03321773
0003b0 23 e0 b5 bc e7 e5 13 3e 5b 1f fa 3d b8 42 3c 3c
       -0.022201603 0.1444317 0.12213012 0.011490516
0003c0 b9 6f 43 be d3 e8 d6 bd 72 83 24 be 4c 88 28 be
       -0.19085588 -0.104936264 -0.16065767 -0.16458243
0003d0 74 d4 07 be 15 94 cc bd 2a 62 bb bd ee b7 01 be
       -0.13264638 -0.09989182 -0.09149583 -0.1266782
0003e0 dc de 53 bd 94 e7 a2 bd 2d e3 32 be 76 a9 cd be
       -0.051726207 -0.07954326 -0.17469473 -0.4016835
0003f0 a4 6c 88 be 8e 1f 81 be ef ad 22 be 50 25 9c be
       -0.26645386 -0.25219387 -0.15886663 -0.30497217

conv1.bias f4 [16]
000000 bd da 75 3c be e9 3d 3c b5 7c 6e 3f e0 ff 58 3f
       0.015005765 0.011591373 0.9315904 0.84765434
000010 c0 d9 17 bf 59 fa b8 bf ea c9 d2 bd 8d ed 95 be
       -0.59316635 -1.44514 -0.10292418 -0.292828
000020 6a 49 e9 3d d9 e0 0b bf a5 68 a8 bd 57 9a 9e 3f
       0.11390956 -0.54639965 -0.08223084 1.2390851
000030 b9 31 a6 bd d8 a3 3c bc 65 55 73 bd cc 32 e0 bd
       -0.081149526 -0.011513673 -0.05940761 -0.10947189

conv2.weight f4 [32, 16, 5, 5]
000000 b7 1a 39 bd 5c c4 3f 3c ae 93 02 3d 6c ca 98 b8
       -0.045191493 0.011704531 0.03187912 -7.285629e-05
000010 be 4a 04 3d 04 c8 9b bc 1c 8b c2 3c 29 f3 17 3d
       0.032297842 -0.019016273 0.023747973 0.03709713
000020 1d f2 16 bc e9 3e 13 3c 62 b9 9f bb d7 b5 fc bc
       -0.009212998 0.008987167 -0.0048743943 -0.030848427
000030 cb a8 15 bd 83 01 9f bc 4d 81 74 3c b9 ea f1 bc
       -0.036537927 -0.0194099 0.014923406 -0.02953087
000040 63 cf 15 3d 6d 1c 3e bd 19 bf b1 bc fb 06 01 3c
       0.036574733 -0.046413828 -0.021697568 0.007875199
000050 24 57 c0 3c ae 23 c2 bb d0 02 cf 3c b2 3a 42 bd
       0.023479052 -0.0059246635 0.025269896 -0.047419257
000060 b5 5d 19 3d 4a ce c8 3c a3 de a1 bc 1b 15 42 3d
       0.03744288 0.024512429 -0.019759482 0.04738341
000070 f3 01 fa bb cd f7 52 3b ff 94 14 bd 2d 98 dd bc
       -0.007629627 0.0032191158 -0.036274906 -0.027050102
000080 b3 4f 18 3b dd 5c 3a 3d 9a 3b b3 3a 47 9a 44 bc
       0.0023240864 0.045498718 0.0013674379 -0.011999673
000090 fa 13 23 3c 70 a2 4b 3d 90 e8 3a 3d 53 7a bf bc
       0.009953493 0.04971546 0.045631945 -0.023373758
0000a0 0d 46 58 bc 53 ad 70 3c 22 63 3d bd dd cb d5 bc
       -0.013200295 0.014689761 -0.04623712 -0.026098186
0000b0 5b fe 19 3d d5 a2 2b 3d 5a 96 f9 bb 73 75 fb 3c
       0.037596088 0.041903336 -0.0076168003 0.030695653
0000c0 bd b0 25 3d 0d fb 79 bc d2 47 f3 bd d1 b9 77 bd
       0.040451754 -0.015257609 -0.11878933 -0.060479943
0000d0 f7 ae f7 3b 10 fc b6 3d f9 85 4b 3e 65 17 2f be
       0.007558699 0.08934796 0.19875325 -0.17098768
0000e0 53 65 ce bd 95 ca 31 3d a9 30 ad 3d 2c 6e 2c 3e
       -0.1007792 0.043406088 0.08456547 0.16838902
0000f0 12 21 71 be 72 60 f2 bd aa b9 50 bd aa 75 86 3d
       -0.23547772 -0.11834802 -0.050958313 0.065654114
000100 37 b3 e3 3d 37 45 1a be 84 ab 27 be 4c 85 8b bd
       0.11118167 -0.15065466 -0.16374022 -0.06812534
000110 01 a9 60 bd ae ab f4 bb d1 2c 59 be de e5 e6 bd
       -0.054848675 -0.007466755 -0.21208502 -0.112743124
000120 5a e7 db bd 74 ad fa bd 55 9a cd bd fe b5 5d 3e
       -0.10737486 -0.12240115 -0.10039202 0.21651456
000130 77 19 c5 3d 6e 67 91 ba 17 8c 38 be fb 82 8d be
       0.09623998 -0.0011093447 -0.1802219 -0.27638993
000140 c8 56 4a 3e c1 59 a2 3d da b9 cb 3c 68 76 21 be
       0.19759667 0.079272754 0.024868894 -0.15767825
000150 6e 36 46 be 83 be eb 3d 4a d6 ca 3d b4 24 45 bb
       -0.19356701 0.115109466 0.09904154 -0.0030081691
000160 d4 8d 2f bd 6c 06 2b be bb 5d ae 3d b1 05 7b 3d
       -0.042859867 -0.16701669 0.085139714 0.061284725
000170 b2 35 7c 3d 01 d1 b8 3b 09 4a 0a bd 0f 5b 06 3d
       0.061574645 0.0056401496 -0.03376201 0.032801684
000180 c4 2e 85 3d c8 f1 8c 3d 3c 50 9a bc f0 e3 5f bd
       0.065030605 0.068820536 -0.018837087 -0.054660738
000190 6f ce 21 3c 94 79 a2 3d cb 47 6c 3c 34 84 51 3d
       0.009875878 0.079333454 0.014421414 0.05115147
0001a0 ae 24 54 bc f2 3e 2d bd 9b 29 40 bb 67 0e da 3d
       -0.012948198 -0.042296357 -0.0029321674 0.10647278
0001b0 3e ef 55 3d cc 0d cf bc 73 95 0c bb c5 1e 84 3d
       0.052230112 -0.025275134 -0.0021451383 0.06451181
0001c0 a2 06 c9 3d f2 f2 9d 3d c3 32 73 3d 87 23 49 bc
       0.09815718 0.07712354 0.059374582 -0.012276537
0001d0 c0 1c 3c 3d ae db 73 3d d5 46 90 3d 63 ee 65 3d
       0.045925856 0.059535675 0.0704476 0.056135546
0001e0 86 dc 8f bc c5 99 1e bd 94 4b 4a 3d ec 38 bc 3b
       -0.017561208 -0.038720865 0.049388483 0.0057440903
0001f0 92 33 12 3d 6d 18 bc bd 48 57 5e 3d 88 6c 2b 3e
       0.035693713 -0.09184346 0.054282457 0.1674062
000200 bd 01 10 3e 5d e3 6a 3e 53 37 5c be 75 08 9a bd
       0.14063163 0.22938295 -0.2150548 -0.07521144
000210 f8 8e ec 3d a9 7f 31 3e c1 be 88 3e 03 65 ab be
       0.115507066 0.17333855 0.26708034 -0.33475503
000220 03 b1 49 be 36 18 4a 3c 81 a4 1e 3e 69 a9 62 3e
       -0.19696431 0.012334874 0.15492441 0.22134937
000230 1f a1 b1 be d2 b3 6c be 02 38 ae bd ae 8c 12 3d
       -0.34693238 -0.23115471 -0.085067764 0.035778694
000240 e8 22 d2 3d 0e cb 83 be bb b2 50 be cd e2 23 be
       0.10260564 -0.25740856 -0.2038068 -0.16004486
000250 fb 7b 03 be 2a 92 8d bd 48 48 1b bd ed d7 b9 bc
       -0.12840264 -0.06912644 -0.03791073 -0.02268597
000260 43 85 06 bd 5e 13 86 bb 3c db ca bc 10 ce 14 3d
       -0.032841932 -0.004091664 -0.024762742 0.03632933
000270 7d 4c 21 3d 2c ee 37 3c e7 fc 0a bd 34 e6 a1 3c
       0.039379586 0.011226218 -0.033932593 0.01976309
000280 54 68 07 3a fd 14 7f 3c cb 75 92 bc 53 fa de bc
       0.00051653874 0.015568969 -0.017878434 -0.027218973
000290 4b ba 6c bc c8 2a f2 bb e7 8d 06 bd 2c c1 46 3c
       -0.014448713 -0.007390354 -0.032850172 0.012131017
0002a0 27 a8 09 bd 3d 17 65 3c 46 41 8c 3c cc 95 62 3c
       -0.03360763 0.013982591 0.017120969 0.01382966
0002b0 17 e6 81 bc 08 3c f0 3c e6 f3 ab bb 6f 5f 44 3e
       -0.015856786 0.0293255 -0.005247581 0.1917703
0002c0 e4 34 88 3e a1 01 35 3e 9d c2 28 3d 71 fd 2c be
       0.26602852 0.17676403 0.041201223 -0.16893555
0002d0 aa 1e bb 3d 64 ff 64 3e 41 d8 57 3e 53 dd 4d 3d
       0.09136708 0.22363049 0.21078588 0.0502599
0002e0 74 db 7a bd 09 5b b7 3c b7 84 02 3e 68 8c 2f 3e
       -0.061244443 0.022382276 0.12745939 0.17143404
0002f0 20 85 d9 3d 90 38 92 3d 74 4b 28 3d 52 df be 3c
       0.10621095 0.07139695 0.041087583 0.023299847
000300 d8 b2 8b 3d 2a 12 bd bc a6 32 51 3d b9 c9 22 bd
       0.06821221 -0.02307995 0.051073693 -0.03974316
000310 66 60 52 3b 82 35 16 bd 33 85 63 ba dc c7 27 3b
       0.0032100915 -0.036672123 -0.0008679211 0.0025601303
000320 c8 51 20 bd e7 87 e3 3b 90 4a 28 bd cd 84 8e b9
       -0.039140493 0.006943691 -0.041086733 -0.00027183295
000330 40 9c 2a 3d 93 3d 7c bc 6f cb 28 bd cd 04 bd b9
       0.041652918 -0.01539554 -0.041209634 -0.00036052466
000340 6f bc 40 3d 88 f1 2c bd 9a 1f 83 bb 2a 0f 8a bc
       0.047054704 -0.04222253 -0.00400157 -0.016852934
000350 cf 97 3d 3d 0d 73 ce 3c 67 cf bd ba 2f f7 09 3d
       0.046287354 0.025201345 -0.0014481366 0.033683
000360 10 30 fd 3c 67 06 2b 3c 6f 04 11 3d 9a 52 49 3c
       0.030906707 0.010438538 0.03540462 0.01228776
000370 fd f1 e0 3c 08 9f 26 3d 4d a1 1c 3c 2d 56 b8 3c
       0.027459139 0.040679008 0.0095599415 0.02250203
000380 77 ec 36 3d 88 67 bc bc 08 d0 12 bd 15 ad 05 be
       0.044659104 -0.022998586 -0.035842925 -0.13054307
000390 b2 4e 05 be 4b 99 67 bd 04 73 c1 bd ba 89 a6 bd
       -0.13018301 -0.056542676 -0.094457656 -0.08131738
0003a0 c4 b2 2c be 53 a6 9b bd 41 ad f0 bb 83 cd 30 bd
       -0.16865069 -0.07600083 -0.007344872 -0.04316474
0003b0 f4 a9 cf bd 33 04 04 be 70 03 2c bd 36 81 92 bd
       -0.10139838 -0.12892227 -0.041995466 -0.07153551
0003c0 26 e4 82 bd c9 b7 59 bd d2 7e 23 bd a3 fc 15 bd
       -0.06391172 -0.053153787 -0.039915867 -0.036617886
0003d0 04 8d cf bd 33 e2 91 bc 2d aa 40 bd 73 67 08 3d
       -0.101343185 -0.017808056 -0.047037292 0.033301782
0003e0 7b 0b b7 bb e9 5e c1 bd ac 74 25 bd bd 0a 17 3c
       -0.0055860854 -0.09441931 -0.04039447 0.009218869
0003f0 c7 e0 db 3c 40 41 c0 bc 00 ee 2d ba 47 fa 0c 3c
       0.02684058 -0.023468614 -0.0006634891 0.008604593

conv2.bias f4 [32]
000000 94 77 97 bd 94 98 dc bd a4 f9 2b 3f 30 2d 18 be
       -0.073958546 -0.107712895 0.67177796 -0.14860988
000010 bd ce d7 3d 8f 0e 23 b9 97 50 3e bd c2 9b c3 3c
       0.10537479 -0.00015550315 -0.046463575 0.023877982
000020 b8 50 67 be 25 62 74 be 8e 3b d0 be 8f 1c 8a bd
       -0.22589386 -0.23865564 -0.40670437 -0.06743728
000030 f4 aa a1 bc 6a 04 c2 3d 44 1a 9b be c5 80 a0 3e
       -0.019734837 0.09473498 -0.30293477 0.31348243
000040 e7 91 eb 3e 38 a4 c8 be fe f6 0e 3f 93 17 2c 3d
       0.46009752 -0.3918779 0.5584563 0.04201467
000050 ae 3c c2 3e 2b ff f6 3b d2 4e 3c 3e dc 86 6c be
       0.3793692 0.0075377426 0.18389443 -0.2309832
000060 6e 28 88 bc 06 6b 80 3f bb 62 f6 be 64 51 bc 3d
       -0.01662084 1.0032661 -0.481222 0.091952115
000070 6c d3 8a 39 1f 81 d0 be fc e6 78 bc f6 78 bf be
       0.00026478933 -0.40723512 -0.01519179 -0.37396973

fc1.weight f4 [10, 5408]
000000 3e a1 2d bc 20 69 40 3d 46 9e 2c 3c 87 d4 a1 bc
       -0.010597525 0.046975255 0.010535782 -0.019754661
000010 79 24 e7 3c 99 03 cb bc 00 cb 34 3d a4 d9 50 3c
       0.028215634 -0.024781989 0.04413891 0.012747202
000020 dc 9f 92 3c 1a 0a 66 3c f1 e7 28 3d de c3 d3 3c
       0.017898493 0.014040494 0.04123682 0.025850233
000030 fc 05 1b 3d fd e9 c4 3d b4 9a 46 3c 3c b2 20 3c
       0.037847504 0.09614942 0.012121845 0.009808119
000040 57 23 df 3d 7c 30 be 3d 3e 85 40 bb 17 0c cb bb
       0.108954124 0.092865914 -0.0029376294 -0.0061965096
000050 57 64 80 bb bb 4c 32 3d 16 cd 4f 3d c7 88 36 bd
       -0.0039182114 0.043530207 0.050732695 -0.044564035
000060 3b fd 51 3d df b3 58 3d f9 62 9d 3d 8f 27 00 3d
       0.05126689 0.052905913 0.07684893 0.031287726
000070 cf fd 63 3d a4 74 41 3d b1 f8 79 3d 5a dc de bb
       0.055661973 0.047230378 0.061028186 -0.0068011703
000080 ed bd cd 3c a7 72 b6 3d 5d c1 10 3c e7 fc 09 3d
       0.025114978 0.08908587 0.008835164 0.033688452
000090 30 73 01 ba 31 1b ee 3b ba dc 2e 3d 43 7c 8c 3c
       -0.0004938124 0.007266425 0.04269097 0.017149096
0000a0 88 30 63 39 ce f5 a1 3a ad 62 b8 ba c9 1f f3 3c
       0.00021666486 0.0012356581 -0.0014067494 0.029678242
0000b0 95 6b b9 39 5e fb dd 3c 62 c8 bb 3d 33 ce 31 3a
       0.00035366105 0.0270974 0.09169079 0.000678274
0000c0 1c ca ba 3c d5 bd f8 3c 07 34 75 3d 44 0b 62 3d
       0.022801451 0.030363956 0.05986407 0.055186525
0000d0 32 94 7c 3d 9f 5e 42 bc 3a 8f 5e 3d 7f 0f 36 3d
       0.061664768 -0.01186338 0.05433581 0.044448372
0000e0 0d 44 9f 3c db 0e 78 3b 5d db 40 3d 1a fe 77 3d
       0.019441629 0.0037850651 0.0470842 0.060545065
0000f0 88 13 1d 3d b1 ae 00 3d 51 3b 38 3d 03 e4 ca 3c
       0.038348705 0.0314166 0.044978444 0.024766928
000100 42 5b 09 3d e5 4b 34 bc da ca a6 bb cf b8 8c 3c
       0.033534296 -0.011004423 -0.0050900998 0.017177967
000110 7a 6f 19 3c 87 7a 72 bc 78 b6 66 bc 1b 08 74 3d
       0.009364957 -0.014799721 -0.01408159 0.059578042
000120 db 60 3c 3d a5 a3 2f bd 99 bc 52 3b ae fa 2f 3c
       0.045990806 -0.042880673 0.003215587 0.010740919
000130 55 45 04 3d 7f d5 0a 3c 82 09 cc 3c 13 5f 2f bd
       0.032292683 0.008473753 0.024906877 -0.04281528
000140 d2 24 a7 3c 84 00 24 3c 3e 68 5b 3c 7d 2b 3e bc
       0.0204033 0.010009889 0.0133915525 -0.011607048
000150 31 9e 2e 3c 33 b5 24 3d 91 21 38 3d aa aa dc bc
       0.010657833 0.040211868 0.044953886 -0.026936848
000160 ac af e8 ba bf 4a 79 3c 98 7c c6 3c f1 68 5f 3d
       -0.001775255 0.015215575 0.024229333 0.05454344
000170 7e 23 fd 3c 4f e9 8f 3d fd 83 ac 3c ac d7 4e 3d
       0.030900713 0.07026922 0.02105903 0.05049865
000180 58 53 ba 3c e0 a1 76 bc 16 36 69 3c 02 90 b8 3b
       0.02274482 -0.015053242 0.0142340865 0.0056324014
000190 25 c6 95 3c 5d a9 a2 bc 26 78 12 3c cb 9e b6 3c
       0.01828296 -0.01985615 0.008939778 0.022292515
0001a0 18 50 92 3d 52 14 03 bd 21 2c f0 3c 80 5b a7 3c
       0.07144183 -0.0320018 0.029317917 0.020429373
0001b0 c0 9a 66 3d e8 61 f7 3c 29 0a a8 3d aa 25 78 3d
       0.056299925 0.030198053 0.08205063 0.060582794
0001c0 64 65 2b bd 62 04 b8 3d c7 41 a0 3c c3 93 33 3d
       -0.04184474 0.08985211 0.019562615 0.04384209
0001d0 b1 68 44 bd 03 6e 6c 3d bc 23 07 bd cb 48 83 bc
       -0.047951404 0.057722103 -0.032993063 -0.016025921
0001e0 cb 55 b0 bb 38 d4 48 3c 56 3f 02 3c 8f 94 92 3c
       -0.005381321 0.012257628 0.007949671 0.017893104
0001f0 f0 be 9b 3c 34 a7 34 3d 38 fb 0a 3d f8 51 e5 3c
       0.019011945 0.04410477 0.033930987 0.027993187
000200 6c be ed 3c 34 62 8f 3b e1 10 32 3d 9d 72 25 3c
       0.029021464 0.0043757204 0.04347313 0.010098127
000210 cb f6 bf 3c 5d 14 fe 3b 09 3e 0b 3d 27 a9 bf 3c
       0.02343311 0.0077538923 0.03399471 0.023396088
000220 c6 39 98 bc 7a 56 72 bc fd 33 82 3d 53 d8 6b 3a
       -0.018582236 -0.014791125 0.06357572 0.00089967734
000230 fa 0a 9d ba a5 14 02 bb 9a d1 d3 bb c1 06 62 3c
       -0.0011981421 -0.001984873 -0.0064641954 0.013795556
000240 4d 5f c8 3b 29 05 0a bd ef 02 68 3d dd 3a 5f 3b
       0.0061148764 -0.033696327 0.056643423 0.0034062185
000250 4d 82 16 3c 22 18 c2 3b c0 66 45 3d 38 25 3e 3d
       0.00918634 0.005923287 0.048193693 0.046422213
000260 a1 19 db bc f0 01 27 bc 38 89 44 bb 15 bc d5 3c
       -0.02674562 -0.010193333 -0.0029989015 0.026090661
000270 94 82 83 bc 07 c3 5c 3b d5 fa d7 3c 43 08 77 3d
       -0.016053475 0.0033685581 0.026364723 0.060310613
000280 60 72 c7 3c b7 4d 51 bd 48 ca a8 3c 21 b0 19 3d
       0.02434653 -0.051099505 0.020604268 0.037521485
000290 82 83 13 3d 88 87 cb 3a e9 20 e3 bc 99 08 ab 3c
       0.036014087 0.0015528062 -0.027725654 0.020878123
0002a0 48 7c 00 3d 6a 8f ea 3c a0 a9 44 3d 89 dc 60 3d
       0.031368524 0.028632838 0.04801333 0.05489782
0002b0 8e 05 dc 3c 41 6f 2a 3d f8 f3 11 3d 62 97 00 3d
       0.026858117 0.041610006 0.035633057 0.03139437
0002c0 44 3a e7 3c 8c 12 52 3d 4b dc e4 3c 8c 51 98 3b
       0.028226025 0.05128722 0.027937075 0.004648393
0002d0 52 d2 40 3b 4a 12 cf bb 29 cc ea 3c 54 24 23 3d
       0.0029422236 -0.006319319 0.028661804 0.039829567
0002e0 7b f6 44 3c dd 3b 0e 3d 6a 4f f8 3c ae 29 16 3d
       0.012021656 0.03472506 0.030311305 0.036660843
0002f0 ae d4 8e 3c f8 c1 a5 3c 6c 53 2b 3c 9a 87 d3 3c
       0.017435398 0.020234093 0.010456901 0.025821496
000300 27 84 1d 3c 24 55 a4 bc 4e 1b 6b 3b 63 c3 26 3d
       0.009614027 -0.02006013 0.003587443 0.04071368
000310 c5 ab 4e 3d 5a c8 f1 3c 0f 7f 0c 3d e7 79 4d 3d
       0.05045678 0.02951448 0.03430086 0.050165083
000320 eb a8 e1 3c ea 7a 1b 3d 3a 44 17 3c b5 10 dc bb
       0.027546367 0.037959017 0.009232575 -0.006715859
000330 08 42 ab 3c 4b 51 95 3c d8 8e 13 3d 65 0c 07 3d
       0.02090551 0.01822724 0.0360249 0.032970805
000340 13 2c 7b 3d b0 f7 78 3d 31 d5 0f 3d 61 2e 99 3c
       0.06132133 0.06078309 0.035115425 0.018698873
000350 1f 9c 39 3c 27 8b 9c 3c 51 e0 0d 3d ce be bd 3c
       0.011328726 0.019109322 0.034637753 0.023162272
000360 10 4a cc 3c 0d 27 d6 3c 39 3b cc 3c d2 9f 70 3c
       0.02493766 0.026141668 0.024930583 0.014686542
000370 2a fa 0b 3c c3 e4 fe 3c 92 9b 33 3d ab ea db 3c
       0.0085435305 0.031114941 0.043849535 0.026845297
000380 0a 39 93 3b f9 22 a9 bb ed 4b ce bb 3f 4e 2c 39
       0.0044928836 -0.00516164 -0.006295672 0.00016432347
000390 92 ca 02 3c 64 43 3e 3c 35 b3 85 3b ac 9c 1a 3d
       0.007982867 0.011612747 0.004080201 0.03774707
0003a0 14 9c 88 3c cd 60 2b 3d 65 2c 41 3d 58 73 eb 3c
       0.016675986 0.041840363 0.04716148 0.028741524
0003b0 5c 42 12 3d 01 35 72 3c 28 f2 6f bb 3a be af 3b
       0.035707816 0.014783145 -0.0036612842 0.005363253
0003c0 c9 29 04 3c 9f c6 66 3c e3 d5 97 3c a1 56 e2 3b
       0.008066603 0.014085441 0.018534606 0.0069072996
0003d0 4c f4 c1 3a d5 bc df 3b bf bb 5e 3c aa ea 4f 3d
       0.0014797538 0.0068279305 0.013594567 0.050760902
0003e0 06 fe 27 3d 53 93 9d 3c 9c 01 2d 3d a8 ca 59 3c
       0.04101374 0.019235289 0.042237863 0.013292946
0003f0 53 bf 9f 3c 1f e2 15 3d 7d 15 27 3d e8 f2 14 3d
       0.01950041 0.0365926 0.040791977 0.036364466

fc1.bias f4 [10]
000000 45 73 61 3d 99 11 79 3d e8 1e 14 3f 36 a0 e4 bd
       0.05504157 0.060807798 0.5785966 -0.1116337
000010 42 d1 00 bf 2e fa a8 bb 47 9d 44 be 50 cc 97 bc
       -0.503193 -0.005156777 -0.19200622 -0.018530041
000020 cf b6 7f bd c7 4e 24 3e
       -0.0624302 0.16045676
