assignment_2_cnn/Model/Simple-CNN/model.pth (torch, 274804 bytes, 6 tensors)

conv1.weight f4 [16, 3, 5, 5]
0	0x3d8e92c9	0.06961591
1	0xbe676551	-0.22597243
2	0xbe7f7ac1	-0.2494917
3	0x3d285d58	0.041104645
4	0x3cdb5b1a	0.026776839
5	0x3c4ae85f	0.012384503
6	0xbe79b567	-0.24385606
7	0xbe040d0b	-0.128956
8	0xbc8935d2	-0.016749296
9	0xbcb76420	-0.02238661
10	0xbd70be2b	-0.05877511
11	0x3d69ae17	0.05705079
12	0x3e442d94	0.19158012
13	0x3ddb0203	0.10693743
14	0x3d9111c4	0.07083467
15	0x3e0711cd	0.13190384
16	0x3d73213d	0.05935787
17	0x3e072b15	0.13200028
18	0x3c824e68	0.015906528
19	0xbd9909e7	-0.07472592
20	0x3d214012	0.039367743
21	0x3e8e7ea2	0.27830988
22	0x3cdcacfc	0.026937954
23	0xbe45f6e3	-0.19332461
24	0xbb24c468	-0.0025141481
25	0x3d49b174	0.049241498
26	0xbe74f8a1	-0.2392297
27	0xbe86711d	-0.26258174
28	0xbe66cec1	-0.22539808
29	0xbe2ae212	-0.16687801
30	0xbe3fc355	-0.18726857
31	0xbe6cf6ed	-0.2314107
32	0xbe376019	-0.17907752
33	0xbe09a77b	-0.13442795
34	0xbc667de3	-0.0140681
35	0x3c0d18d0	0.008611873
36	0xbda304f6	-0.079599306
37	0x3e1bc0e0	0.15210295
38	0x3e0dc9bb	0.13846485
39	0xbd5223be	-0.051303618
40	0xbdacd46f	-0.08438956
41	0x3df4c1b6	0.1195101
42	0x3e841b34	0.25802004
43	0x3d433b3a	0.047663905
44	0xbd8bce03	-0.06826403
45	0x3ddad452	0.10685028
46	0x3e91ad2b	0.2845243
47	0x3dcfe9b7	0.101519994
48	0xbe2602b8	-0.16211975
49	0xbe29d916	-0.16586718
50	0xbd3200dc	-0.04345785
51	0xbe04bd82	-0.12962916
52	0xbe2e9ae4	-0.17051274
53	0xbda006b1	-0.07813776
54	0xbc219d14	-0.0098641105
55	0xbd232dfd	-0.03983878
56	0xbe0aaa11	-0.13541438
57	0xbe00e972	-0.12589052
58	0xbdc2124f	-0.09476148
59	0xbcb59934	-0.02216778
60	0xbdad7553	-0.084696434
61	0x3dbe7335	0.09299318
62	0x3e30abf4	0.17253095
63	0x3e3d7ebe	0.1850538
64	0x3d8c76d3	0.068586014
65	0x3e2fb001	0.17156984
66	0x3e784f4d	0.24249001
67	0x3eb32652	0.34990174
68	0x3d19a42f	0.037510093
69	0x3cd4da2c	0.025982939
70	0x3e1f5be0	0.15562391
71	0x3ea381cd	0.31934968
72	0x3df87a6a	0.12132724
73	0xbe076d08	-0.13225186
74	0xbb84255a	-0.004032773
75	0xbe6379f4	-0.2221449
76	0xbe251b4e	-0.16123697
77	0xbdb7dd35	-0.08977739
78	0x3d92a8ed	0.07161126
79	0x3ea8e616	0.32988042
80	0xbdb22de1	-0.08700157
81	0xbdd64728	-0.10462791
82	0x3e0c3573	0.13692264
83	0x3e93f60a	0.2889865
84	0x3e6ecd99	0.23320617
85	0xbe43a53d	-0.19106002
86	0xbe5bbdf5	-0.21459182
87	0x3d85a38e	0.06525336
88	0xbd357a91	-0.04430634
89	0x3def3110	0.1167928
90	0xbe17c52e	-0.14821312
91	0xbdbe60a0	-0.092957735
92	0xbe7085da	-0.2348856
93	0xbe40ca93	-0.18827276
94	0xbc9bbcd0	-0.019010931
95	0xbe307880	-0.17233467
96	0xbe31d94e	-0.17368051
97	0xbdca96f0	-0.0989207
98	0xbe337984	-0.17526823
99	0xbe5288fa	-0.20560065
100	0x3de2b441	0.11069537
101	0x3e2fc1f6	0.17163834
102	0x3e6c1919	0.23056449
103	0x3efe3eb8	0.49657226
104	0x3f086376	0.53276765
105	0x3e65d485	0.22444351
106	0x3e82d983	0.25556573
107	0x3e9524fb	0.29129776
108	0x3efe63e1	0.49685577
109	0x3efc5721	0.49285224
110	0x3dd147c9	0.1021877
111	0x3e941bba	0.28927404
112	0x3e3c31eb	0.18378417
113	0x3eabf935	0.33588567
114	0x3e897ce0	0.26853085
115	0x3de635cc	0.1124073
116	0x3e17e932	0.1483505
117	0x3d97241e	0.07379936
118	0x3e3a5c57	0.18199287
119	0x3e931936	0.28730172
120	0x3d50e1b0	0.050996482
121	0x3df11c05	0.117729224
122	0x3b9f7f7b	0.004867492
123	0x3dc63fa5	0.09680108
124	0x3e75d3bf	0.24006556
125	0xbe12d3b7	-0.14338575
126	0xbe9af2bf	-0.30263326
127	0xbe52d081	-0.2058735
128	0xbd51ad61	-0.051190738
129	0x3caf49c3	0.021397477
130	0xbe76bda7	-0.24095784
131	0xbe74d921	-0.23910953
132	0xbe3fbc15	-0.18724091
133	0x3dab0f43	0.0835252
134	0xbd1545f6	-0.036443673
135	0xbe81eea6	-0.25377387
136	0xbe31c62a	-0.1736075
137	0xbe0b4748	-0.1360141
138	0xbd91a9cf	-0.071124665
139	0xbe29ed23	-0.16594367
140	0xbe9755bf	-0.29557607
141	0xbded6eb7	-0.11593383
142	0xbe0fb1b5	-0.14032634
143	0xbea42ff6	-0.3206784
144	0xbe4ecdd4	-0.20195705
145	0xbe8c276a	-0.2737382
146	0xbeb3a2f4	-0.3508526
147	0xbe71f29f	-0.23627709
148	0xbea35ff8	-0.31909156
149	0xbeab136f	-0.33413264
150	0x3df80432	0.12110175
151	0xbd281ff3	-0.041046094
152	0xbbe0bd12	-0.0068584764
153	0xbe0eed16	-0.13957629
154	0xbe909de8	-0.28245473
155	0xbcddb83e	-0.027065393
156	0xbdc6c90c	-0.097063154
157	0xbda1baf7	-0.07896989
158	0xbe536e7e	-0.20647618
159	0xbe6dcb83	-0.23222165
160	0x3e87c3d8	0.26516604
161	0x3d0d9b88	0.034572154
162	0xbc8d753b	-0.017267814
163	0xbddc43d3	-0.10755124
164	0xbd46faf2	-0.048579164
165	0x3e672293	0.22571783
166	0x3df217d8	0.11820954
167	0xbe2ec519	-0.17067374
168	0xbe03f09b	-0.12884752
169	0xbe8fca3d	-0.28083983
170	0xbd5a9ce5	-0.053372283
171	0x3d741969	0.059594546
172	0xbe221acb	-0.15830533
173	0xbea80092	-0.32812935
174	0xbe97f8ba	-0.2968195
175	0x3e351206	0.17682657
176	0x3d318050	0.04333526
177	0xbe0e7e87	-0.13915454
178	0xbe4db12f	-0.20087121
179	0xbe29a156	-0.16565451
180	0x3e59afd9	0.21258487
181	0xbce74296	-0.028229993
182	0xbe43a3a8	-0.19105399
183	0xbe89318b	-0.2679561
184	0xbe0f88da	-0.14017048
185	0x3e962193	0.2932249
186	0x3ea096e6	0.31365126
187	0x3de5dade	0.11223386
188	0xbc040ac0	-0.008059204
189	0xbb7fab11	-0.0039011876
190	0x3e853dfa	0.26023847
191	0x3e9ca68a	0.3059581
192	0x3d5df7e9	0.054191504
193	0xbdb2428a	-0.087040976
194	0xbd7f63c1	-0.062350992
195	0x3e207b44	0.15672022
196	0x3d235508	0.039876014
197	0x3d1fd532	0.03902168
198	0xbe49cecc	-0.19707793
199	0xbe7112ea	-0.23542371
200	0x3e3afcae	0.18260452
201	0x3e855e25	0.2604839
202	0x3df94da9	0.121730156
203	0xbdf592ed	-0.119909145
204	0xbdca66c9	-0.09882886
205	0x3e7b2970	0.24527526
206	0x3d7199a8	0.05898443
207	0x3ce5a036	0.028030496
208	0x3d046d32	0.0323307
209	0x3c748870	0.014925107
210	0x3ebc8a1f	0.36824128
211	0x3ee7309d	0.45154276
212	0x3d690876	0.056892835
213	0x3b5f6fe3	0.003409379
214	0x3df88686	0.12135033
215	0x3eef32b8	0.46718383
216	0x3ee92824	0.45538437
217	0x3e3f1946	0.18661985
218	0x3e25b3af	0.16181825
219	0x3debdc85	0.1151667
220	0x3ea48c64	0.3213836
221	0x3e496880	0.1966877
222	0x3e3475c8	0.17623055
223	0xbd18bf72	-0.03729195
224	0xbdaf9888	-0.08574015
225	0xbb27e899	-0.0025620817
226	0xbdae22a1	-0.08502699
227	0xbd8a68f3	-0.06758299
228	0x3c8ed187	0.017433895
229	0xbd9501fd	-0.0727577
230	0x3d2b7686	0.04186108
231	0xbdb1a46c	-0.08673939
232	0x3de6b368	0.11264688
233	0x3d70fbd8	0.058833927
234	0xbd0f5fee	-0.035003595
235	0xbde83a0b	-0.11339196
236	0xbdc3ad6c	-0.09554562
237	0xbc2fa303	-0.010720017
238	0x3d67bf0b	0.056578677
239	0x3d2bcf40	0.041945696
240	0x3d63648a	0.055515803
241	0x3de0509c	0.10952875
242	0xbc5629f0	-0.013071522
243	0xbda4cbbf	-0.08046674
244	0xbdcd15af	-0.100139014
245	0xbd6398d0	-0.055565655
246	0x3d2dbeb2	0.04241819
247	0xbdebf2f6	-0.115209505
248	0xbcfa800e	-0.03057864
249	0xbcd0018d	-0.025391364
250	0x3dad1d96	0.08452909
251	0xbc77130e	-0.015080227
252	0xbd97f055	-0.074188866
253	0x3bc3feee	0.0059813177
254	0xbd857dd0	-0.065181375
255	0x3bc644ec	0.0060506966

conv1.bias f4 [16]
0	0xb8a4e490	-7.8627025e-05
1	0x3eb881cb	0.36036524
2	0xbf40b2af	-0.7527265
3	0x3cd21516	0.02564482
4	0xbe31d6a7	-0.1736704
5	0xbde0ea79	-0.10982222
6	0x3e830504	0.25589764
7	0xbdce9b9f	-0.10088276
8	0xbecc50f0	-0.399055
9	0x3f2aaaf8	0.6666713
10	0x3d94d44f	0.07267057
11	0xbfaa7f5b	-1.3320116
12	0xbde7136e	-0.11283003
13	0xbf172e61	-0.59055144
14	0xbe7aeb3d	-0.24503799
15	0xbd740786	-0.059577487

conv2.weight f4 [32, 16, 5, 5]
0	0xbcc4b52d	-0.024012173
1	0x3d90b0e5	0.0706499
2	0x3d01a6ea	0.031653322
3	0x3d1e1bbf	0.03860068
4	0xbb91cc52	-0.0044494057
5	0x3ce461ed	0.027878726
6	0x3d5838a2	0.052788384
7	0x3d6c588e	0.05770164
8	0x3cc1c578	0.02365373
9	0x3d5182b2	0.05115003
10	0x3d3da666	0.046301268
11	0xbc313c69	-0.010817626
12	0x3bca5b72	0.006175452
13	0x3d85abe6	0.06526928
14	0x3d06495f	0.032784816
15	0x3c9c8c7b	0.019109955
16	0xbc4f1be1	-0.012640924
17	0x3bff4659	0.0077903685
18	0x3c273692	0.010205882
19	0x3d8b9bdb	0.068168364
20	0xbbdb027c	-0.006683646
21	0xbcfeaf74	-0.031089522
22	0x3cdb7a69	0.026791768
23	0x3d244c56	0.040111862
24	0x3caa367b	0.020777931
25	0xbd9f0fa0	-0.07766652
26	0xbd810737	-0.06300204
27	0xbdb6465f	-0.08900141
28	0xbd731fb7	-0.059356418
29	0xbd54baac	-0.051935837
30	0xbd013ac6	-0.03155019
31	0xbd2dbe4d	-0.042417813
32	0xbc2f8958	-0.010713898
33	0xbd165863	-0.036705386
34	0xbd51315d	-0.051072467
35	0xbc836456	-0.016039055
36	0xbc91a111	-0.017776998
37	0xbc989f07	-0.018630518
38	0xbd01f1f6	-0.031724893
39	0x3c7b34f4	0.015332449
40	0xbd9f9595	-0.077922024
41	0xbaa03fa4	-0.0012225998
42	0xbd6b9320	-0.057513356
43	0xbd75dfd6	-0.06002792
44	0xbd2b584c	-0.041832253
45	0xbd312919	-0.043252084
46	0xbc909170	-0.017647475
47	0xbd5638e1	-0.052300338
48	0xbd5df572	-0.054189153
49	0xbd6558fc	-0.055993065
50	0x3d3da224	0.046297207
51	0x3d41f83a	0.047355868
52	0x3d6dde37	0.05807325
53	0x3d8d16c8	0.06889111
54	0x3b913c59	0.004432243
55	0x3d0c082a	0.034187473
56	0x3c58cd64	0.013232563
57	0x3cbe424a	0.023224968
58	0x3da8c6b0	0.08241022
59	0x3cb4a77d	0.02205252
60	0x3d4ac55e	0.04950463
61	0x39d7ba6d	0.00041146894
62	0x3d8016af	0.062543266
63	0x3d9781ca	0.07397802
64	0x3ce32401	0.027727129
65	0xbcd9defd	-0.026595587
66	0x3d0f0a8d	0.03492217
67	0xbc4106ef	-0.011781438
68	0x3bb0d492	0.005396434
69	0xbc4f7210	-0.012661472
70	0x3d0ee057	0.034881916
71	0x3c75b469	0.014996626
72	0x3d61fc1e	0.05517208
73	0xbc9051c2	-0.01761711
74	0xbcad2e31	-0.02114019
75	0xbd03908c	-0.032120273
76	0xbd45ffc7	-0.04833963
77	0xbb4e5ad4	-0.0031487243
78	0xb85173b0	-4.9937225e-05
79	0x3d108c38	0.035289973
80	0x3d3eec57	0.04661211
81	0x3cd805aa	0.026369888
82	0x3d2700f3	0.04077239
83	0xbc1f9ee4	-0.009742472
84	0xbd2a76c9	-0.04161719
85	0x3caabbdf	0.020841537
86	0x3ce63a7e	0.028104063
87	0x3d2574b3	0.040394496
88	0xbd1b678c	-0.037940547
89	0x3b5cd135	0.0033694033
90	0xbc30652c	-0.010766309
91	0x3d437efa	0.047728516
92	0x3c8893a5	0.016671965
93	0x3be4b01f	0.006979003
94	0x3d2bb5c3	0.04192139
95	0x3d01ddcd	0.031705666
96	0xbc09949e	-0.0083972495
97	0xbd40e520	-0.04709351
98	0x3d35d76d	0.0443949
99	0x3d2c1136	0.0420086
100	0xbd66da26	-0.056360386
101	0xbcbd0b2c	-0.023076616
102	0xbcae8dd4	-0.021307863
103	0xbd7f2b1d	-0.062296975
104	0xbd29190f	-0.041283663
105	0xbc85d1f1	-0.01633546
106	0xbd8690c3	-0.0657058
107	0xbc6144e8	-0.013749339
108	0xbc13f9f3	-0.0090317605
109	0x3a2f11f2	0.0006678394
110	0xbd66f9d1	-0.056390587
111	0xbd938aec	-0.072042316
112	0xbb62c662	-0.0034603109
113	0xbced5971	-0.028973313
114	0xbb749b02	-0.0037323837
115	0x3cc41d0d	0.023939634
116	0xbd48875d	-0.048957217
117	0xbd8628b8	-0.06550735
118	0xbd1b9c9b	-0.037991147
119	0xbd1d61e7	-0.038423445
120	0xbd35a6b4	-0.044348434
121	0x3b0c6c91	0.0021427015
122	0xbcedca1d	-0.02902704
123	0xbd0791ed	-0.03309815
124	0xbbd4318e	-0.006475634
125	0xbd2b987d	-0.04189347
126	0xbd2f101d	-0.042739976
127	0x3cf66a7d	0.030080074
128	0xbcb778e7	-0.022396518
129	0xbc532fc0	-0.012889802
130	0xbd0fc158	-0.035096496
131	0x3d1f20cd	0.03884964
132	0x3cefe473	0.029283738
133	0x3cbbebd3	0.022939598
134	0xbc5bdb73	-0.01341902
135	0xbd046a30	-0.03232783
136	0xbd42731f	-0.04747307
137	0xbcc69a50	-0.024243504
138	0x3d41c80d	0.047309924
139	0x3d47c0aa	0.048767723
140	0x3cb4c587	0.022066845
141	0x3cff10f1	0.031136008
142	0x3d13f064	0.036117926
143	0x3c9dda9a	0.019269276
144	0xbcc4ed4c	-0.024038933
145	0x3ccabd8a	0.024748582
146	0x3c712eb3	0.014720607
147	0xbc59f9ba	-0.013304168
148	0x3cc14ea7	0.023597075
149	0xbc58e7e1	-0.013238878
150	0xbc5d9b4b	-0.013525794
151	0xbd9bbd0b	-0.076044165
152	0x3b29ac2d	0.0025889978
153	0xbcb71c79	-0.022352444
154	0xbc237a84	-0.0099779405
155	0xbd6821da	-0.05667291
156	0xbd6bc64e	-0.057562165
157	0xbd8135c2	-0.063090816
158	0xbd7beeca	-0.061507024
159	0xbd14c436	-0.036319934
160	0x3d0f0acf	0.034922417
161	0xbd41d436	-0.04732152
162	0xbd0da572	-0.03458161
163	0xbc4839ce	-0.012220813
164	0xbcb11aea	-0.021619279
165	0x3d0dd4d5	0.0346268
166	0xbd3c0a7a	-0.04590843
167	0x3a985e03	0.0011624697
168	0x3c8ab35e	0.016931232
169	0xbc431bf0	-0.011908516
170	0xbc148384	-0.009064559
171	0xbbb7b38a	-0.0056061195
172	0x3d1d074d	0.03833704
173	0xbc612f24	-0.013744149
174	0x3d338ffd	0.04383849
175	0x3d0db717	0.034598436
176	0x3d232dd3	0.039838623
177	0xbc6817cd	-0.014165831
178	0x3d2e24fd	0.042515744
179	0xbcb5cd4a	-0.022192616
180	0xbc72a53a	-0.014809901
181	0x381ad99a	3.691912e-05
182	0xbce46cc0	-0.027883887
183	0x3d05554f	0.03255206
184	0x3d039530	0.0321247
185	0xbd41520a	-0.04719738
186	0xbae8d1cd	-0.0017762721
187	0x3cf769a7	0.030201746
188	0xbd3cb6db	-0.046072822
189	0x3cd588d7	0.026066227
190	0x3c7b0020	0.015319854
191	0x3bdb4b0d	0.0066922964
192	0x3bcbeada	0.006223065
193	0x3d24acb8	0.04020378
194	0xbc8a1690	-0.016856462
195	0x3bdaaa73	0.006673151
196	0x3d09073f	0.033454176
197	0xbd42d532	-0.0475666
198	0x3cb1d787	0.021709217
199	0x3b9022cd	0.00439868
200	0xbd8daed1	-0.06918109
201	0xbc91defd	-0.017806524
202	0x3d028c10	0.031871855
203	0xbd00c23e	-0.031435244
204	0xbd89c415	-0.06726853
205	0xbd5fb664	-0.0546173
206	0xbb32217d	-0.0027180605
207	0xbd59a63e	-0.053137057
208	0x3c756c4b	0.014979432
209	0xbc31592c	-0.010824483
210	0xbd8746e7	-0.066053204
211	0xbd1f02a0	-0.038820863
212	0xbd5b1d90	-0.05349499
213	0xbd343fcc	-0.044006154
214	0xbd953a6b	-0.07286533
215	0x3c8a29a8	0.016865566
216	0xbc15a5ac	-0.0091337375
217	0xbc04af79	-0.008098477
218	0xbb5b05ca	-0.0033420199
219	0xbcf17b92	-0.029477868
220	0xbbbb0bc5	-0.00570819
221	0xbd8af495	-0.067849316
222	0xbd0bec23	-0.034160744
223	0xbcc25718	-0.02372317
224	0xbc9dadaa	-0.019247849
225	0xbca54b61	-0.020177545
226	0xbdaaf08f	-0.08346664
227	0xbd82a178	-0.06378454
228	0xbd92624f	-0.07147657
229	0xbda596e7	-0.08085423
230	0xbcd4ad74	-0.025961615
231	0x3baa4865	0.0051966184
232	0xbd3e8b06	-0.0465193
233	0xbd9247eb	-0.071426235
234	0xbdee1283	-0.116246246
235	0xbca869cc	-0.02055826
236	0xbc6140fe	-0.0137484055
237	0xbd842b38	-0.06453556
238	0xbd9cd878	-0.07658476
239	0xbda8ddb1	-0.08245409
240	0x3d350d5f	0.044202205
241	0x3d59a5cd	0.053136636
242	0x3c0a2dc6	0.008433765
243	0x3d64110c	0.05568032
244	0xbd1ea92d	-0.038735557
245	0x3e193dc7	0.14964972
246	0x3dcabb96	0.098990604
247	0x3d8aa79e	0.06770252
248	0x3cb2f27f	0.021844147
249	0x3d812392	0.063056126
250	0xbc490e4e	-0.012271477
251	0xbd4177d4	-0.047233418
252	0x3cc87678	0.024470553
253	0x3c676a7b	0.014124508
254	0x3c0be451	0.008538322
255	0xbb639ae1	-0.0034729766

conv2.bias f4 [32]
0	0xbd65bc9a	-0.056088068
1	0x3c906a17	0.017628713
2	0x3d28b8f3	0.041192006
3	0xbd47c2cf	-0.04876977
4	0xbe5141ad	-0.2043521
5	0xbc514730	-0.01277332
6	0x3f51d0a3	0.8195898
7	0xbd830ea9	-0.063992806
8	0x3f29c712	0.6631938
9	0x3ebde535	0.37088934
10	0x3dc4a6a3	0.09602096
11	0x3cd39d6d	0.025831902
12	0x3d9b82e0	0.07593322
13	0xbd36d364	-0.04463519
14	0xbc8a6083	-0.016891723
15	0xbcfacf33	-0.030616378
16	0xbe9dad60	-0.30796337
17	0x3d67be16	0.056577764
18	0xbf1c1afb	-0.6097867
19	0x3ec18fda	0.37805063
20	0x3e0d8144	0.13818842
21	0xbe70bb0c	-0.23508853
22	0x3e8f680a	0.28009063
23	0xbd3b0067	-0.04565468
24	0x3cbaf9f0	0.022824258
25	0x3b688abe	0.0035483087
26	0xbdd80298	-0.1054737
27	0xbe1c0b34	-0.15238649
28	0xbe689958	-0.22714746
29	0xbe9efb2f	-0.31051013
30	0x3f51cafe	0.81950366
31	0xbdbbcbeb	-0.09169754

fc1.weight f4 [10, 5408]
0	0x3c93057e	0.017946955
1	0x3c232c13	0.009959239
2	0x3c8e9394	0.017404355
3	0xba2f8ec6	-0.0006696995
4	0x3b28e29f	0.0025769842
5	0x3c992a8a	0.018697042
6	0x3cc235c3	0.023707276
7	0x3c71fdb5	0.014769961
8	0x3cbc83d0	0.023012072
9	0x3cc18b22	0.023625914
10	0x3d2f29c8	0.042764455
11	0x3cbff892	0.023433957
12	0xbba75914	-0.0051070545
13	0x3c98bf48	0.018645898
14	0x3cbe9f4d	0.02326932
15	0x3d0d6de4	0.034528628
16	0x3c87567f	0.016520737
17	0x3ccc3e4d	0.024932051
18	0x3c901fa2	0.017593209
19	0x3c8f9925	0.01752908
20	0x3cd5f7ef	0.0261192
21	0x3c0ee8f4	0.008722533
22	0x3c11af8f	0.008891954
23	0x3ca79366	0.020456027
24	0x3cbe57a8	0.023235157
25	0x3c9459b7	0.018109186
26	0x3c9d8246	0.019227158
27	0x3ce7d1cb	0.02829828
28	0x3c877007	0.016532911
29	0x3c74ad9c	0.01493397
30	0x3cd07a23	0.025448864
31	0x3bcf82bb	0.006332723
32	0x3c991967	0.01868887
33	0x3cf8aa4a	0.030354638
34	0x3c8d3ff9	0.017242419
35	0x3ce53c7f	0.027982948
36	0x3cd64f03	0.026160723
37	0x3b441cb4	0.0029924335
38	0x3bb78700	0.00560081
39	0x3d0d8c42	0.03455759
40	0x3d226a67	0.039652254
41	0x3d1ba97d	0.038003433
42	0x3cdf8236	0.02728377
43	0x3c4d4f0d	0.012531054
44	0x3cfb8e3d	0.030707473
45	0x3bd8756e	0.0066057956
46	0x3c19b23b	0.009380872
47	0x3c715bf3	0.014731395
48	0x3ccd0a38	0.025029287
49	0x3cebf2da	0.028802324
50	0x3cce31d7	0.02517025
51	0x3bf17272	0.0073683793
52	0x3d52a014	0.051422194
53	0x3cfe96ea	0.03107782
54	0x3cfbd12a	0.030739386
55	0x3d0439ff	0.032281872
56	0x3c4e6156	0.012596449
57	0x3ca67dcb	0.020323655
58	0x3cce68ad	0.025196398
59	0x3b7bf667	0.0038446428
60	0xbbcdaf9f	-0.006277039
61	0x3c1ca823	0.009561571
62	0x3caef795	0.02135829
63	0x3ced6be3	0.028982108
64	0x3d0d4e33	0.034498405
65	0x3cacc747	0.021091117
66	0x3cb37911	0.021908315
67	0x3c3019b9	0.01074832
68	0x3ca5216a	0.020157535
69	0x3d03e470	0.032200277
70	0x3d02b77a	0.031913258
71	0x3cb36029	0.021896439
72	0xbb07fc40	-0.0020749718
73	0x3ae12249	0.0017176355
74	0xbb78c7b7	-0.0037960836
75	0x3b8077bb	0.003920523
76	0x3c849bfe	0.016187664
77	0x3c1a4484	0.009415749
78	0x3c8d543d	0.017252082
79	0x3b5ba28c	0.0033513634
80	0x3c84bef4	0.016204335
81	0x3d35910a	0.044327773
82	0x3c9b2fc4	0.018943675
83	0x3ca4fda7	0.020140482
84	0x3d2c6194	0.042085245
85	0x3ce3fe21	0.027831139
86	0x3ce132e3	0.027490085
87	0x3c619b04	0.013769869
88	0x3c4edc94	0.012625832
89	0x3c2775bf	0.010220944
90	0x3b20ea79	0.002455382
91	0x3ccbf6e2	0.024897996
92	0x3c255706	0.010091549
93	0x3c2a4276	0.010391822
94	0x3ced4561	0.028963747
95	0x3c44c713	0.012010354
96	0x3bffe8c3	0.00780973
97	0x3c8bab64	0.017049499
98	0x3d1cc544	0.038274065
99	0x3cd0ce4d	0.025488997
100	0x3bdb7dc0	0.00669834
101	0x3cec380b	0.028835317
102	0x3bc1bf7c	0.0059127193
103	0x3c038d51	0.008029298
104	0x3c40c245	0.011765067
105	0x3ce468ad	0.027881945
106	0x3bf91a19	0.007601988
107	0x3aa908d5	0.0012896309
108	0x3ced25ce	0.02894869
109	0x3cd98b9e	0.026555832
110	0x3d0a4311	0.033755366
111	0x3cabfd9b	0.020994952
112	0x3cdc1c04	0.026868828
113	0x3cf9ea5c	0.03050726
114	0x3d14855d	0.036259998
115	0x3ce179fc	0.027523987
116	0x3b8cd5d1	0.00429795
117	0x3d2b183a	0.04177115
118	0x3cac0184	0.020996816
119	0x3b792340	0.0038015395
120	0x3b3a59e6	0.0028434931
121	0x3c096b13	0.008387345
122	0x3cc84d3e	0.024450894
123	0x3ce9d5a4	0.028544255
124	0x3c9f3ee6	0.019439172
125	0x3d33924c	0.04384069
126	0x3c9dedde	0.019278463
127	0x3ce9ebea	0.028554875
128	0x3d276b94	0.04087408
129	0x3caf2a4e	0.021382477
130	0x3d39be94	0.045347765
131	0x3c9bc0a7	0.019012762
132	0x3c0f4f9d	0.008747009
133	0x3ca7df46	0.020492207
134	0x3ccb9866	0.024852943
135	0x3ca628d1	0.020283135
136	0x3ccb68d5	0.024830261
137	0x3cdd56a3	0.02701885
138	0x3ca04e81	0.019568684
139	0x3c983d22	0.018583838
140	0x3ca07bd0	0.019590288
141	0x3d1381d3	0.036012482
142	0x3c9cdd66	0.01914854
143	0x3d17bc7e	0.037044995
144	0x3cbbdd8f	0.022932796
145	0x3c8e5650	0.017375141
146	0x3ce9fd0d	0.028563047
147	0x3cf75f58	0.03019683
148	0x3cea580b	0.028606435
149	0x3d006b42	0.03135229
150	0x3cc789d3	0.024357712
151	0x3cb9c32f	0.022676079
152	0x3cb73525	0.022364208
153	0xbac73c00	-0.0015200377
154	0x3d199ac9	0.03750113
155	0x3d0be653	0.0341552
156	0x3d48129c	0.048845872
157	0x3cc8a36f	0.024491994
158	0x3cfb0ac5	0.030644784
159	0x3d0b7006	0.03404238
160	0x3d04ac97	0.032391157
161	0x3cfaa862	0.03059787
162	0x3d12dd6a	0.03585569
163	0x3ca87d5a	0.020567585
164	0x3c80aaf3	0.015706515
165	0x3a179622	0.00057825644
166	0x3bd55b0a	0.006511097
167	0xbb90bbb3	-0.0044169067
168	0x3c281e8d	0.01026119
169	0xbacd7805	-0.0015676027
170	0x3c0b67be	0.008508621
171	0xbc86ddce	-0.016463187
172	0xbc8fe4cd	-0.017565155
173	0xbc7a8508	-0.015290506
174	0xbb901d34	-0.0043980125
175	0x3ce7bb2f	0.028287498
176	0xbbe09199	-0.006853294
177	0xbb05f6cd	-0.0020441294
178	0x3bb79f30	0.0056036934
179	0x3beced6e	0.0072304523
180	0xbcb06b75	-0.021535615
181	0x3ba9d182	0.005182446
182	0xbca62bf1	-0.020284625
183	0x3c33b94d	0.010969472
184	0x3c2d1769	0.010564663
185	0x3bc06388	0.00587124
186	0x3a17860f	0.0005780169
187	0x3c331db2	0.010932373
188	0x3b8b6d75	0.0042549917
189	0xbace320c	-0.0015731468
190	0x3c16e5da	0.009210074
191	0x3bb4d0fe	0.005518078
192	0x3bd34894	0.006447861
193	0x3cb2d7ec	0.021831475
194	0xbb04a463	-0.0020239584
195	0x3c3e3f97	0.011611841
196	0xbc1b16c4	-0.009465877
197	0x3ca58a62	0.020207588
198	0x3bf628c2	0.007512183
199	0x3b56bace	0.0032765153
200	0x3ba5d744	0.005061062
201	0x3c7d07ee	0.015443785
202	0x3c3bdf52	0.011466818
203	0x3c8513b0	0.01624474
204	0xbc5ab2ce	-0.013348294
205	0xbb5e2aa6	-0.0033899932
206	0x3c588ced	0.013217193
207	0x3cb8bb49	0.022550242
208	0xbb74d4c0	-0.0037358254
209	0x3b018028	0.0019760225
210	0x3ca422ac	0.020036064
211	0x3b3db2bd	0.0028945648
212	0x3a907e35	0.0011023941
213	0x3bb56b27	0.005536455
214	0x3caa0627	0.020754887
215	0xbafefb3b	-0.0019453535
216	0xbbf60973	-0.0075084507
217	0xbc8e9aa9	-0.017407732
218	0x3c0fa4c4	0.0087673105
219	0xbbf3cca2	-0.0074401656
220	0x3bea3363	0.007147239
221	0x39351a53	0.00017271312
222	0xba84f81f	-0.0010144747
223	0xbc708606	-0.014680391
224	0xbbca102a	-0.0061664777
225	0xbb2cf238	-0.002638949
226	0xbb1c23c8	-0.0023825038
227	0x3acb0c05	0.0015491253
228	0xbac988ce	-0.0015375854
229	0xbc280af1	-0.010256515
230	0x3897f2b4	7.245448e-05
231	0x3b0edf42	0.0021800552
232	0xba9ca90b	-0.0011952234
233	0xbc98f8a0	-0.018673241
234	0xbbaf2b86	-0.0053457646
235	0xbbf349cb	-0.0074245683
236	0x3c21bfa5	0.009872352
237	0xbb38fe5a	-0.0028227777
238	0x3bbd5232	0.0057776207
239	0x3c61314a	0.013744662
240	0x3b9ac6dd	0.0047234134
241	0x3abf672a	0.0014602889
242	0x3968ffba	0.0002222051
243	0xba02ede5	-0.00049945555
244	0x3c5956c4	0.013265315
245	0xbc994c5d	-0.01871317
246	0xbc2397fe	-0.009984968
247	0x3c653609	0.013989934
248	0xbc3671e7	-0.011135555
249	0x3ab6b9a7	0.0013940827
250	0xbc80da82	-0.015729193
251	0x3c22382a	0.009901086
252	0x3ca0601a	0.019577075
253	0x3c279608	0.010228641
254	0xbad88786	-0.0016519881
255	0xbc127693	-0.008939403

fc1.bias f4 [10]
0	0xbdd25a7f	-0.10271167
1	0x3cc2e0cd	0.023788834
2	0x3ee871dd	0.4539937
3	0xbd6a72f2	-0.057238527
4	0xbee10b73	-0.43954048
5	0x3d72292f	0.059121307
6	0xbdf97914	-0.12181297
7	0x3dc5a185	0.09649948
8	0xbd95b6a6	-0.07310228
9	0x3e5ff374	0.21870214
