assignment_2_cnn/Model/Simple-CNN/model.pth (torch, 274804 bytes, 6 tensors)

conv1.weight f4 [16, 3, 5, 5]
00000000: 8e85 78bd caac 093d 506e b5bc 05a4 47bd
00000010: e4d5 1a3c 0463 1abd 2107 abbc f42a 163d
00000020: e842 463d 6927 c1bd 78f2 073d 82f3 e2bd
00000030: 5898 73bc affa 4e3d 8580 203d d4e1 ce3d
00000040: 5253 1f3d 10ba 9c3d 4b65 b4bd 46e3 193c
00000050: ce17 c2bd c76c 463c 00d3 43bd e052 0abc
00000060: f4c4 51bd 8d93 a7bd f85c 993d c711 87bd
00000070: bd45 21bd 5c6c eb3d ee63 d93d 4444 31bb
00000080: 6537 ccbd 5ea6 39bd 0d5e c9bd c79a 70bd
00000090: 2997 e7bd 694d 063d 852d a7bd 9616 b1bd
000000a0: 4e2d d3bc 767d b9bd 411f b03d cf1f 39bd
000000b0: 4b7a 2b3c 395f 8a3d 3710 49bd 85a5 7a3b
000000c0: bd7f 49bd 2e65 a63c 2b4e 6dbd 6a08 943c
000000d0: 0c14 45bd 6241 e13d 544a 7d3d 9bd9 83bd
000000e0: 009e b7bd 4d81 a03c 7f5c 5d3a 30dc 3ebd
000000f0: 961e 403c 60dd 2d3d 3912 d53d 9260 8b3d
00000100: a409 c3bd 77c6 25bd f811 aebd 38b5 a33d
00000110: 5463 ccbd 2e9c a7bd 70ad d63c b762 933d
00000120: f0f2 c93d 3543 c13d 7d7a 0abd e74c b7b9
00000130: a37e 613e 754b 653e b26a b73e c417 2d3e
00000140: 7b4f 86bc 8cd9 a33e 927b 0e3f 2207 ec3e
00000150: fcd4 073e ed4d b5bd 19ee 003e f105 8b3e
00000160: 4f17 393e a10a 313d c1f2 13be 9e2b 83be
00000170: 70a5 d6bd 7a76 babd 4059 65be aca4 01be
00000180: c0e5 acbe bb5b 89be 6cb6 1ebe 78a7 50bd
00000190: 5878 fbbd 0a11 f6bd a31d 133e a51a 8d3e
000001a0: 862f 60bc 3e63 67bd fb6f e93b f42e 863e
000001b0: 4d57 9a3e 0ce7 533d 6f82 8ebe 8860 f6bd
000001c0: b819 313e 080d 813c 406b e4bd afdc eebd
000001d0: 298d c2be b8ee a2be e4ed acbe c28c 9fbe
000001e0: 1154 10be 69cf b4be d8ac a2be baf9 0bbe
000001f0: f418 dcbd 9b00 a5bd 02b3 c23d ee84 613e
00000200: 9596 ca3e 1f62 ee3d f572 f0bc 4cbb 553e
00000210: 2336 be3e df39 6f3e ff3b f23d dc1d d4bb
00000220: e6ba 003c ea54 523e 3ca9 053d 0205 adbd
00000230: 94b0 39be 4094 07be c2db 67be ccd5 ebbd
00000240: 186d 39be 904f 53bd ccdf 27be 1b36 1bbe
00000250: 78f2 7dbd ec19 573d 9582 47be f9f0 103e
00000260: b111 803e 242e 583e d71d c33d 721b cebe
00000270: 2ebb 42be 2aed 733d 0979 623d 85bb 943d
00000280: 3c8f aabe c1cc 24be 68bd afbc 2332 473c
00000290: 1794 963e 3279 0bbe d92b 16be 3215 c53b
000002a0: 9441 413e b039 f4ba d51b dcbd 9ee1 99be
000002b0: 995b bc3d d148 5f3e 02e8 c43d c399 fdbe
000002c0: 4de8 35be 3165 123e 1c77 91bc 8fe7 6fbe
000002d0: 6fe3 0dbf fad2 c5be 893d 6abe 2a46 49be
000002e0: ffb9 eebd 5bc1 02bf f2b1 a7be efd4 b2be
000002f0: a3e9 ffbd d95f 173e 91a1 f9be 09c4 d7be
00000300: 2a1d 7abd 9367 92bd 05f3 2abe c183 c5be
00000310: 3b7b d9be e17c f2bd 1255 d83d b1d8 dfbd
00000320: bb8c 093c 3d5a b63e 3bc1 0b3f 4a1e 113f
00000330: 2184 623e aba0 193d e631 393e f4f8 773e
00000340: 8eae 993e b31e be3e eba8 543d f7f0 ce3d
00000350: 90be 8a3e 085a bd3e 177a 1c3f 711a 833d
00000360: 8b34 043e 8be3 df3e c7a5 123f 09cf ae3e
00000370: 3f36 a23d 8f8d 8b3c 2d07 923e 8c52 bd3e
00000380: 7252 973e 013a d43c fe76 e23d 11a2 d53e
00000390: 1aea d63e 4d29 613e d117 fb3d 7cac 2b3e
000003a0: 0056 4d3e 4390 673e 6cea d1bd 7579 5fbe
000003b0: 4c03 64be 77c1 2abe e74b 70bd 5152 38be
000003c0: 5cfa ddbe 4a79 c1be b04e d6be ef8e d5be
000003d0: 4ce4 4abe 6f49 f5be b894 babe 874a ecbe
000003e0: def7 ebbe 70ec 16be f5d6 2a3e 9be1 f13e
000003f0: 4fc8 193f 4cee 2e3f 7713 d43e 6041 a63e
-0.060674243 0.03361205 -0.022147328 -0.048740406 0.00945041 -0.037692085 -0.020877423 0.036662057
0.04840365 -0.09431345 0.03319022 -0.11081602 -0.014867865 0.05053204 0.039185066 0.10101667
0.03889782 0.07652676 -0.088083826 0.009392565 -0.09477197 0.0121108955 -0.047808647 -0.0084426105
-0.05121322 -0.0818244 0.074884355 -0.06595188 -0.03937315 0.11495277 0.10614763 -0.0027048746
-0.09971503 -0.045324676 -0.09832392 -0.058741357 -0.113081284 0.032788668 -0.08162979 -0.08646886
-0.025778439 -0.09057133 0.08599711 -0.04519635 0.010466169 0.067564435 -0.04908773 0.003824563
-0.049194086 0.020311918 -0.057935875 0.018070418 -0.04811482 0.10998799 0.061838463 -0.06437989
-0.08965683 0.019592905 0.0008444264 -0.046596706 0.011726042 0.042447448 0.10403866 0.06805529
-0.09523323 -0.040472474 -0.08499521 0.07993549 -0.09979883 -0.08184086 0.026205748 0.07196563
0.0986079 0.09436647 -0.03380822 -0.00034961777 0.22020964 0.22392066 0.3582359 0.16903597
-0.016395321 0.32001913 0.55657303 0.46099192 0.13264841 -0.08852754 0.12590827 0.2715297
0.18075298 0.043223027 -0.14448072 -0.25619215 -0.104807734 -0.09104629 -0.22397327 -0.12660474
-0.33769035 -0.26827797 -0.15499276 -0.05094096 -0.12278813 -0.12014969 0.14366774 0.2755939
-0.0136832055 -0.05649113 0.007123945 0.26207697 0.3014473 0.051734015 -0.27833888 -0.120301306
0.17294967 0.015753284 -0.11153269 -0.11663186 -0.37998322 -0.31822753 -0.33775246 -0.31162077
-0.14094569 -0.3531449 -0.31772494 -0.13669482 -0.10746947 -0.08056756 0.09506799 0.22023365
0.3956801 0.11639809 -0.02935169 0.2087223 0.37150678 0.2336192 0.118278496 -0.006473286
0.00785706 0.20540205 0.032632098 -0.08448221 -0.18133765 -0.13240147 -0.22642425 -0.11515388
-0.18108022 -0.05158955 -0.16393965 -0.15157358 -0.061998814 0.052514955 -0.19483407 0.14154424
0.25013497 0.21111351 0.09527176 -0.40255314 -0.19016716 0.05955235 0.05529121 0.07262329
-0.33312404 -0.16093732 -0.02145262 0.01215795 0.2940986 -0.13620451 -0.14665164 0.0060144896
0.18872672 -0.0018632915 -0.10747496 -0.30054945 0.09197158 0.21805121 0.096145645 -0.49531373
-0.17764397 0.14296414 -0.017756991 -0.23428176 -0.5542516 -0.38637525 -0.22875036 -0.19655672
-0.1165657 -0.5107629 -0.3275295 -0.3492808 -0.124957345 0.14782657 -0.48756078 -0.4214175
-0.06106297 -0.071486615 -0.16694267 -0.38577083 -0.4247683 -0.11840225 0.10563101 -0.109300025
0.008395369 0.3561572 0.5459172 0.5668684 0.22120716 0.03750674 0.18085441 0.24216062
0.30015987 0.37132797 0.051918905 0.10104554 0.27098513 0.3698275 0.61123794 0.06401528
0.12910669 0.4372829 0.57284206 0.3414233 0.07920503 0.017035274 0.285211 0.3697704
0.29555088 0.025906565 0.11057852 0.4172521 0.4197548 0.21988411 0.12260402 0.16765016
0.20052338 0.22613625 -0.102497905 -0.21823676 -0.22266883 -0.16675363 -0.058666136 -0.18000151
-0.43355072 -0.3778785 -0.4185691 -0.41710612 -0.19813651 -0.47907588 -0.36441588 -0.4615061
-0.46087545 -0.14738631 0.16683562 0.47242436 0.6007127 0.6833236 0.414211 0.32471752

conv1.bias f4 [16]
00000000: 5991 32bc 5a48 533e bdfd 11bf 39f7 0bbf
00000010: fa9c 273d a6d8 133e bac8 5f3f fa86 eabb
00000020: 248f 15bd 07fd 813f 616b 83bf 5cb3 1d3f
00000030: 4a7d 113c 20e6 573f 0664 ae3c d21e 81bf
-0.010898911 0.20633069 -0.570278 -0.54674107 0.04092119 0.14438114 0.8741566 -0.0071572037
-0.036513463 1.0155343 -1.0267144 0.61601806 0.008879969 0.8433552 0.02128793 -1.0087531

conv2.weight f4 [32, 16, 5, 5]
00000000: bf59 6f3c 8ca5 09bd de80 f2bc dfff 10bc
00000010: 9bfe 59bb c9ff 033d 1de7 ff3c 778b 173d
00000020: 3cad f63c 6339 eebc ddd4 3e3d 665a 49bd
00000030: 38c9 ab3c cd60 6d3c ad36 e93c ee03 32bd
00000040: f785 dfbc f0ec f83c 1474 3d3d d84a 0fbd
00000050: 82bf b73b fd07 243d 0d43 ef3b f881 2d3c
00000060: 81c5 01bd 6c1c 8cbd 700d edbd 91e5 09bd
00000070: 5460 85bd 0aa5 4dbd d7af a8bd 201d 94bd
00000080: 7132 9cbd 519d a6bd f52a 25bd d617 8abd
00000090: 87cc 90bd 09a7 cdbd c454 07bd de7d 40bd
000000a0: 7e9d e33b a3e1 bb3b 0fab 78bc d304 21bd
000000b0: 0932 17bd 367e 7abc f0f7 da3c f58b b0bc
000000c0: ead5 2f3b e0be 1d3d 1695 a3bc 8c91 32bd
000000d0: 696b 3fbd ae8e ffbb eda7 d5bc a4e9 6bbd
000000e0: e51d 91bd 5718 98bd 962c d6bc 3ac3 31bd
000000f0: 2e83 6fbd 056e 82bd b108 8ebd 802e cbbd
00000100: d430 b6bd 3380 9cbd b29c d7bd 746b 5dbd
00000110: 77ce bbbd aebd e1bd fa51 73bd 78db 46bd
00000120: 0999 cebd ef4a bfbd 87cb b2bd b92e c3bd
00000130: 62e2 87bd 595b b6bd fd56 fcbd ab8b e7bd
00000140: 549a 9bbd fc8d 62bd f382 29bd 1649 55bd
00000150: 1cc7 d7bd 41be dcbc d80c 513b dfd5 fd3b
00000160: 2f22 72bd 4606 97bd ea83 e13c 1630 103c
00000170: fe38 9d3c 9f2e 9d3d 7d85 7e3b 82f3 983d
00000180: 9b29 9e3c 081b 843d e9a6 0a3c d9c3 3f3c
00000190: be7e 53bc aaf7 f73c 109a 0d3c f94c 0dbd
000001a0: 441b 15bc 44a0 14bd ab14 143d be0d 30bd
000001b0: 4b3a 973c 5d98 54bd ca1c 66b9 2616 debb
000001c0: a313 57bb 0459 a93b 6197 f5bc f464 49bd
000001d0: fa36 39bd bacb 363b fa8b 54bd 47ba 30bd
000001e0: faa9 1fbd 2685 023d 2060 d4bc 54e3 1fbd
000001f0: cebc 40bd 4087 fe3c ae04 90bc 98cd a13c
00000200: 1389 ecbc f820 4dbd 5b26 70bc c57b 623c
00000210: ac17 cfbc b6d3 c4bc d05a afbc 2379 3cbd
00000220: 2eb4 96bc 9df9 b6bc 1886 0fbd bbdb 0ebd
00000230: 1c35 00bd bdf8 c1bc 399e 9abd 177e 30bd
00000240: b67a 2fbd 3327 36bd 0166 49bd 6fbb b7bd
00000250: 38bf bbbd 70f1 1ebd e59a 033d c56a 843d
00000260: 42cd 313c f1e3 963c 7518 ae3c 4d7e 9a3d
00000270: 81ef 423d cf28 3d3d 273d b43d 2a82 053d
00000280: b576 613d 092b 233d 9d07 8b3d 9613 c63d
00000290: e621 883c 206b 993c 06a2 cf3a 2a23 a23c
000002a0: 37e1 3d3d be5c 8a3d 55d9 2f3d 5ab0 4b3d
000002b0: 9711 d1bb e030 333d ba7b a83b 1fcc 473c
000002c0: 1ed2 683b 675b 823c 3495 153d 8f1c 41bb
000002d0: a11d 08bd 938f 203d a64c 0fbd 761c 123d
000002e0: db72 853c 4ca7 41bd 10fb 593c 48a4 953c
000002f0: 1ca6 8f3c 7eaf 6a3c 5149 1d3d 9645 68bc
00000300: fa6c adbc f6f5 a43c 6bca b53c 87c0 35bc
00000310: a8c7 e6bb ca00 d2bc 7076 d9bc e104 b13c
00000320: c3a2 313d fd1e e43c 37d5 11bd 19a2 37bd
00000330: 5c36 a83c e37b 46bd 86f7 443d 7253 0ebd
00000340: e0d3 ffbc bb5d 1b3d 2396 54bc 9830 16bc
00000350: aefa 1cbd b4b5 793b 933c c43c 6c3b 463d
00000360: f374 24bb 8e26 3cbd dd97 07bd a586 4bbd
00000370: 0825 abbc 5d95 cdbc 073d 29bd c8bf 243c
00000380: a117 20bd c5c3 85bc b53b 5dbc db84 263d
00000390: c31e babc c328 583c 7895 43bc 99b3 edbc
000003a0: ebfe 68bd f381 d03a 51cc a33b 6356 843c
000003b0: f0e8 2e3c 3ab5 62bb 379f d9bc 4778 95bb
000003c0: cbb8 453d f5d5 1f3d 0ae6 7f3b 6c33 183d
000003d0: df13 343d e165 9d3a 6ee9 413d cde4 2d3d
000003e0: 9901 8f3d 6bde 9e3d cb50 30bd 995e f03b
000003f0: 8ec0 af3a d6fa 84bd d6c8 83bd d5f8 58bd
0.0146087995 -0.033605143 -0.029602464 -0.008850067 -0.003326333 0.032226358 0.031238133 0.03699824
0.030111901 -0.029080098 0.04658972 -0.049158476 0.020969972 0.014488411 0.028468454 -0.04346078
-0.02728556 0.030386418 0.04625328 -0.034983486 0.0056075463 0.04004668 0.0073016942 0.010590069
-0.031682495 -0.068413585 -0.115748286 -0.033666197 -0.06512514 -0.05020622 -0.08236664 -0.07232118
-0.076268084 -0.081354745 -0.04032417 -0.067428276 -0.070702605 -0.10041625 -0.033039823 -0.046995036
0.0069462648 0.005733685 -0.015177502 -0.03931124 -0.03691295 -0.01528888 0.026729554 -0.021551112
0.0026830384 0.03851211 -0.01996855 -0.043595836 -0.046733294 -0.007798991 -0.02608105 -0.057595864
-0.0708578 -0.074265175 -0.026144307 -0.043399073 -0.058474712 -0.06368641 -0.069352515 -0.099209785
-0.08896032 -0.076416396 -0.10527934 -0.054057553 -0.091702394 -0.11022507 -0.05940435 -0.048549145
-0.10087783 -0.09340464 -0.08730226 -0.09530396 -0.06634976 -0.08904142 -0.12321279 -0.113059364
-0.07597795 -0.055311188 -0.04138465 -0.052071653 -0.10536024 -0.026946189 0.0031898525 0.0077464427
-0.05911463 -0.073742434 0.027528722 0.008800527 0.019192215 0.07674908 0.003883689 0.074683204
0.019306948 0.06450468 0.008462646 0.011704409 -0.012908636 0.030269463 0.008642688 -0.034497235
-0.009100739 -0.036285654 0.036152523 -0.042981856 0.018460413 -0.051903117 -0.00021945234 -0.0067775426
-0.00328181 0.005168082 -0.02997941 -0.049168542 -0.045218445 0.0027892427 -0.051891305 -0.043146398
-0.03898046 0.03186526 -0.025924742 -0.039035156 -0.04705506 0.031070352 -0.017580356 0.019751355
-0.028873956 -0.05008027 -0.014657582 0.013823454 -0.025279842 -0.024026733 -0.021405607 -0.046013962
-0.018396463 -0.022335822 -0.03503999 -0.03487752 -0.03130065 -0.023678178 -0.0754971 -0.043089
-0.042841636 -0.044470977 -0.049169544 -0.08971297 -0.091673315 -0.03880447 0.03213014 0.06465677
0.01085216 0.018419238 0.021251896 0.07543621 0.04759169 0.046181496 0.088007264 0.032594837
0.05504485 0.039835963 0.067885615 0.096717045 0.016617727 0.018727839 0.0015841133 0.019792158
0.04635736 0.067559704 0.042931873 0.04972873 -0.0063802707 0.043747783 0.0051417025 0.012194662
0.003552563 0.015912725 0.036519244 -0.0029466485 -0.03323138 0.039199423 -0.034985207 0.035671674
0.016290119 -0.047278687 0.013304487 0.018266812 0.017535262 0.014324067 0.038399998 -0.014176747
-0.021170128 0.020136815 0.022191247 -0.011093265 -0.007042844 -0.025635142 -0.026545733 0.021608772
0.043368112 0.027846808 -0.03560373 -0.044832323 0.020533733 -0.04845799 0.04808762 -0.03474755
-0.03122896 0.037931185 -0.0129752485 -0.009166859 -0.038325004 0.0038102688 0.023954665 0.048396513
-0.0025094121 -0.045935206 -0.033103812 -0.049688954 -0.020891681 -0.025095636 -0.041317966 0.01005549
-0.039085034 -0.016328702 -0.013503005 0.040654045 -0.022719746 0.013193312 -0.011937492 -0.029016303
-0.056883734 0.0015907869 0.0049987216 0.016154474 0.010675654 -0.0034592883 -0.026565177 -0.0045614573
0.048271935 0.039022405 0.0039047026 0.037158415 0.043964263 0.0012008512 0.047341757 0.04245453
0.069827266 0.077572666 -0.0430458 0.0073354957 0.0013408826 -0.06493156 -0.06434791 -0.05297168

conv2.bias f4 [32]
00000000: 6728 3c3f 26e7 5f3a e293 a53e 6f0f 33be
00000010: 5417 d03b f7aa bebc 894e ed3e ba2f 02bd
00000020: dba9 07be d25a 213f ba9e d7be 9c41 0cbe
00000030: 526a 363e 0c32 9ebe 68d8 8e3e 19bd 563b
00000040: 6182 843c f132 cf3e a6bb 16bd 3744 113d
00000050: ae35 86bd a0f7 dabe f798 d7be d8c4 663d
00000060: 8f93 773a ac72 513e c2dd 19be 0e8a babe
00000070: 7cea 33bd 44f7 023d 838f e83e d827 6b3e
0.7349915 0.00085412187 0.32339388 -0.17486356 0.006350437 -0.023274882 0.4634898 -0.031783797
-0.13248388 0.63029206 -0.42113286 -0.13696903 0.17813995 -0.30897558 0.2789948 0.003276652
0.01617545 0.40468553 -0.03680005 0.035465445 -0.06553207 -0.42767048 -0.4210889 0.05634007
0.000944429 0.204539 -0.15026 -0.36433452 -0.043924794 0.031974092 0.4542199 0.22964418

fc1.weight f4 [10, 5408]
00000000: e970 1d3d edba 8f3c 31ef 1b3c 08df a2bb
00000010: 1325 7f3c ae91 14bc 16e3 703c be99 873c
00000020: 5be3 733c 556a 1e3c 5100 823c b0fb b03b
00000030: 5e13 d83c 56ec cd3c f6f7 183c 7d73 8c3c
00000040: f8a8 ae3c f950 163c 1cb5 e33a 1be5 1bbc
00000050: 2c41 ac3c 96ca f33c f484 563c 77ef 3cbb
00000060: 97f9 c03b 7445 bc3c 04e9 993c 0fc5 e4bc
00000070: e5ae 203c ef79 d93c d258 583c 033f ccbc
00000080: 4834 0ebc bb52 c33c 335d 523b 67ad c73b
00000090: 7c64 243b d771 90bc e496 1cbc 83f9 f33b
000000a0: f0db 543b b5f3 db3a 0def 7c3c 2316 823c
000000b0: c6ed 833b 9380 923c 75e9 403c 26b6 083c
000000c0: c2db 5b3c 3e4d 363c e278 183c 6e0d 5bbc
000000d0: 3adf 9e3c c5e9 313c b1b0 ceba e501 f33c
000000e0: 6333 843c 0606 20bb 6351 863c c2be 843c
000000f0: 6139 683b 24a1 dc3c fcae 4f3c 4f9c bcba
00000100: 9248 c63c 2b3d 1f3d 0b17 f53c 4e3a a23b
00000110: 8448 953b aeb0 633c 43a1 813c baa5 cb3c
00000120: e6dc 1fbc ce56 45bc cd18 613c c3fd 903c
00000130: 4492 033d b9bb 383d a0f8 513d f2cc 583d
00000140: d151 ebba 32c8 b4bc 2b17 ffbc ab96 8b3c
00000150: 33dd 5f3c 82da f93b 7728 b23c ed43 ed3b
00000160: 2df3 8b3a bf9a 90ba 4a5e 203d f3bc 113d
00000170: b8e1 823c 982f 73bc e561 4bbc a643 55bc
00000180: 2449 a7bc 69c2 c73c 2e11 203d 6667 443d
00000190: 238a 183d 248f 4c3c 48d3 55bc c353 6bbc
000001a0: 76cd 073a 95c9 2ebc e01f 89bc 35a5 d2bc
000001b0: c138 993a d7e9 28bc 9001 453c 1fa4 553c
000001c0: 9cc4 df3a fccb a13c 87b7 e03b 7c5a c13c
000001d0: 6906 9a3c b55f 653c 85fb e73b 1288 a8bc
000001e0: bbbd a63c bd76 d03c 5856 053d 5982 473c
000001f0: 2a78 c53a a9da 723c 5581 203d 1a88 d63c
00000200: 9ebe 033c 952e 913c dab4 233c 67a2 c73c
00000210: 90a3 5b3c 7760 003d 186d 1d3d ece1 f1bb
00000220: cc25 ea39 006c c43c 2613 d63c 7aa3 863c
00000230: ce1c be3b 94a0 4e3b a7bb 203d 3104 b23c
00000240: 284e 193d 8714 bd3c e69f ce3c 5547 243d
00000250: e3bf 923c a6a3 75bc 2dfd 99b7 b246 9d3c
00000260: a611 ab3c 9f91 91ba d935 d03c 8b35 183d
00000270: 45aa 823d acbd 1d3d d576 5e3d 42d0 123d
00000280: dc9c 0b3d 10fe eb3c 9acf cf3b c95b a03b
00000290: a320 4c3b 0cda 89bc 0beb 8e3c 1172 143d
000002a0: 2c08 323d d329 723d fbc2 143c 85a5 0e3d
000002b0: 2f29 0e3d 0b43 e63c a4d8 c23c 4939 6d3d
000002c0: 113c 4f3d ef8c 783d 71de 033d f0a9 e33c
000002d0: 6885 873d 0695 d23d 78e4 873d e6b9 6b3d
000002e0: 2769 e63c 6511 033d 6d17 253d ebbe 903c
000002f0: 5820 de3c 3983 323d c890 8f3d 89c8 1e3d
00000300: 5d54 743b f900 3d3d 3d93 973d e3f3 3c3d
00000310: 8abb 3d3d 72d8 1c3c 5ed5 5a3d 7e28 793d
00000320: 60d2 2d3c 91cc 633c 1a89 9e3d 731e 893d
00000330: b47e 8e3d 9840 4a3c 2691 7f3d d4fe b73d
00000340: e7b4 8d3d d60c 483c 1912 573d 81d2 823d
00000350: 4023 193d 30a8 113d b994 ac3c a787 5b3d
00000360: 07cf 1d3d 8916 793d 367f ab3c 5510 843d
00000370: 9536 653d 6d58 903d 2f6c 353d cb56 4c3d
00000380: 646e 073d 9294 923c 0cf5 1cbc b180 0c3d
00000390: f937 183d 6314 493d c410 1e3d ccf6 483d
000003a0: fc84 883d f5cf 4c3d 56a5 bb3c a004 673d
000003b0: f683 d83c d44c 093d 3f28 a13c 4570 14bc
000003c0: a3f3 813d 689c 473d dece 5b3d fa4d 0f3d
000003d0: 7937 0a3d 0936 613d 116f 743d e9c1 933c
000003e0: 6b1e 053d d41c 213d 20a8 9f3d 47e4 8d3d
000003f0: 35d2 f43c 0487 053d 641e 24ba bce3 e93c
0.038437758 0.017545188 0.009517477 -0.004970435 0.015572804 -0.009067936 0.014702579 0.016552802
0.014885749 0.009668906 0.015869291 0.0054010972 0.026376422 0.025137108 0.009336462 0.017144913
0.021320805 0.009174579 0.00173727 -0.009515072 0.02102717 0.029759686 0.013093222 -0.0028829256
0.0058891284 0.022982337 0.018787868 -0.027925996 0.009807323 0.0265474 0.01320477 -0.02493239
-0.008679457 0.02384316 0.0032099008 0.006093669 0.0025084307 -0.017632408 -0.0095574595 0.0074455156
0.0032479726 0.0016781004 0.0154378535 0.015879696 0.0040261475 0.017883575 0.0117744105 0.008344209
0.013419094 0.011126814 0.009306164 -0.013369901 0.019393552 0.010858958 -0.0015769211 0.02966399
0.016137784 -0.0024417653 0.01639623 0.016204242 0.003543459 0.026932307 0.012675997 -0.0014389845
0.024204526 0.038876694 0.029918214 0.004950798 0.0045557637 0.013897104 0.015823966 0.024859298
-0.009757256 -0.012044622 0.013738823 0.017699128 0.03212191 0.0451009 0.051262498 0.052929826
-0.001795346 -0.022068117 -0.031138977 0.017039618 0.013663578 0.007624925 0.02174781 0.0072407634
0.001067733 -0.0011032446 0.03915242 0.035580587 0.015976772 -0.01484289 -0.012413477 -0.013016617
-0.020420618 0.024384694 0.039078884 0.04795017 0.037241112 0.012485299 -0.013050862 -0.014363232
0.00051804574 -0.010668178 -0.016738832 -0.025713542 0.0011689888 -0.010309658 0.012024298 0.013039618
0.0017072144 0.019750588 0.0068578157 0.023602717 0.018801885 0.013999869 0.007079544 -0.020572696
0.020354142 0.025447244 0.032553047 0.012177073 0.0015065719 0.01482264 0.03918584 0.026187945
0.008041052 0.017722407 0.009991849 0.024369432 0.013405696 0.031341996 0.038434118 -0.0073816683
0.0004466012 0.02397728 0.026132178 0.016435374 0.0058017736 0.0031528817 0.03924146 0.021730514
0.03742805 0.023081077 0.02522273 0.04010709 0.017913764 -0.01499263 -1.8356915e-05 0.01919875
0.020882439 -0.001110602 0.025416302 0.037160438 0.063801326 0.038510963 0.054312546 0.03584314
0.03408514 0.02880767 0.0063418867 0.004893754 0.0031147383 -0.016827606 0.017446062 0.036241595
0.043464825 0.059121918 0.00907969 0.03482582 0.034707244 0.02810814 0.023784943 0.05791596
0.050594393 0.06068128 0.03219456 0.027790993 0.06617242 0.1028233 0.06635374 0.057550333
0.028126312 0.03199901 0.040305544 0.017669162 0.027115032 0.043582175 0.07010037 0.038765464
0.003728173 0.046143506 0.0740113 0.046131026 0.04632143 0.009573089 0.05342614 0.060829632
0.010609239 0.013903753 0.07740994 0.06695261 0.069577605 0.012344502 0.062394284 0.089841515
0.0691927 0.012210092 0.052507494 0.06387807 0.037387133 0.035560787 0.02106701 0.053596165
0.038527515 0.060812507 0.020934682 0.064484276 0.055960257 0.07048116 0.044292625 0.04988746
0.03306426 0.01789311 -0.009579908 0.034302417 0.037162755 0.049091708 0.038590208 0.04906349
0.0666599 0.05000301 0.022905987 0.056400895 0.026430111 0.033520535 0.019672511 -0.00905997
0.06345298 0.048733145 0.05366408 0.034986474 0.03374431 0.054983173 0.059676234 0.0180368
0.032499712 0.039334133 0.07795739 0.06928306 0.02988539 0.032599464 -0.0006260632 0.028550975

fc1.bias f4 [10]
00000000: 11cf 99bc 75df cc3d 5b34 c33e 813d dbbd
00000010: 93b1 dcbe eef4 6f3d 01b9 a5bd 0c5a 41bd
00000020: 4e1b ddbc 387a 203e
-0.018775495 0.100035585 0.38125882 -0.1070509 -0.43104228 0.058583193 -0.08091927 -0.047205016
-0.026990559 0.15671623
