assignment_2_cnn/Model/Simple-CNN/model_with_augmented_data.pth (torch, 275388 bytes, 6 tensors)

conv1.weight f4 [16, 3, 5, 5]
0	0xbdb0a687	-0.086255126
1	0xbdc21e96	-0.0947849
2	0xbd859c55	-0.065239586
3	0x3dc200ee	0.094728336
4	0x3db63533	0.08896866
5	0x3de8ab76	0.113608286
6	0xbb8adf89	-0.0042380732
7	0x3d0e4493	0.034733366
8	0x3ca8599b	0.02055054
9	0x3a344f9d	0.00068783184
10	0x3c51cedf	0.01280567
11	0x3dbca738	0.09211582
12	0xbb008054	-0.001960774
13	0xbd5df352	-0.054187126
14	0x3d210b81	0.03931761
15	0xbbc3dbbb	-0.0059771216
16	0x3dc2c4fd	0.09510229
17	0xbdc9460f	-0.09827816
18	0x3d794662	0.060858138
19	0xbde2d98f	-0.11076652
20	0x3d396fbf	0.045272585
21	0xbda4e341	-0.08051158
22	0x3da36205	0.0797768
23	0xbd9c4960	-0.07631183
24	0x3cbd2930	0.023090929
25	0xbbfaec78	-0.007657584
26	0xbda3638f	-0.07977974
27	0xbd867fb0	-0.06567323
28	0x3cc8c7a6	0.024509262
29	0xbd89b14a	-0.06723268
30	0xbdcfe3e9	-0.10150892
31	0xbcc877c5	-0.024471173
32	0x3d07c590	0.033147395
33	0x3d1ab03d	0.03776573
34	0xbd695386	-0.05696442
35	0x3dd4a00a	0.103820875
36	0x3d6e3611	0.05815703
37	0xbd11262c	-0.035436794
38	0x3cdf4361	0.027253808
39	0xbdc56291	-0.09637941
40	0x3de4881c	0.11158773
41	0x3dcca006	0.099914595
42	0xbde7fc1c	-0.11327383
43	0xbdc6b3c8	-0.09702259
44	0x3ddf21ef	0.10895144
45	0xbcd34123	-0.025787896
46	0xbdbbd3dd	-0.09171269
47	0xbd67c4f9	-0.056584332
48	0xbd01b81d	-0.031669725
49	0x3caf4c8f	0.02139881
50	0x3c9fc92b	0.019505104
51	0x3d988614	0.074474484
52	0xbddf88c6	-0.10914759
53	0xbd72240b	-0.059116405
54	0xbd95fc12	-0.07323469
55	0x3d9c78b0	0.07640207
56	0x3d44a3cd	0.048007775
57	0xbd86afd8	-0.06576508
58	0xbcfdc8c4	-0.030979522
59	0x3d776e82	0.060408123
60	0x3d9440eb	0.072389446
61	0x3cafdd93	0.02146796
62	0xbd88ed25	-0.06685857
63	0xbda2d4ff	-0.07950782
64	0x3dbb5d63	0.091486715
65	0xbd26b3a8	-0.040698677
66	0x3c3e22a7	0.011604941
67	0xbd82a60d	-0.06379328
68	0x3c73f6d5	0.014890392
69	0xbbc67e03	-0.0060575022
70	0xbd5a53c8	-0.053302556
71	0xbda11b8c	-0.07866582
72	0xbd8ae1c6	-0.06781344
73	0x3cff04c3	0.0311302
74	0x3dd06b71	0.10176743
75	0x3b1e5bb8	0.0024163555
76	0x3d3f32f8	0.046679467
77	0xbde29fef	-0.11065661
78	0x3bcc273e	0.006230264
79	0xbdaf6916	-0.085649654
80	0xbddde489	-0.10834605
81	0xbdbf1b01	-0.093313225
82	0xbde8d7de	-0.113692984
83	0xbe3ed9d8	-0.18637788
84	0xbe10738d	-0.14106579
85	0xbd426ad2	-0.047465153
86	0xbe279c1d	-0.16368146
87	0x3c77521c	0.01509526
88	0xbe0420d4	-0.12903148
89	0xbe262dcb	-0.16228406
90	0xbc7d9693	-0.015477794
91	0xbdf7490a	-0.12074478
92	0xbe482720	-0.19546175
93	0xbe4e4f37	-0.20147406
94	0xbe345f28	-0.17614424
95	0xbd80230e	-0.06256686
96	0xbe361912	-0.17783001
97	0xbdfb4b20	-0.12270188
98	0xbc684d25	-0.014178549
99	0xbdb85a2d	-0.09001575
100	0x3da7a1c2	0.0818515
101	0x3d0bbad4	0.03411372
102	0xbdef7d44	-0.116938144
103	0xbe108bb0	-0.14115787
104	0xbdfd7214	-0.12375274
105	0x3c942ef6	0.018088799
106	0xbba665d5	-0.0050780573
107	0x3cc1cd90	0.02365759
108	0x3d91e971	0.071246035
109	0xbe00dd86	-0.12584504
110	0xbd85c8d9	-0.06532449
111	0x3d51c8d4	0.051216915
112	0xbdd50570	-0.10401428
113	0xbc844219	-0.016144799
114	0xbd60887a	-0.054817654
115	0xbd4192e9	-0.047259245
116	0x3ddf0ba2	0.10890891
117	0x3d2d8fc0	0.04237342
118	0x3da266f3	0.07929792
119	0x3dd3f276	0.1034898
120	0xbcb3198d	-0.02186277
121	0x3d32ce3d	0.043653715
122	0x3de0b69a	0.109723285
123	0x3b329345	0.0027248424
124	0x3d5b2cbd	0.053509463
125	0x3e6484fa	0.22316352
126	0x3e358019	0.17724647
127	0x3e275afa	0.16343299
128	0x3e80ca63	0.2515441
129	0x3e53c0ca	0.20679012
130	0x3e79c47d	0.2439136
131	0x3e5c6c5a	0.21525708
132	0x3e1939b4	0.14963418
133	0x3e5b1716	0.21395525
134	0x3e09ec8d	0.13469143
135	0x3de5f145	0.11227659
136	0x3e7c6b74	0.24650365
137	0x3eb6f081	0.35730365
138	0x3e702a88	0.23453724
139	0x3e5a1882	0.21298411
140	0x3e58bf2e	0.2116668
141	0x3e3756a0	0.17904139
142	0x3e584834	0.21121293
143	0x3ebb48b3	0.36578903
144	0x3e28b6dc	0.16476005
145	0x3dd3cbf8	0.10341638
146	0x3e7ddde3	0.24791674
147	0x3e92305a	0.28552514
148	0x3eb14c95	0.3462874
149	0x3e99eb83	0.30062494
150	0x3d830348	0.0639711
151	0xbbea769c	-0.0071552526
152	0xbda87aae	-0.08226524
153	0xbe8da701	-0.27666476
154	0xbe31f49f	-0.17378472
155	0x3e8d71e4	0.27625954
156	0x3e134764	0.14382702
157	0x3d878697	0.06617468
158	0xbe81de94	-0.25365126
159	0xbe48fb01	-0.19627
160	0x3e9e9d56	0.30979413
161	0x3e318bd5	0.17338498
162	0x3d22aef8	0.039717644
163	0xbc7ddf24	-0.015495095
164	0xbe3d7f3e	-0.1850557
165	0x3e5b9446	0.2144328
166	0x3e2eb3a7	0.1706072
167	0xbd8da70f	-0.069166295
168	0xbe4a4f0e	-0.1975672
169	0xbe138bd1	-0.14408804
170	0x3d9614bb	0.07328173
171	0x3dc23c41	0.09484149
172	0xbe0605ab	-0.130881
173	0xbdc11f62	-0.09429814
174	0xbdfd87c7	-0.12379413
175	0x3b96896f	0.00459402
176	0x3d81c766	0.0633686
177	0xbcb1cba2	-0.021703545
178	0xbd7341f4	-0.05938907
179	0xbe76b45b	-0.24092238
180	0x3e73f134	0.2382248
181	0x3e46254e	0.19350168
182	0xbd9d9941	-0.076952465
183	0xbe35da62	-0.17759088
184	0xbd9e80ac	-0.07739386
185	0x3e5b1d34	0.21397859
186	0x3e3404c5	0.17579944
187	0x3aa43e29	0.0012530732
188	0xbdd87606	-0.10569386
189	0xbe18a6a4	-0.14907318
190	0x3e2dd514	0.16975814
191	0x3e146f5c	0.14495605
192	0xbd93635d	-0.071966864
193	0xbe086fad	-0.13323851
194	0xbdf8a2d9	-0.12140436
195	0x3c9df60c	0.019282363
196	0xbd641ac3	-0.055689584
197	0x3daa806c	0.08325276
198	0x3d7d76a5	0.061880726
199	0xbe23e217	-0.16004215
200	0x3d0be904	0.034157768
201	0x3e1c569b	0.15267412
202	0xbe17345b	-0.14766066
203	0xbe3156ce	-0.1731827
204	0xbe19abce	-0.15006945
205	0x3d95596a	0.07292445
206	0x3c9a03e7	0.018800689
207	0x3d19331a	0.03740225
208	0xbe02d372	-0.12775972
209	0xbc02f8ac	-0.007993858
210	0x3df2decd	0.11858902
211	0x3dcfcfe2	0.101470724
212	0x3c4aa72d	0.012368959
213	0xbd60699f	-0.054788228
214	0xbe0d2f48	-0.13787568
215	0x3e46fe80	0.19433022
216	0x3e076c31	0.13224865
217	0xbd9cbe44	-0.07653478
218	0x3d3c2751	0.045935933
219	0x3d6e75cd	0.058217812
220	0xbbd87eda	-0.0066069188
221	0x3d3a21bb	0.045442324
222	0xbd9c01b5	-0.07617513
223	0x3d60ec79	0.054913018
224	0x3d8cf857	0.068833046
225	0xbdc8609b	-0.09784051
226	0xbd166041	-0.03671289
227	0x3c2a1cec	0.010382872
228	0x3e045b3c	0.12925428
229	0x3dbbfcc5	0.09179071
230	0xbe303384	-0.17207152
231	0xbb643ce8	-0.0034826342
232	0x3e8b22b2	0.27174908
233	0x3e1f4ea5	0.15557344
234	0x3dbdcd94	0.092677265
235	0x3d4c91de	0.049943797
236	0xbb71dda2	-0.0036905785
237	0x3e8fb63a	0.28068715
238	0x3e235ad7	0.15952621
239	0x3d94f661	0.072735555
240	0x3c8f0c7a	0.017462004
241	0x3d860d28	0.06545478
242	0x3db1484a	0.08656366
243	0x3dea2575	0.114329256
244	0x3cfd3c22	0.030912463
245	0xbd6af903	-0.057366382
246	0xbe3bd874	-0.18344289
247	0xbdba23a2	-0.09088828
248	0xbd56f50a	-0.05247978
249	0xbe2dcc36	-0.16972432
250	0x3e983801	0.29730228
251	0x3eb7695a	0.35822564
252	0x3ec2b78b	0.38030657
253	0x3eb05f1a	0.34447557
254	0x3ed88167	0.42286226
255	0x3ea861b6	0.32887048

conv1.bias f4 [16]
0	0xbb0c1f68	-0.0021381024
1	0xbf9ef0ff	-1.2417296
2	0xbb6692f4	-0.0035182806
3	0x3f87f337	1.0621098
4	0x3f4e74db	0.8064706
5	0xbe0a8ee4	-0.13531071
6	0xbd113c1f	-0.035457727
7	0x3f91c042	1.1386797
8	0xbf9863b5	-1.1905428
9	0xbf9833e2	-1.1890833
10	0xbecd3bc9	-0.40084675
11	0xbc35bb97	-0.011092088
12	0x3d4793d3	0.04872496
13	0xbe4d60d9	-0.20056476
14	0xbe9ec040	-0.3100605
15	0xbf5456eb	-0.82945126

conv2.weight f4 [32, 16, 5, 5]
0	0xbae1d465	-0.0017229436
1	0x3d2ff158	0.042954773
2	0xba4307f9	-0.00074398477
3	0x3cb8d5cb	0.022562882
4	0x3caa221e	0.020768221
5	0xbd007868	-0.03136483
6	0xbcb72eda	-0.022361208
7	0x3ce12070	0.027481288
8	0x3cf47aa5	0.029843638
9	0xbc09a9de	-0.008402316
10	0xbc79d4ac	-0.015248459
11	0xbc1063e1	-0.0088128755
12	0xbbf84f1a	-0.007577789
13	0xbc85fd36	-0.016356092
14	0xbd4823da	-0.048862316
15	0xbc9491a2	-0.01813585
16	0xbc3122b2	-0.010811495
17	0xbc7da401	-0.015480996
18	0x3c3742a8	0.011185326
19	0xbcaf3471	-0.02138731
20	0xbd38f140	-0.04515195
21	0x3ca117b4	0.019664623
22	0x3d092901	0.03348637
23	0xbc9ab557	-0.018885298
24	0x3d2bbbf2	0.041927285
25	0xbc36e678	-0.0111633465
26	0xbca6cb7c	-0.0203607
27	0x3cc007f7	0.023441298
28	0x3ccc5f04	0.02494765
29	0xbc6031aa	-0.013683716
30	0x3c6a0014	0.014282245
31	0xbd2a25ce	-0.04153996
32	0xbc6e74db	-0.014554228
33	0x3d4e1a1c	0.05031787
34	0xbccf49d5	-0.02530376
35	0xbbc33281	-0.0059569483
36	0x3bf01f9a	0.007327986
37	0xbd1fd5c4	-0.039022222
38	0xbd128830	-0.03577441
39	0x3d2bffab	0.04199187
40	0x3c44229a	0.01197114
41	0xbcc662b3	-0.024216985
42	0x39c1c468	0.00036958163
43	0x3d315b9c	0.043300256
44	0x3b58313c	0.003298833
45	0x3d24eb40	0.040263414
46	0xbcecc76e	-0.02890369
47	0x3c05f9c0	0.008177221
48	0xbd2e9dfa	-0.042631127
49	0x3d4c21d3	0.049836945
50	0x3d0acfbb	0.033889513
51	0x3cc5ccc7	0.024145497
52	0xbb9d4f73	-0.004800731
53	0xbccf4132	-0.025299642
54	0x3c92b575	0.017908791
55	0x3ba6b17f	0.005087077
56	0xbd4c76d7	-0.049918022
57	0x3ce02f20	0.027366221
58	0x3ccd2698	0.025042817
59	0xbcc1c891	-0.023655208
60	0xbd17ee38	-0.037092417
61	0xbb92c5c4	-0.004479142
62	0xbd3646b0	-0.044501007
63	0x3bf8460b	0.007576709
64	0xbc1452a5	-0.009052907
65	0xbd39ae92	-0.0453325
66	0xbd3f4683	-0.046698105
67	0x3ce96bb6	0.028493743
68	0xbc4d4ec0	-0.0125309825
69	0x3c9b3b40	0.018949151
70	0x3d3e9087	0.04652455
71	0x3d0c5f03	0.034270298
72	0xbae44b1f	-0.0017417407
73	0xbcfc7c0f	-0.030820874
74	0x3d5554dd	0.052082885
75	0xba3a915e	-0.00071169983
76	0x3d40ee8d	0.0471025
77	0x3d4a0c61	0.04932821
78	0xbd413cf7	-0.04717728
79	0xbd03a444	-0.032139078
80	0x3cad5cef	0.021162478
81	0x3a42fc3a	0.00074380974
82	0x3d40b1af	0.047044452
83	0xbc2de3a0	-0.010613352
84	0xbd39e261	-0.045381907
85	0xbccc2abb	-0.02492272
86	0xbc967e8e	-0.018370893
87	0xbc10f016	-0.008846303
88	0xbd1427c2	-0.03617073
89	0xbb5310a9	-0.0032205975
90	0x3d0640c7	0.03277662
91	0xbd2eb6eb	-0.042654913
92	0x3b88f8ba	0.004180041
93	0xbd07f606	-0.03319361
94	0xbd072c93	-0.033001494
95	0x3d3159dc	0.043298587
96	0xbd2981e6	-0.041383646
97	0xbd549bb5	-0.051906306
98	0x3d430734	0.04761429
99	0xbc006b7c	-0.007838126
100	0x3c6417f1	0.013921724
101	0x3d2d4b48	0.042308122
102	0x3ba04ef5	0.004892225
103	0xbc601283	-0.013676289
104	0x3c3c8993	0.01150741
105	0xbc855010	-0.016273528
106	0x3c862bf2	0.016378377
107	0x3c48abf7	0.012248031
108	0xbc7cb39c	-0.015423682
109	0xbce96822	-0.028492037
110	0x3cb69a10	0.02229026
111	0x3c7cf685	0.015439634
112	0xbd1e21bb	-0.038606387
113	0x3c909048	0.017646924
114	0x3d10b165	0.035325427
115	0xbd169cdb	-0.036770683
116	0xbc604f1f	-0.013690739
117	0xbd269cc2	-0.04067684
118	0x3d2bd2b2	0.04194898
119	0xbc7f1ac8	-0.01557035
120	0xbce3398c	-0.027737401
121	0x3cd2a99a	0.025715638
122	0x3c94f712	0.018184219
123	0x3d210aa3	0.039316785
124	0xbd1a2fae	-0.037643127
125	0x3c2a7bbf	0.01040548
126	0x3d6afd3f	0.05737042
127	0x3d77b9e1	0.060480002
128	0x3d3741cc	0.044740483
129	0xbc3027fd	-0.010751721
130	0xbbcb6dbd	-0.00620815
131	0xbc81f247	-0.015862597
132	0xbca1f590	-0.019770414
133	0xbd08e47f	-0.033421036
134	0x3d4457c6	0.04793527
135	0x3cc38307	0.02386619
136	0x3d36b572	0.044606633
137	0xbcffe6a8	-0.031237915
138	0x3c558470	0.013032064
139	0x3cd46834	0.025928594
140	0xbcb99db1	-0.022658201
141	0xbd09997c	-0.03359364
142	0xbb63b501	-0.0034745338
143	0x3d22ee54	0.03977807
144	0x3b6697fc	0.0035185805
145	0x3baf68e3	0.0053530796
146	0xbd0580ed	-0.032593656
147	0x3d2cf426	0.042225026
148	0xbc8fbdb8	-0.01754652
149	0x3d42352f	0.047414
150	0x3d0579aa	0.03258673
151	0xbd21c25e	-0.039492004
152	0x3ca8bac2	0.020596866
153	0xbcce989d	-0.025219256
154	0xbcd1a7f8	-0.025592789
155	0x3cd954b1	0.026529642
156	0xbd2826a8	-0.04105249
157	0xbd2f4918	-0.042794317
158	0x3d19d66f	0.037558015
159	0xbd1b8233	-0.037965965
160	0xbb6ccd16	-0.0036132983
161	0x3ce8c792	0.028415475
162	0x3c433533	0.011914539
163	0xbcb30765	-0.021854112
164	0xbd216a81	-0.03940821
165	0x3b8beab1	0.0042699208
166	0x3cd9ed97	0.02660255
167	0xbd0ca535	-0.03433724
168	0x3ba50f0a	0.005037193
169	0xbcace276	-0.021104079
170	0xbba1f63c	-0.0049426835
171	0x3d38f672	0.045156904
172	0xbd0d5396	-0.034503542
173	0x3d426ece	0.047468953
174	0x3cd5f9bd	0.026120061
175	0xbc8c1d44	-0.017103799
176	0xbcdbd2e0	-0.026833951
177	0x3ce80574	0.028322913
178	0x3bc09c75	0.005878026
179	0x3d40c394	0.047061518
180	0xbcaa06b7	-0.020755155
181	0xbd2444c5	-0.040104646
182	0x3c53138c	0.012883078
183	0xbc97bf9d	-0.018523986
184	0x3bedb846	0.007254633
185	0xbd01bb1e	-0.03167259
186	0xbb45579a	-0.003011203
187	0x3af10f2e	0.0018391365
188	0xbd330c06	-0.04371264
189	0x3d0bf325	0.034167428
190	0x3c7ffc6f	0.01562415
191	0x3cf1cbaa	0.02951606
192	0x3cf30a88	0.029668108
193	0xbd5a507e	-0.05329942
194	0x3d015194	0.03157194
195	0x3cf3dadc	0.029767446
196	0xbca39f7e	-0.019973513
197	0xbd1a5e46	-0.037687562
198	0xbceb15d9	-0.028696941
199	0xbd2c61d5	-0.042085487
200	0x3d3ab394	0.045581415
201	0x3c094eea	0.008380631
202	0x3b3280ba	0.0027237372
203	0x3d3d2ad6	0.04618343
204	0xbd24013e	-0.040040247
205	0xbbbb1791	-0.0057095964
206	0xbc8350fa	-0.016029824
207	0x3b8d8ff7	0.0043201405
208	0xbc928af0	-0.017888516
209	0xbd1a7e1f	-0.037717935
210	0x3d4031a5	0.046922345
211	0xbca12713	-0.019671952
212	0xbca4c6e7	-0.020114375
213	0xbcf70823	-0.030155247
214	0x3c83c807	0.016086591
215	0xbaa7287c	-0.0012753154
216	0xbc7e7045	-0.015529697
217	0xbc1bdf58	-0.0095136985
218	0xbc076e21	-0.008266003
219	0x3d182be6	0.03715124
220	0x3c435575	0.01192223
221	0xbd269f0b	-0.04067902
222	0x3d189472	0.037250943
223	0xbd280506	-0.041020416
224	0xbc798c06	-0.015231138
225	0xbd344e7a	-0.044020154
226	0xbb5666a0	-0.0032714978
227	0xbcaf9dff	-0.021437643
228	0xbcf7899b	-0.030216983
229	0xbcd09cc5	-0.025465379
230	0xbd382443	-0.044956457
231	0x3c756d6d	0.014979702
232	0xbd17d065	-0.037063975
233	0x3d42fa6d	0.047602106
234	0x3c04453b	0.008073146
235	0xbb815955	-0.003947417
236	0xbc1d4d89	-0.009601005
237	0xbd3c577e	-0.045981877
238	0xbcb12d8e	-0.021628167
239	0x3cc5431b	0.02407985
240	0xbc1c4d4b	-0.009539912
241	0x3d423065	0.047409434
242	0xbd088f75	-0.033339936
243	0xbb53c8c9	-0.0032315722
244	0x3cc83d66	0.02444334
245	0xbcce43db	-0.02517884
246	0xbc12061c	-0.008912589
247	0xbd364a44	-0.04450442
248	0x3ccdcadf	0.02512115
249	0xbca48376	-0.020082217
250	0x3d3aeac5	0.04563405
251	0xbc7ab0f8	-0.015300982
252	0x3d75a47d	0.05997132
253	0xbc7ee436	-0.015557339
254	0x3d5a893a	0.053353526
255	0x3d2ff582	0.042958744

conv2.bias f4 [32]
0	0xbc6a46e3	-0.014299127
1	0xbd477dbf	-0.048703905
2	0xbea379be	-0.3192882
3	0x3e2dc190	0.1696837
4	0xbf6d3d7a	-0.9267193
5	0x3dffb797	0.12486189
6	0x3e1dadb5	0.15398295
7	0x3e40e2ba	0.1883649
8	0xbe7054df	-0.23469876
9	0xbc923369	-0.01784678
10	0x3dba0b2f	0.09084164
11	0xbf118d89	-0.5685659
12	0x3d803cc4	0.0626159
13	0xbd7af6a3	-0.061270367
14	0x3f4e203b	0.8051793
15	0x3eb7b9ac	0.35883844
16	0x3d4da2b2	0.050203986
17	0xbec8b2ce	-0.39198917
18	0xbec1d0ec	-0.37854707
19	0x3ddd2312	0.10797705
20	0x3e45ac78	0.19304073
21	0xbec4980c	-0.38397253
22	0x3d7b24fe	0.061314575
23	0x3eeb7550	0.4598794
24	0x3d4cdb36	0.050013743
25	0x3f1d4e6e	0.614478
26	0xbc1213a8	-0.008915819
27	0xbf6fbbaf	-0.9364576
28	0x3e706c5f	0.2347884
29	0x3f47a2e7	0.77982944
30	0xbe0893be	-0.13337609
31	0x3f5e7e87	0.86911815

fc1.weight f4 [10, 5408]
0	0x3ca8d2bd	0.0206083
1	0xbaf8e523	-0.0018989187
2	0x3c474a3c	0.012163695
3	0x3c59b6aa	0.013288179
4	0x3ba03fef	0.004890434
5	0x3aaa08a9	0.0012972552
6	0xbbe193f6	-0.0068840934
7	0x3abc5e1b	0.0014371307
8	0xbab0c7ef	-0.0013487319
9	0xbc14de17	-0.0090861535
10	0x3b2be4e4	0.0026228959
11	0x3c623243	0.013805929
12	0xbc00c961	-0.0078605125
13	0x3a727ebe	0.00092504534
14	0xbbaca0a4	-0.0052681733
15	0x3c69c99b	0.014269258
16	0x3c317c55	0.010832866
17	0x3c7bd5e1	0.015370817
18	0x3c838f77	0.01605962
19	0xbc213ee5	-0.009841655
20	0x3c035dde	0.008017985
21	0xbb1d2ae9	-0.0023981875
22	0x39fb4403	0.00047925123
23	0xbb9741ea	-0.004616012
24	0x3bcd716e	0.0062696254
25	0xb9b71131	-0.0003491729
26	0xbba12dc3	-0.0049187853
27	0x3b743e28	0.0037268493
28	0x3bd46f30	0.006482981
29	0x3c5a3565	0.013318394
30	0x38c963dc	9.603027e-05
31	0x398bc2c2	0.00026657252
32	0x3c55b3c3	0.013043347
33	0x3c7c70f7	0.015407792
34	0x3c79eda6	0.015254414
35	0xbc201ff4	-0.009773243
36	0x3c38acbf	0.011271655
37	0xbaac36b1	-0.0013138858
38	0x3c81a314	0.015824832
39	0x3b1f560d	0.0024312765
40	0xb9ecd0db	-0.00045169037
41	0xbbc309f9	-0.0059521166
42	0xbb589189	-0.003304573
43	0x3c018c62	0.007907005
44	0x3c66662e	0.0140624475
45	0xbb9839cc	-0.004645562
46	0xb9d8dc58	-0.000413629
47	0x3c2ab6af	0.010419532
48	0x3b6c8bc0	0.003609404
49	0x3bda029b	0.0066531426
50	0xbba67a3b	-0.005080489
51	0xbae87216	-0.0017734196
52	0xbb8ca679	-0.004292306
53	0xba3e3164	-0.00072552846
54	0x3c371d67	0.011176444
55	0xbc09dd12	-0.008414524
56	0x3ae14c13	0.001718881
57	0xbaa20651	-0.0012361502
58	0xbc28512d	-0.01027326
59	0x3bdec927	0.0067988816
60	0x3aaaa268	0.0013018372
61	0x3bcd2e5f	0.0062616314
62	0x3bcc5ea2	0.006236867
63	0x3c6a71d8	0.014309369
64	0x3bdb1acf	0.0066865454
65	0xbb040f5d	-0.0020150759
66	0x3b666de9	0.0035160726
67	0xbbdb4b98	-0.006692361
68	0x3c0a9b03	0.008459809
69	0xbc20bb11	-0.009810225
70	0x39f77906	0.0004720168
71	0x3b05fb08	0.0020443816
72	0xbc2ae588	-0.010430701
73	0x3b3dc9e7	0.0028959455
74	0x3a0743ba	0.00051599334
75	0x3c24e0da	0.010063374
76	0x3b93f331	0.0045150747
77	0x3c4d27f8	0.012521736
78	0xbbfc9ee0	-0.007709369
79	0xbc09820b	-0.008392821
80	0x3c7474bc	0.01492041
81	0x3c1425b5	0.009042193
82	0xbc1b4dd4	-0.009479005
83	0xbb5ad7e8	-0.003339285
84	0xbbcb67c6	-0.006207439
85	0x3bfcd6cf	0.007716037
86	0x3b969584	0.0045954604
87	0x3c13b526	0.009015357
88	0x3c121f7e	0.008918641
89	0xbb8cdfee	-0.0042991554
90	0x3c5b36b6	0.013379743
91	0x3c4f3c58	0.012648664
92	0x3b86d83e	0.0041151335
93	0x3c03b690	0.008039132
94	0x3c3121d5	0.010811289
95	0xbb702de3	-0.0036648444
96	0x3bb6b08a	0.0055752443
97	0x3c6bbcb2	0.01438825
98	0xbba74541	-0.0051046913
99	0x3c411e82	0.011787059
100	0x3c43cdab	0.0119508905
101	0x3c42914c	0.011875462
102	0xbc078ec6	-0.008273786
103	0x3bf8f6ed	0.007597795
104	0x3c24802f	0.010040327
105	0x3b685fd5	0.003545751
106	0x3c3b8f17	0.0114476895
107	0xbb3eed50	-0.0029133148
108	0x3a89825b	0.001049112
109	0x3c8075bd	0.015681142
110	0x3ab74830	0.0013983306
111	0x3bc3f755	0.005980412
112	0x3c650965	0.013979291
113	0x3c5030c2	0.012706937
114	0x3c65c34a	0.014023611
115	0x3c3bd2ac	0.011463802
116	0x3ac46ff4	0.0014986978
117	0x3a0c8ffd	0.0005362032
118	0x3b873acb	0.0041268817
119	0xbbd9176f	-0.006625108
120	0xbc0bd781	-0.008535267
121	0xbc1a3a67	-0.009413338
122	0xbc23a071	-0.009986983
123	0x3bd15788	0.0063886084
124	0x3c69dd50	0.014273956
125	0x3c0f61b6	0.008751323
126	0x3b605d7e	0.0034235413
127	0x3c7a951a	0.015294338
128	0x3b8793ca	0.004137491
129	0x3c892657	0.016741915
130	0x3c524e5a	0.012836063
131	0x3c2e6001	0.010643006
132	0xbbf35da6	-0.0074269352
133	0x3bd31351	0.0064415117
134	0x3c66c82a	0.014085809
135	0xbb8def72	-0.0043315226
136	0xbb9ea5d1	-0.004841544
137	0x3b8e1e3e	0.0043371012
138	0x3c545d3c	0.012961682
139	0x3c64006c	0.013916116
140	0x3c6b8137	0.014374069
141	0x3c6eb19e	0.014568714
142	0x3c9dc9e3	0.019261306
143	0x3c5be669	0.013421633
144	0x3ace70c7	0.0015750163
145	0x3c00cdf7	0.007861606
146	0x3a6c5263	0.0009014962
147	0xbc2efa2d	-0.010679764
148	0x3c36ea30	0.011164233
149	0x3a08e4dc	0.0005222091
150	0x3b91878e	0.004441208
151	0xbab41d40	-0.0013741627
152	0xbc16789b	-0.009184028
153	0x3b16cb50	0.0023009367
154	0x3c861883	0.01636911
155	0x3bcbf886	0.0062246947
156	0x3c0c8d3a	0.008578593
157	0x3c064983	0.0081962375
158	0x3c1ec08c	0.009689461
159	0xbc190903	-0.0093405275
160	0xbb69e95b	-0.003569207
161	0xbb84c703	-0.0040520444
162	0x3c15826c	0.009125333
163	0xbb4baf6a	-0.0031079897
164	0x3c44b30d	0.01200558
165	0xbae68bc9	-0.0017589267
166	0x3bcd6d2c	0.006269118
167	0x3b8ddf67	0.00432961
168	0x3c2b0021	0.010437042
169	0x3b14ae16	0.002268677
170	0xbc02490e	-0.007951988
171	0x3b467de8	0.0030287448
172	0xbbb25bde	-0.0054430803
173	0x3c196f24	0.009364877
174	0xbc23c626	-0.009995973
175	0xbb813d1a	-0.0039440515
176	0xbc49f8ec	-0.012327414
177	0x3bc06c6c	0.0058723
178	0x3bfd80e9	0.0077363146
179	0x3c4eebe3	0.012629482
180	0xbb59dea5	-0.0033244279
181	0xbbe9801e	-0.0071258685
182	0x3a3f97d1	0.0007308694
183	0xbc4e5988	-0.012594588
184	0x3c3ae007	0.011405951
185	0xbbb6bfe0	-0.0055770725
186	0x3bc26c9f	0.005933359
187	0xbc0572a1	-0.008145005
188	0x3c0496fc	0.008092638
189	0xbbbce03b	-0.005764035
190	0x3c2994b0	0.010350391
191	0xbb51f3ed	-0.003203626
192	0x3bf03b42	0.007331283
193	0x3c5aeead	0.013362569
194	0xbc13bf14	-0.009017725
195	0x3bcf9dfd	0.0063359723
196	0xbaaf8cd3	-0.0013393409
197	0xbc3ffe9d	-0.011718419
198	0xbb003292	-0.0019561392
199	0xbc45f0ea	-0.012081364
200	0x3b99e204	0.0046961326
201	0xbb3b5578	-0.002858488
202	0x3a47dd85	0.00076242565
203	0x3c5ab676	0.013349166
204	0xbbc688af	-0.0060587744
205	0x3c2fd584	0.010732058
206	0xbc12cf04	-0.008960489
207	0x3c52ad03	0.012858632
208	0xbc3d0dd5	-0.011538942
209	0x3b827ce6	0.003982174
210	0x3bd692b1	0.0065482487
211	0x3c287550	0.010281876
212	0x3c2ed1f6	0.010670176
213	0xbc4efa94	-0.012632985
214	0xbbd164b3	-0.006390178
215	0x3b44db57	0.0030037963
216	0xbb2a193c	-0.0025954982
217	0x3c13f70c	0.0090310685
218	0x3bc853a8	0.006113488
219	0x3c0b74c2	0.008511724
220	0x3badcb01	0.005303741
221	0xbc454efc	-0.012042757
222	0x3c58f9b7	0.01324313
223	0xbc426ede	-0.011867253
224	0xbc31ca3f	-0.010851442
225	0xbbcdb09e	-0.006277158
226	0xbbb790a6	-0.0056019602
227	0x3bf75e25	0.0075490647
228	0x3bea063a	0.0071418555
229	0x3c377959	0.011198365
230	0x3990e564	0.0002763673
231	0xbacaa235	-0.0015459718
232	0xba29e674	-0.00064811786
233	0xbc2cac50	-0.010539129
234	0x3afa2e72	0.0019087328
235	0x3c413064	0.011791322
236	0x3a590bb4	0.0008279637
237	0x3c1585e4	0.00912616
238	0x39cec5dd	0.00039438801
239	0x3bedb863	0.0072546466
240	0x3c02abaa	0.007975498
241	0xbc341db0	-0.010993406
242	0x3c2bb2c6	0.010479635
243	0xbb4ea21f	-0.0031529737
244	0xbc040434	-0.008057643
245	0xbbbeec77	-0.0058265286
246	0xbc27598b	-0.01021422
247	0x3c001a2f	0.007818743
248	0xbc1fb46c	-0.009747606
249	0x3bee5677	0.007273491
250	0xbb67483e	-0.0035290862
251	0xbc07a8e3	-0.008280012
252	0x3b263d76	0.0025366223
253	0xbc4fdae0	-0.012686461
254	0x3c5be2fa	0.013420815
255	0xbc2028bd	-0.009775338

fc1.bias f4 [10]
0	0xbd2e97de	-0.0426253
1	0xbc95b728	-0.018275812
2	0x3f37f561	0.71858793
3	0xbba6def9	-0.0050924984
4	0xbf46cc7a	-0.77655756
5	0x3b4ccf87	0.0031251626
6	0x3ad0f638	0.001594252
7	0xbdbb6e1b	-0.0915186
8	0xbe03a7c9	-0.12856974
9	0x3e9cbc79	0.30612543
