assignment_2_cnn/Model/Simple-CNN/model.pth (torch, 274804 bytes, 6 tensors)

conv1.weight f4 [16, 3, 5, 5]
00000000: 1cc6 5bbc cff6 1fbd 986c 1dbe 08e1 50be
00000010: 6871 1fbe 53e4 03be ac06 e73b 1aa9 2dbe
00000020: f8d1 cebd 23f9 52be 7a32 cebc d2d0 c4bd
00000030: 5c2c 5fbb 7b6c 8dbd 1c23 3dbe 6aea 7d3b
00000040: 6b0e 3abe 364d 3bbe 24ac e1bd 4026 d1bc
00000050: e9a1 2fbe 8e30 3ebd 874f e3bd aac3 1dbd
00000060: dd36 1dbe 8a5f 31be c4a7 b3bd 9d10 d7bd
00000070: a935 16be 4278 f8bd f7e7 4cbe 5b8d 89be
00000080: 7c75 11be 17aa 8abd edec 23be 562b 09be
00000090: de1c 1bbe 124e 8abd 6457 babd cb8a 1bbe
000000a0: 75b5 52be 8f33 67be 508f 1fbd 1db0 26be
000000b0: e3d4 5abe 0db1 0fbe 51f3 07bd 2961 bbbd
000000c0: e5e1 87bd 6aaa 7abe a0a7 253e 4a8f 023e
000000d0: 8a24 243e bb07 673d 5105 043e 24d0 6d3d
000000e0: 7d29 363e 27b8 203e 0840 773e 50a5 553e
000000f0: a43b 2c3e 17ec 873d af4c b83d 30d7 9b3d
00000100: d4c7 553e a49c c23d da52 6e3e 8631 b33d
00000110: 74ca 583d cd68 5f3e dff0 523e c74c 573e
00000120: 89ea 283e 0ec3 213e 5bbb 7e3e d094 48be
00000130: de4d 2b3d 323e 2c3e ea7c 52be d0c2 6bbe
00000140: bd25 32be af1f 6dbd a0e0 0cbe 6a35 7cbe
00000150: 6db5 c6bd df1b cbbd 88e3 2b3c f920 25be
00000160: fa8d a2be 66f0 173c 2585 a4bd 9abb 50be
00000170: 322f 3dbe 4e10 90be 3d27 45bc 99a8 8fbe
00000180: 9eaf 62be 3297 43be a7a2 febc 32f3 7bbd
00000190: 8405 96bd f26d ea3d 57e7 bb3e c489 393c
000001a0: 4577 a33c 60b2 403e eeb5 8c3e 2a5b 163e
000001b0: 8059 503d 4445 063e 8104 4e3e a516 5b3e
000001c0: bd19 e23d 06ba 15bd 9d3f 473e 8f18 4cbd
000001d0: 4033 173e ece2 32bb f9fa 7fbd bdf3 043e
000001e0: 3da8 133d 7f84 a53c f506 b83b 3592 513e
000001f0: bb03 943e 2716 c7bd d0ac 123e 76ca a33e
00000200: af98 363e af90 d23d 89c4 9cbd 7784 1f3d
00000210: 141f 873d e9b0 f83d 3f48 84bd b49d 2e3e
00000220: 5823 923d 29fa 5ebd 7517 0abd 9511 bc3d
00000230: 0a36 813d 6389 ab3d d8cf 043d 41d4 78bd
00000240: d5b6 e43d 7b09 c4bd b67e c2bd 95f8 a13d
00000250: 8e7d dc3d fb4a 5d3e 3e7e d1bc c080 31be
00000260: 4baa d9bd 2e05 4bbe 5fa8 b0bd d55c 15be
00000270: ff5c 51bc 79d5 4ebe cbef 31be ad04 2ebe
00000280: 17c8 f9bd 1111 a9bc 5842 2cbe b5ea 81bd
00000290: 303b 9fbb 1c0f 3cbe cf7a 52be 48b6 1cbe
000002a0: 34a5 8dbc 7e53 d2bd f2a2 76be 407d aabd
000002b0: 7008 47be 740c 39be e92d 9dbd a1e7 313e
000002c0: ee36 633e 6501 603e feed 693d 397b 5b3d
000002d0: fc3b 643d 947c 423d b7ca 9a3d 7558 693e
000002e0: 4c0e bf3d 71f3 273e 1567 8a3e 560f d23d
000002f0: 8e8a 703e f90a bf3d ae13 023e 374c 653e
00000300: 191f 8b3e 8d9f 883e 92b0 b93d 4c71 5f3d
00000310: 52d1 2d3e f0ea 8a3e 11cc 053e 37e3 283e
00000320: 05b9 9b3d 5478 423e 2978 f83d cfea 3d3e
00000330: d2a5 02bd d419 483e 08d8 2e3c cf89 af3c
00000340: 8ef4 b53b bdaf b13d ca6f 2b3d 63c0 643d
00000350: 5b9f 413e 42ef 1d3e 48da d73d 257b 743d
00000360: f5ce 103e a7b2 873e e2b4 233e d117 1a3e
00000370: 2c82 083e 21aa bf3d ca57 d83c fd90 c93d
00000380: 9366 473e 680e 713e 123c 253e 32ca 303e
00000390: 91a9 1e3e 109b b83d bb02 203e 59de 463e
000003a0: f5e5 193e f144 853e ed6c 3e3e d296 723e
000003b0: f123 343e 8a57 973e 41fe 313e a96e 383e
000003c0: ed85 843e ab07 513e 4f61 5e3e 60ad 283e
000003d0: ff0d df3d 9f4b bb3d 54c9 2f3e 6352 813e
000003e0: 8e18 713e 859a 243e 496b 793d 2a19 873c
000003f0: cdd6 0abd fd11 373d 958a 13be e26d c03c
-0.013413932 -0.039053734 -0.15373456 -0.20398343 -0.15570605 -0.12880068 0.007050356 -0.16959038
-0.10098642 -0.2060285 -0.025170553 -0.09610142 -0.003405354 -0.06905457 -0.18470424 0.0038744458
-0.18169563 -0.18291172 -0.11019161 -0.025530934 -0.17151608 -0.046433024 -0.11099153 -0.038516678
-0.1535296 -0.17321602 -0.08772233 -0.105012156 -0.14668907 -0.12132312 -0.20010363 -0.26865658
-0.14204973 -0.06770723 -0.16008349 -0.13395438 -0.1514773 -0.06753172 -0.090987 -0.15189664
-0.20577033 -0.22578262 -0.038955033 -0.1627812 -0.21370272 -0.14032383 -0.03319103 -0.09149391
-0.06634883 -0.2447907 0.16177225 0.12749973 0.16029564 0.056403857 0.12892653 0.058059826
0.17789264 0.15695249 0.2414552 0.20863843 0.16819626 0.066368274 0.08999001 0.07609403
0.2087701 0.09502533 0.23273793 0.0874968 0.05292745 0.21817322 0.20599698 0.21025382
0.16495718 0.15797064 0.24876158 -0.19588017 0.041822307 0.168206 -0.20555463 -0.23023534
-0.17397209 -0.057891544 -0.13757563 -0.24629751 -0.09702573 -0.09917425 0.010491259 -0.1612586
-0.31748945 0.009273624 -0.08033208 -0.20384064 -0.18475035 -0.2813744 -0.012033281 -0.28058317
-0.22137305 -0.19100645 -0.031083418 -0.061511226 -0.07325271 0.11446752 0.36699936 0.01132435
0.019954333 0.18818045 0.2748255 0.14683214 0.050866604 0.1311236 0.20118906 0.21395357
0.110400654 -0.03655436 0.1945786 -0.04982811 0.14765644 -0.00272959 -0.062495206 0.12983604
0.036049116 0.02020478 0.0056160637 0.2046593 0.28909096 -0.09721022 0.14323735 0.31990403
0.17831682 0.102815025 -0.076546736 0.038944688 0.065977246 0.12143118 -0.06459092 0.17052346
0.071356475 -0.05443779 -0.033713777 0.09183041 0.06309135 0.08375814 0.032424778 -0.060749296
0.11167685 -0.09572121 -0.094968244 0.079087414 0.10766135 0.21610634 -0.025572892 -0.1733427
-0.10628184 -0.19826195 -0.08625864 -0.14586194 -0.01277852 -0.20198621 -0.1737663 -0.16993971
-0.12196367 -0.02063802 -0.16822183 -0.06343595 -0.0048593506 -0.18365139 -0.2055466 -0.1530391
-0.017290689 -0.10269831 -0.24085596 -0.08324671 -0.19436812 -0.18071157 -0.07674772 0.17373516
0.22188923 0.21875532 0.057111733 0.05358431 0.055721268 0.04748209 0.07558196 0.2278765
0.09328899 0.1640146 0.2703177 0.10256831 0.23490354 0.09328265 0.1270282 0.22392355
0.27172163 0.26684228 0.09066881 0.054551408 0.1697438 0.27132368 0.13066126 0.16492926
0.07603649 0.18991214 0.12132294 0.18546604 -0.03189642 0.19541103 0.010671623 0.021428017
0.005552835 0.086760975 0.041854657 0.055847537 0.18908446 0.15423301 0.10539681 0.059687752
0.14141448 0.26503488 0.1598697 0.15048148 0.13330907 0.093586214 0.026409049 0.098421074
0.19472723 0.23540652 0.16136196 0.17264631 0.15494372 0.09013951 0.15626042 0.19420756
0.15029128 0.2602916 0.1859624 0.23690346 0.17591836 0.29558975 0.17382146 0.18010963
0.25883427 0.20413081 0.21716808 0.16472387 0.108913414 0.09145283 0.17166644 0.2525817
0.23544523 0.1607457 0.06089333 0.016491491 -0.033896256 0.04469489 -0.14408334 0.023489896

conv1.bias f4 [16]
00000000: 79cf d03e 15ca 11bf 1bac acbf 1269 633f
00000010: 3c6e 313e a30f cb3d c757 8abf 67e6 e43e
00000020: f9a8 9f3d 0341 e2bb 91d1 7bbf 3221 8f3d
00000030: e29d 383f d2c6 91bd 5e62 1ebf 5272 0f3f
0.4078329 -0.5694898 -1.3490022 0.888322 0.17327207 0.09915092 -1.0808038 0.44707033
0.07795901 -0.0069047227 -0.9836665 0.069887534 0.7211591 -0.07118 -0.61868846 0.56033814

conv2.weight f4 [32, 16, 5, 5]
00000000: dd62 5bbd 38a4 d9bc 886b 563c 7081 6abd
00000010: 6434 70bd 00d1 efbc 6e11 5cbc 57d6 ad3b
00000020: 2ccb 69bc 5aea 363d 5e10 ffbc e890 2b3d
00000030: 1a96 72bc 4706 203d 75ff 92bc f23c 363c
00000040: 1d07 94bc 993c 563d 2d87 253d 9cea 46bd
00000050: 4e81 4cbd 884d 66bc 7a2b 65bc cab7 18bd
00000060: f159 27bc 4352 b53b bdae 31bc aca0 4bbd
00000070: a4c2 57bd 8ad8 a4ba 217e 39bc 9cf2 e7bc
00000080: 3578 0abd c448 343a f766 92bc d4b5 3d3c
00000090: d984 373b abb1 65bc a2ec 1eba b486 2a3d
000000a0: e169 95bc 0773 2e3c 029a 093d 29c3 713c
000000b0: 920d acbc 77a5 14bd c646 62ba 305b 673d
000000c0: 14d4 613d 419f 753d 9a6d 613b 2756 413c
000000d0: 7084 0a3c ca93 5e3c 2ff6 85bd 44b0 23bd
000000e0: a6d3 7dba 96cc 083c a426 853b 031b d4bc
000000f0: caf5 e3bb 8166 6c3c fd82 03bd 053f 9fbb
00000100: c8ee 013d 72bd 653d a789 ab3c 23ff 563d
00000110: 0d9f 4b3c 3be3 5c3d 77d3 00bd 3a1b 2c3d
00000120: c872 343d 93e0 0fbd a379 033d 3813 fd3a
00000130: acee d23c be83 f83c ab0b d1bc 392c 9dbc
00000140: 8118 253d e41c 703c 8fa7 43bd 9579 14bc
00000150: 023b 67bd 6a6c 10bc c5c9 61bd 32b2 c1bc
00000160: 28fd 81bc 4f12 e1bc 3a5d 333d 985f 99bd
00000170: 347c cabc 11a9 47bd 8f74 b2bd d408 9dbc
00000180: dea1 79bd 5542 7cbd fc41 c8bd 7440 1abd
00000190: d398 923d ab50 91bc 17fb 93bb 2ff9 96bd
000001a0: 22ef 9fbb 3e37 a23d 0be2 9c3d 2889 efbc
000001b0: a7f9 25bd 5fb2 17bd 7406 393d f01b f43d
000001c0: e1cb 02bd 6be5 3ebd 4e96 38bd 21b1 a53d
000001d0: 3440 6c3d 4753 963c 9cd5 8ebd d209 70bd
000001e0: 13f9 e83d 2887 993d 5a78 0bbd 2b41 71bd
000001f0: 1133 debd 8a1c 06bd 722b 4abd b893 32bd
00000200: fa42 adbc 33db 3b3b 9dba a9ba b25f 1539
00000210: 7685 0bbd 0d2c fa3b b58e b43b 6fa7 2abd
00000220: 7bd0 46bd 5537 673b 1183 213d 43f1 323d
00000230: 99bc 033d 404f 9a3b 9bfa 203d 40c3 38bc
00000240: 99c1 36bc 600d fa3c 33b7 0f3d 4080 46bd
00000250: 187f 2c3d 888e 223d d6fe 4b3b dc42 65bd
00000260: b723 40bd a6c5 38bc 45fc ecbb df49 cf3b
00000270: 43e6 d7bc d666 b83c b1eb 8dbd 8096 a6bd
00000280: 38d9 a23d 94cb 3f3d a233 21bc 8743 96bb
00000290: 62af a2bd af7b d93d 45f2 b43d 31c7 aebb
000002a0: 29db 33bd c423 babb a39f e63c 0941 3d3c
000002b0: fe59 adbc 1682 c2bc 7f03 57bc d4f1 153d
000002c0: 0bba 8bbc 0525 6d3c a647 6dbd 733a 8ebd
000002d0: 917d 763c 5f9a e5bc 2382 01bd 718f bfbd
000002e0: af85 5fbd e992 d53b 2476 37bd c912 92bd
000002f0: 310c c6bd de1a 93bd 284a febc aaba 583c
00000300: c65a 51bd f083 d9bd 13d4 35bd 5716 003d
00000310: 7cd8 b4bd 736e a0bd 4403 75bd 9b4e eebd
00000320: d059 bebc 699c 953c a1a8 61bc 79d9 dcbb
00000330: 57eb 3dbc 5932 443d 8c98 91bc 49c9 cbbc
00000340: f17e cabc 3a29 20bd ac2c 063d da7a 113d
00000350: 4af3 b43c bb43 c9bc 30a0 1bbd 3b3d 4b3d
00000360: 7e1a 013d 5840 073d d837 103d 815c 82bc
00000370: 3d4d e93b fb0b 113d c6dc 033d 5127 c3bc
00000380: 2ff9 de3c a5ea 183c 39b5 2e3d 6602 343d
00000390: 86f0 b73c 0b6e 63bd 5fd5 993d 6782 293b
000003a0: 554f a8bb 0aae fcbb d455 703b 71bb 353d
000003b0: e813 823c a2c3 7a3c 8efc bfba 03ab 113d
000003c0: 179a 5a3d 2e6d 513d f8fc fcbc 6365 2cbd
000003d0: bb2a a53c 7f49 723d 9e7c 2ebc 8497 02bd
000003e0: 56ad 7a3c 15f0 e0bc 1bc6 f0bc f477 5fbd
000003f0: d60a f9bb 41c4 4f3c ae11 8cbd 6392 4c3d
-0.05356108 -0.026567563 0.013087161 -0.057252347 -0.058643714 -0.029274464 -0.01343189 0.0053050923
-0.014269631 0.04465709 -0.031135734 0.04188624 -0.014806295 0.039068487 -0.017944077 0.011122929
-0.018069798 0.052303884 0.040412117 -0.048563585 -0.049928002 -0.014056571 -0.013987416 -0.03728465
-0.010214315 0.005533488 -0.0108448835 -0.049713776 -0.05267586 -0.0012576741 -0.011321575 -0.028313927
-0.033806045 0.0006877298 -0.017871363 0.011578996 0.0028002767 -0.01401941 -0.0006062483 0.04163237
-0.018238964 0.010647542 0.03359414 0.014756002 -0.021002565 -0.036290612 -0.0008631762 0.056483448
0.055133894 0.05996633 0.0034397603 0.0118003255 0.008454427 0.01358504 -0.065410964 -0.039963022
-0.0009682722 0.008349558 0.004063444 -0.025891786 -0.0069567906 0.014428736 -0.032107342 -0.0048598074
0.03172186 0.056088872 0.020939661 0.05248941 0.012428057 0.05392764 -0.03145167 0.042018153
0.044054776 -0.03512628 0.032098424 0.0019308096 0.025748573 0.030336257 -0.025518259 -0.019186126
0.040306572 0.014655326 -0.04776722 -0.009062191 -0.05645276 -0.00881491 -0.055124063 -0.02364454
-0.015867785 -0.02747455 0.04379008 -0.07488936 -0.024717428 -0.04874522 -0.08713638 -0.019169249
-0.060945384 -0.061586697 -0.097782105 -0.037659124 0.07158055 -0.01773866 -0.004516016 -0.07371747
-0.004880802 0.07920693 0.07660302 -0.029240206 -0.04052129 -0.037035342 0.04517217 0.11919391
-0.031932715 -0.04660551 -0.045065217 0.08090425 0.057678416 0.018350257 -0.069743365 -0.058603115
0.11375632 0.07496482 -0.034050323 -0.05890004 -0.10849584 -0.03274206 -0.04935784 -0.043597907
-0.021150101 0.0028664588 -0.0012949292 0.00014245397 -0.034062825 0.007634646 0.005510176 -0.041663583
-0.048538666 0.0035280783 0.039431635 0.043687116 0.032162283 0.0047091544 0.039301496 -0.01127702
-0.011154556 0.030523956 0.03508682 -0.048462152 0.042113394 0.03968671 0.0031127236 -0.055971965
-0.04690906 -0.011277592 -0.0072322213 0.006325945 -0.026354915 0.022509973 -0.0692972 -0.08134174
0.079515874 0.046825007 -0.00983897 -0.0045856866 -0.07943608 0.10619294 0.08835272 -0.005333804
-0.04391018 -0.005680533 0.028152293 0.01155115 -0.021161076 -0.02374367 -0.013123392 0.03660758
-0.017056486 0.014474158 -0.057929657 -0.06944742 0.015044586 -0.028027711 -0.03161825 -0.09353531
-0.05457085 0.006517757 -0.044790402 -0.07132489 -0.09670294 -0.07182859 -0.03104122 0.013228098
-0.05111196 -0.10620868 -0.044391703 0.031271305 -0.088303536 -0.078335665 -0.059817567 -0.116360866
-0.023236185 0.018263059 -0.013773114 -0.006739792 -0.011591754 0.047899578 -0.017772935 -0.024876254
-0.024718734 -0.039101817 0.032757446 0.03551755 0.022088666 -0.02456843 -0.037994564 0.04961894
0.031519406 0.033020347 0.035209507 -0.01591325 0.007119803 0.035411816 0.032192968 -0.023822458
0.02721843 0.009333287 0.042653296 0.0439476 0.022453558 -0.055524867 0.075114004 0.002586508
-0.0051364102 -0.0077111768 0.0036672251 0.04436821 0.015878633 0.015305432 -0.0014647411 0.03556348
0.053369608 0.051129512 -0.030882344 -0.042088877 0.020161977 0.059152123 -0.010649828 -0.031882778
0.015300116 -0.02745823 -0.029391339 -0.054557756 -0.0076001687 0.012681068 -0.0683931 0.049944293

conv2.bias f4 [32]
00000000: f108 4dbe dc54 983c 6568 b6bc 5c83 d43e
00000010: 140f 8ebe 4b84 243e e00c acbd 6686 92bd
00000020: 661b 41bc 6a9a 323f 2f8a 72be fe11 23be
00000030: 7448 9e3d 6af0 66bd 2221 b0bc c671 9a3d
00000040: 9525 d0be 52a2 003f 366c 21bc 6cd7 a33d
00000050: 3654 633f 287a 11bd 8f08 8a3c b899 893e
00000060: bde2 0e3f 4558 52bf dadf da3e 9f29 9ebc
00000070: 8a1f 833d ea30 b4be 5581 f63e 924c 7dbe
-0.20022942 0.018595152 -0.022266576 0.4150647 -0.2774588 0.16066091 -0.08400893 -0.07154541
-0.011786317 0.6976687 -0.23685525 -0.15924832 0.07728663 -0.05638162 -0.021500174 0.07541232
-0.40653673 0.5024768 -0.00985246 0.08000073 0.8880037 -0.035516888 0.016849784 0.2687509
0.55814725 -0.8216594 0.4274891 -0.019306956 0.064025 -0.35193568 0.48145548 -0.2473624

fc1.weight f4 [10, 5408]
00000000: d722 b0bb 067c 8c3c 4622 003c 2172 8d3b
00000010: 77d6 043c 57de 92ba 7185 183b f329 08bc
00000020: 7b74 1e3c 621e 8d3c 442c 473c ee4f 74bc
00000030: 57f1 94bb 1aae 36bc 866a 07ba e0dd 793b
00000040: ee16 77bb 2e6f 49bc 7c80 ad3c 8ca3 45bc
00000050: 4244 e0bb c318 8a3c eff1 a5bb d48a bfba
00000060: c080 3dbc 0608 66bc 0b8e 953c 7bdc 29bc
00000070: 0ca5 193c c7c4 6dbc 86c2 a2ba baaa caba
00000080: d633 f1bb d8b6 05bb dedc 9b3c 2d4f e9b9
00000090: dd37 05bc af62 443c 8d67 edbb 77c8 50bb
000000a0: ff51 87bb b15d 1a3a 0c19 f43b 61bd ee3a
000000b0: 9423 303a ed2c 0fbc 85ed 773c c64a ba3c
000000c0: 8a65 983c 7ceb 1fbc 0847 37b8 debb 2bbc
000000d0: e0b0 96ba acf9 b2bb e0c8 853c f853 b03a
000000e0: 7414 fa3a 43ba cd3a 9d2f b1bc 8980 c23b
000000f0: 2459 e3bb 789b 7f3c 8d1b 9cba a8a3 60bc
00000100: 86a6 423b aa8e d3bc 1cf9 febc 9ea3 233c
00000110: 647f 6bbc 8a0b 7f3c 63a4 d83b 8b46 52bc
00000120: da97 5bbc ecdd 453c d301 753c e795 553b
00000130: 83db 793b 83a5 8d3c 31eb 9abb 604c 6cbc
00000140: bdb1 6fba 7d4b c7bc 246f 9e39 4908 0c3d
00000150: 927d 243c 7f94 ebbc f486 e93a 4826 643c
00000160: 0961 9abb 86d9 a13c 3a9d 573c e0c0 c3bc
00000170: c9f8 d73a 5ea6 a8ba 0d80 6bbb 8c78 a53b
00000180: e201 be3c 470a d93b 15ee e9bb 30c8 04bc
00000190: 9e95 31bc 2538 93bb 0c2f 42bc 3bee 863c
000001a0: a117 bbbc b007 123c 7c9e 2bbc c878 c6ba
000001b0: f165 51bb 00a2 cf3b 22c0 e13b 0bfb 323c
000001c0: b56d 9e3c 7f31 a13c 6793 7d3c dd9d 59bc
000001d0: 6edc aebb fc63 c5bb 092e 82bc 05d5 3dbc
000001e0: 1cf2 90bb c82c a8bb eeef 6d3c f734 d43c
000001f0: 1d30 923c 7793 983c d08c 853c 1078 71ba
00000200: 490f 14bc 136e b13c 2733 c238 f0e4 dabb
00000210: 10d3 bebb 3d41 e13b eec8 bebb f004 f93a
00000220: c63c 903c 5a6c 473b 5bc0 423c 18fa 6d3c
00000230: f161 b63c 8884 623b cc62 34bb 260e f73c
00000240: 085e 093c 1684 58bc 9ace b23a 2285 ebbb
00000250: adcd d83b e275 c73b 78e8 b63b 897a 61bc
00000260: c844 e13c 4fac aa3c 2126 f63c 274b 4fbc
00000270: a1f3 6a3b 06f7 84bc ec39 67bc 998b d0bc
00000280: c081 eb3b 7316 e8bb 47df 2aba 6f28 553c
00000290: 7668 70bc 2cc5 ac3b 0abe 013d f237 7b3c
000002a0: 7a2e 18bc 458e 0fbc a9a1 fb3b 8f5b f2bb
000002b0: 399b d53a 66df 903c 64b1 97bb 1c41 19bc
000002c0: 319d 423c 4249 4a39 2f10 a1bb 00ec 943c
000002d0: ad2d aaba 55c1 a93c 76bc 24bc 3298 f7bb
000002e0: a9fd 423c c54d a3bc 4a9b 343c 43ee 5a3c
000002f0: fb01 203b 7d54 55bc adfb 873b 2cb3 4d3c
00000300: 3e29 0f3c a052 ea3b f892 d73a 25ae 80bc
00000310: 1818 57bc f923 673a d007 96bc fda1 8f3b
00000320: b167 303b 4e5d 163c 83cc 943b 8529 f539
00000330: c668 7b3c d40c 85bb ed4c e1bb 408a 2a3b
00000340: ceec 023c 5cb9 54bb 469f 02bc e854 b33b
00000350: 1e2f 913a bb94 103c e317 8cbb 0e09 b4bc
00000360: 17f9 75bc 6935 e7bb 43e4 72bc 69d6 d8bb
00000370: 8f82 1b3b 7e69 083c fb69 75bb 9431 7b3c
00000380: 50b6 e3bb a53a 2fbc e4a2 59bc 59a3 ad3b
00000390: f9bd 8038 a042 b139 0473 9bba 2059 bc3b
000003a0: eaf6 70bb facc d8bb 2018 7cbb 87d0 de3b
000003b0: 94ab b03a 9d5b 91ba 40c2 acba 5253 393c
000003c0: b7bc 8f3a c552 033b 7000 49bc 898f e83b
000003d0: b0a8 503c 0856 f63b 337d 51bc 0d30 6c3c
000003e0: be27 8db9 3f79 193c e866 e6ba bd13 44bc
000003f0: b11f 863c d189 e2bb b1f3 8a3c d611 a6ba
-0.005375247 0.017148983 0.007820671 0.0043165837 0.008107773 -0.0011205178 0.0023272897 -0.008310783
0.009671326 0.017226402 0.01215655 -0.014911635 -0.0045453715 -0.0111499075 -0.00051657145 0.0038126633
-0.0037702876 -0.012294574 0.02117943 -0.012062918 -0.0068440745 0.01685751 -0.005064241 -0.0014613518
-0.011566341 -0.014039999 0.018256208 -0.010367508 0.009377729 -0.014512247 -0.0012417592 -0.0015462257
-0.0073609157 -0.0020403173 0.019026216 -0.00044500214 -0.008130995 0.011986419 -0.00724501 -0.0031857768
-0.0041296477 0.0005888595 0.007449275 0.0018214398 0.0006719169 -0.0087387385 0.015132313 0.022740733
0.018603105 -0.009760734 -4.3696753e-05 -0.010481803 -0.0011496805 -0.005461892 0.016331136 0.0013452759
0.0019079582 0.0015695769 -0.02162915 0.0059357327 -0.0069381166 0.0156010315 -0.0011910066 -0.013710894
0.0029701306 -0.025824863 -0.031124644 0.00998774 -0.014373634 0.015566716 0.0066113933 -0.012834202
-0.013402903 0.012076836 0.014954048 0.003259057 0.0038125224 0.017290836 -0.004727744 -0.014422506
-0.00091436115 -0.024327988 0.00030218915 0.03418759 0.010039704 -0.028757332 0.0017816708 0.013925143
-0.0047112745 0.019757044 0.013160044 -0.02389568 0.0016477342 -0.0012866964 -0.0035934479 0.0050497707
0.023194257 0.0066235396 -0.0071389773 -0.008104369 -0.010838894 -0.004492777 -0.011852037 0.016471019
-0.022838416 0.008912966 -0.010474797 -0.0015142197 -0.003195163 0.0063364506 0.006889359 0.010924111
0.019339422 0.019676922 0.015477038 -0.013282266 -0.005336336 -0.006023882 -0.015891092 -0.011586432
-0.004423393 -0.0051322915 0.014522536 0.025904162 0.017845208 0.018625004 0.016302496 -0.0009211311
-0.009036847 0.021658933 9.260169e-05 -0.0066801235 -0.0058235005 0.006874232 -0.0058222925 0.0018998664
0.017607104 0.0030429573 0.011886681 0.014524959 0.022263499 0.0034563858 -0.0027524708 0.030158114
0.008384235 -0.0132150855 0.0013641894 -0.0071875015 0.0066163153 0.006087051 0.0055819117 -0.013762125
0.027498618 0.020834116 0.030047478 -0.012652195 0.003585078 -0.016231071 -0.014112931 -0.02545719
0.0071870983 -0.0070827543 -0.0006518256 0.013010128 -0.014673343 0.005272528 0.031675376 0.015333163
-0.009288425 -0.008761947 0.0076791835 -0.0073961685 0.001629687 0.01768465 -0.004629301 -0.009353902
0.011878298 0.00019291512 -0.0049152593 0.01817894 -0.0012983583 0.02072207 -0.010054698 -0.007555985
0.011901298 -0.019934544 0.011023352 0.01336247 0.0024415243 -0.013020632 0.004149875 0.012554925
0.00873786 0.007150963 0.0016446998 -0.015708039 -0.013128303 0.0008817311 -0.018314272 0.004383324
0.0026917274 0.009177519 0.0045409813 0.00046760976 0.015344804 -0.004060367 -0.0068756253 0.0026022345
0.007991029 -0.0032459116 -0.007972544 0.005472768 0.0011076664 0.008824523 -0.0042753085 -0.021976974
-0.015013001 -0.0070559275 -0.01482493 -0.0066173566 0.0023728942 0.008325933 -0.0037447202 0.015331645
-0.0069492236 -0.010695134 -0.013283465 0.0052990136 6.138901e-05 0.0003380971 -0.0011859839 0.005747929
-0.0036768266 -0.006616232 -0.0038466528 0.0067997607 0.0013478869 -0.0011089925 -0.001318045 0.011311369
0.0010966276 0.0020038348 -0.012268171 0.007097189 0.012735531 0.00751758 -0.0127861975 0.014415753
-0.00026923226 0.009367286 -0.0017578276 -0.011967597 0.016372534 -0.0069134017 0.016961904 -0.001267011

fc1.bias f4 [10]
00000000: 9f43 ccbb 0601 583d c604 b33e 56cd 48bd
00000010: 67f6 a7be 692b 9b3c 9127 63bd 2333 9fbd
00000020: a655 f7bc f7be 173e
-0.006233647 0.05273535 0.3496458 -0.04902395 -0.32805178 0.018941598 -0.055457655 -0.077734254
-0.030192208 0.14818941
